COVID-19 Modeling_Umich+ZJU/Python_LSTM/output risk score file/predict output/daily_predict_4_day_avg/checkpoint_daily_4.tar (torch_old, 332570 bytes, 21 tensors)

lstm.weight_ih_l0 f4 [256, 33]
0.11339175 0.044410467 0.057604022 0.13654976 0.12214905 -0.15891078 -0.034505215 -0.15033115
0.005762372 0.17261422 -0.07260982 0.0059832437 0.07754659 -0.12075081 -0.069524616 0.05623398
-0.065771356 0.23944873 -0.013655285 0.037370365 0.05878438 -0.11513854 0.07439804 -0.015330829
0.07625992 -0.026594546 0.15190113 0.16890621 0.18346535 0.05066745 0.21296124 0.14327085
0.27604267 -0.009046681 0.04877863 0.07946609 -0.020502033 0.12216179 0.12013869 -0.08010143
0.12979619 0.036062278 0.026016427 -0.0614423 0.13734159 -0.16691907 -0.120405436 -0.31649575
0.045177747 -0.02216431 -0.114752024 -0.0830968 -0.021572527 -0.06917708 -0.13304532 -0.076150455
0.024779664 -0.06131016 -0.049983058 0.20583302 0.091119885 0.12370518 -0.011837709 -0.06893615
0.17573659 -0.059340946 0.11863372 0.055110455 -0.030214641 -0.06400722 0.029673327 0.05166563
-0.0114766825 0.08563082 0.06902119 -0.07805306 -0.038543813 -0.002360352 -0.033799257 -0.064008206
-0.12398831 -0.083859324 0.16634001 -0.25764102 0.17079823 0.005896038 -0.0240082 0.006931174
0.08028937 0.025215084 0.09757199 0.015722614 -0.09906547 0.037692122 0.015210044 -0.044619244
0.029025158 -0.05469106 -0.032133903 0.1586987 0.26058972 -0.0069648866 -0.018495722 -0.09119523
0.13312322 -0.19918767 0.2245399 0.14596827 -0.05813085 0.023251584 0.15427242 0.018676803
0.04585264 -0.12948091 -0.12551571 -0.070053674 -0.20792578 -0.040682573 -0.17345339 -0.13775736
0.21242158 0.11619643 0.09554785 0.08813358 0.05246452 0.14547387 0.066396646 0.177975
0.16962838 0.20712866 0.029560057 0.004094918 0.008690607 -0.12616335 0.31659704 -0.0635225
0.10228375 -0.02683386 -0.013565895 0.007988301 0.2609506 -0.20799045 0.13499066 -0.08041355
-0.13355856 0.20600745 0.08784388 0.16754796 -0.10846829 0.19349758 0.19508255 0.25284508
0.11447288 0.22845379 0.14003792 -0.023022756 0.29252222 -0.045167316 0.15624624 0.08327835
-0.07222629 0.0032229244 0.16972661 0.13153811 0.044891935 0.009067062 0.15356936 0.10507602
0.12712531 0.112754546 0.09011132 -0.045466065 -0.0077253617 0.07027889 0.30851948 0.055924933
-0.091196135 -0.2772636 0.017469153 -0.06313328 -0.22490652 -0.0490726 -0.17219037 -0.37623528
-0.09108304 -0.06154574 0.2537058 -0.2774667 -0.0027069952 -0.05636371 0.019358242 -0.05631289
0.10795867 0.071602166 0.13514496 0.07700942 0.054296836 -0.078961134 0.091889106 0.36350074
0.31266674 0.0011635848 0.20390482 -0.010898475 -0.09810751 0.08264926 0.19341865 -0.17665549
0.111996405 0.023851736 -0.029609565 -0.2425416 -0.12356694 -0.24554233 -0.0052319337 -0.21755421
-0.0028075047 -0.021150151 0.10073787 0.1355321 0.08488989 0.15086736 0.040249735 0.12634856
0.14502892 0.16391075 0.058827005 0.19277963 -0.0032831815 0.032810647 0.06469595 -0.09139526
0.12555404 0.08236153 -0.14004937 -0.09145056 0.18481466 0.0155396415 -0.019711377 -0.0039581093
0.18864192 0.032170266 0.11240361 -0.00563223 -0.07193282 -0.28490868 -0.055103324 0.02027188
-0.23984666 0.037334677 -0.056109592 0.014254502 -0.22485559 -0.120893136 0.08871887 -0.062330175
00000000: ef39 e83d c0e7 353d 32f2 6b3d b3d3 0b3e
00000010: 4829 fa3d 82b9 22be 5755 0dbd 69f0 19be
00000020: 48d2 bc3b c8c1 303e 75b4 94bd 160f c43b
00000030: bfd0 9e3d 334c f7bd ec62 8ebd 9a55 663d
00000040: 22b3 86bd 0c32 753e 6bba 5fbc ab11 193d
00000050: e4c7 703d c1cd ebbd 005e 983d 282e 7bbc
00000060: 292e 9c3d cedc d9bc f88b 1b3e c0f5 2c3e
00000070: 57de 3b3e ac88 4f3d 8312 5a3e 98b5 123e
00000080: 7755 8d3e 8838 14bc 1acc 473d 1ebf a23d
00000090: e1f3 a7bc f62f fa3d 460b f63d 380c a4bd
000000a0: 4be9 043e 0ab6 133d 6720 d53c ecaa 7bbd
000000b0: 46a3 0c3e d5ec 2abe 2097 f6bd bb0b a2be
000000c0: 4d0c 393d ed91 b5bc 1c03 ebbd a82e aabd
000000d0: deb8 b0bc b7ac 8dbd 083d 08be c5f4 9bbd
000000e0: b9fe ca3c 5d20 7bbd 09bb 4cbd e4c5 523e
000000f0: 109d ba3d 2459 fd3d f3f2 41bc 652e 8dbd
00000100: 4bf4 333e 7e0f 73bd 3cf6 f23d 80bb 613d
00000110: b284 f7bc 3816 83bd 7a15 f33c 579f 533d
00000120: b208 3cbc 365f af3d fb5a 8d3d 48da 9fbd
00000130: 1ee0 1dbd 23b0 1abb 1771 0abd bc16 83bd
00000140: 95ed fdbd 70be abbd 0955 2a3e 86e9 83be
00000150: bbe5 2e3e 8d33 c13b d8ac c4bc e71e e33b
00000160: c16e a43d dd8f ce3c d3d3 c73d b6cc 803c
00000170: d6e2 cabd 0e63 1a3d 8c33 793c abc2 36bd
00000180: 2bc6 ed3c bc03 60bd d79e 03bd e981 223e
00000190: 046c 853e b439 e4bb 5784 97bc 91c4 babd
000001a0: 7451 083e daf7 4bbe caed 653e b578 153e
000001b0: 9d1a 6ebd 1b7a be3c 97f9 1d3e 1800 993c
000001c0: facf 3b3d a596 04be 3187 00be 4d78 8fbd
000001d0: 7fea 54be c5a2 26bd c49d 31be 4410 0dbe
000001e0: 0b85 593e 65f8 ed3d 97ae c33d 617f b43d
000001f0: 09e5 563d 1af7 143e f7fa 873d 143f 363e
00000200: 10b3 2d3e 8919 543e ef27 f23c a92e 863b
00000210: 0c63 0e3c f730 01be 0219 a23e 1618 82bd
00000220: 257a d13d afd2 dbbc 7d43 5ebc 5de1 023c
00000230: 519b 853e 73fb 54be fe3a 0a3e dcaf a4bd
00000240: 93c3 08be 9ef3 523e 7ee7 b33d b191 2b3e
00000250: 9f24 debd 3b24 463e b8c3 473e e974 813e
00000260: c270 ea3d caef 693e 1a66 0f3e 389a bcbc
00000270: 79c5 953e 5d01 39bd 04ff 1f3e d78d aa3d
00000280: 61eb 93bd b337 533b d0cc 2d3e edb1 063e
00000290: 9be0 373d 048e 143c 4941 1d3e 1932 d73d
000002a0: 232d 023e dbeb e63d 498c b83d a03a 3abd
000002b0: 0825 fdbb 61ee 8f3d 44f6 9d3e 8b11 653d
000002c0: 0ac5 babd 7ff5 8dbe 781b 8f3c 054c 81bd
000002d0: e54d 66be 5a00 49bd ac52 30be e9a1 c0be
000002e0: bf89 babd 6317 7cbd bae5 813e 1e10 8ebe
000002f0: d867 31bb a2dd 66bd 2d95 9e3c 58a8 66bd
00000300: 6f19 dd3d 28a4 923d 7163 0a3e 1db7 9d3d
00000310: 5c66 5e3d 60b6 a1bd 5b30 bc3d c51c ba3e
00000320: db15 a03e 6d83 983a 6dcc 503e 848f 32bc
00000330: 97ec c8bd 0444 a93d 8a0f 463e 2de5 34be
00000340: 5f5e e53d b764 c33c c28f f2bc d35c 78be
00000350: aa10 fdbd 736f 7bbe a470 abbb 88c6 5ebe
00000360: 1dfe 37bb 1543 adbc a84f ce3d edc8 0a3e
00000370: c0da ad3d f97c 1a3e e8dc 243d 8461 013e
00000380: 7682 143e 38d8 273e 96f4 703d 0668 453e
00000390: a52a 57bb 7564 063d 4f7f 843d 702d bbbd
000003a0: 3d91 003e 29ad a83d 1a69 0fbe 6e4a bbbd
000003b0: 0e40 3d3e fb99 7e3c c179 a1bc 07b3 81bb
000003c0: 592b 413e f8c4 033d dd33 e63d 928e b8bb
000003d0: 8451 93bd 8ddf 91be 06b4 61bd 3711 a63c
000003e0: 5d9a 75be 3fec 183d 2cd3 65bd b78b 693c
000003f0: 8b40 66be d296 f7bd 3db2 b53d ed4d 7fbd

lstm.weight_hh_l0 f4 [256, 64]
0.018248022 -0.05156003 0.012703642 0.014948279 -0.09934835 -0.047198042 0.08679703 -0.12472345
0.08858943 -0.0944566 -0.08480498 0.07164729 -0.0054444224 0.06369506 0.08491713 -0.036553532
0.040651947 -0.12135531 -0.12249182 0.040910825 -0.061305672 -0.11450595 -0.0002374351 -0.058246896
-0.09373382 0.08799784 0.08223747 0.03037943 -0.018882722 -0.106658384 -0.008439735 -0.07302122
0.07939021 0.033072844 0.1178588 0.04776472 -0.061790213 -0.015237227 0.076813355 -0.06627686
0.060795784 0.038121432 0.05585736 -0.055263877 0.057537302 -0.034746885 0.11786546 -0.12027493
-0.06351861 -0.12186642 -0.11705969 0.044091582 0.047644153 -0.111043155 -0.028445557 -0.0579492
0.072953865 -0.07992433 -0.013603985 0.005972713 -0.053119138 0.10137634 0.07125729 -0.08650175
-0.009685472 0.11721343 0.05620961 0.03460346 -0.11568035 0.0858099 -0.07922663 0.10709104
-0.00092464685 -0.02655302 -0.08614358 -0.007696718 0.094263434 0.05159162 -0.05809197 -0.010130495
-0.024184108 0.057851553 0.09879537 0.07343325 0.09627171 0.10400902 -0.12328628 -0.10017711
-0.11787793 0.080335245 0.061994165 -0.0641201 -0.1068102 0.019454435 -0.07775138 -0.11633554
-0.10291912 0.07172476 -0.06083125 0.08439183 0.12428106 0.034648 0.032080233 0.0058109015
-0.02711688 0.09481245 -0.053921193 0.07240206 0.06731731 -0.06593776 -0.08751166 -0.015854329
0.113547996 -0.08096413 -0.019224703 -0.044628665 0.1026438 -0.03928873 -0.031516016 -0.041542158
0.015854299 0.06344627 0.12242788 -0.05596012 0.09133968 -0.102200225 -0.027303874 0.011008903
0.05757828 0.061166897 0.08875498 0.088489294 0.11282414 -0.12481281 -0.024710149 -0.04350066
0.07031408 -0.002225235 -0.11241616 -0.007332757 0.07121733 0.069163725 0.08096123 -0.025463864
-0.071179315 -0.11144796 0.024349794 0.10201028 0.11791019 0.09507567 0.11485076 -0.061025918
0.066977546 -0.055842757 -0.084518865 -0.10234524 -0.049486324 -0.060525477 -0.080546945 0.05273308
-0.113220185 0.09746954 -0.029473767 -0.10546829 0.05455509 0.024120986 -0.094778776 -0.11257927
-0.090007246 0.08032356 0.058265075 -0.09391895 -0.10794005 -0.019496277 0.12093566 -0.07715249
0.0904991 -0.061504036 0.07257494 -0.05862041 0.08766016 -0.050105438 -0.120017886 0.07337217
0.08037576 0.058173805 -0.12170631 -0.11589801 0.039951622 -0.03756237 0.020693108 -0.039964914
0.08950552 -0.037782863 -0.08433035 0.09298296 -0.11811106 -0.032267347 -0.09058358 0.021291375
-0.090458155 -0.024317443 -0.023273632 -0.048160568 0.119871825 -0.01964426 0.11217049 0.09730373
-0.038143426 0.07923029 0.011788696 -0.057975367 0.10511555 0.0395509 -0.074055284 -0.06017877
0.031705663 -0.009086296 -0.07932125 0.048888817 0.056832656 -0.0042432547 -0.035029322 0.07103789
-0.061695933 0.022562355 0.03306879 -0.08202377 -0.095789954 0.0696284 -0.10956189 -0.104170695
-0.0827432 0.08281651 -0.0012404472 -0.07986313 0.08065842 -0.07685207 -0.029269278 -0.09383175
0.10975051 -0.12007576 -0.07848954 0.052720144 -0.10965797 0.0053453743 -0.014673367 0.083869144
-0.102723286 0.11020976 -0.11144096 -0.05277805 0.11721815 0.1167506 -0.07388139 -0.03930527
00000000: e07c 953c 9c30 53bd f022 503c a0e9 743c
00000010: 2677 cbbd bc52 41bd a4c2 b13d 026f ffbd
00000020: 606e b53d 7672 c1bd 3cae adbd d0bb 923d
00000030: 2067 b2bb 8e72 823d 08e9 ad3d 28b9 15bd
00000040: a882 263d 2289 f8bd fedc fabd 1c92 273d
00000050: a81b 7bbd 1882 eabd 00f8 78b9 4c94 6ebd
00000060: 84f7 bfbd 3638 b43d 1e6c a83d 48de f83c
00000070: f0af 9abc b66f dabd d046 0abc 268c 95bd
00000080: 5697 a23d 6477 073d f45f f13d f0a4 433d
00000090: bc17 7dbd 90a5 79bc 5250 9d3d 2abc 87bd
000000a0: 0005 793d 3825 1c3d b0ca 643d 605c 62bd
000000b0: 3cac 6b3d c052 0ebd 7263 f13d b452 f6bd
000000c0: 0c16 82bd 1a95 f9bd febc efbd 6099 343d
000000d0: 8426 433d 986a e3bd a806 e9bc 245c 6dbd
000000e0: d668 953d 5eaf a3bd 40e3 5ebc c0b6 c33b
000000f0: 7493 59bd 669e cf3d 58ef 913d d427 b1bd
00000100: d0af 1ebc 980d f03d 0c3c 663d 5cbc 0d3d
00000110: d2e9 ecbd 1abd af3d 9241 a2bd 8c52 db3d
00000120: 0064 72ba b885 d9bc 0c6c b0bd c034 fcbb
00000130: 300d c13d bc51 533d d8f1 6dbd 60fa 25bc
00000140: c01d c6bc c0f5 6c3d 3a55 ca3d 2c64 963d
00000150: 1a2a c53d ae02 d53d 847d fcbd a829 cdbd
00000160: fc69 f1bd ce86 a43d 98ed 7d3d 6651 83bd
00000170: 4ebf dabd e85e 9f3c 1e3c 9fbd 5441 eebd
00000180: 42c7 d2bd 6ee4 923d 302a 79bd a0d5 ac3d
00000190: 1287 fe3d 10eb 0d3d 9066 033d 6069 be3b
000001a0: 3824 debc 082d c23d 78dc 5cbd 8847 943d
000001b0: a8dd 893d 600a 87bd 5039 b3bd f0e0 81bc
000001c0: da8b e83d 86d0 a5bd 207d 9dbc 8ccc 36bd
000001d0: ea36 d23d 38ed 20bd f016 01bd 1c28 2abd
000001e0: e0e0 813c 1ef0 813d 78bb fa3d 7036 65bd
000001f0: 4c10 bb3d 5a4e d1bd 60ac dfbc b05e 343c
00000200: 34d7 6b3d 248a 7a3d 2cc5 b53d e039 b53d
00000210: 5810 e73d dc9d ffbd f06c cabc c02d 32bd
00000220: d400 903d 40d5 11bb 723a e6bd a047 f0bb
00000230: 64da 913d b6a5 8d3d 00cf a53d 9899 d0bc
00000240: 76c6 91bd d43e e4bd 3879 c73c c4ea d03d
00000250: e67a f13d 08b7 c23d e036 eb3d 50f6 79bd
00000260: 862b 893d 60bb 64bd 3a18 adbd 629a d1bd
00000270: 2cb2 4abd 90e9 77bd ccf5 a4bd a4fe 573d
00000280: fcdf e7bd 1c9e c73d f872 f1bc c2ff d7bd
00000290: 2875 5f3d 6099 c53c 601b c2bd f68f e6bd
000002a0: b855 b8bd ae80 a43d 5ca7 6e3d 9458 c0bd
000002b0: ac0f ddbd a8b6 9fbc 1ead f73d 2002 9ebd
000002c0: 9857 b93d a8eb 7bbd 2ca2 943d f41b 70bd
000002d0: 2c87 b33d 5c3b 4dbd f0cb f5bd 2644 963d
000002e0: 0c9c a43d a847 6e3d 2841 f9bd f05b edbd
000002f0: 50a4 233d 00db 19bd 9884 a93c 40b2 23bd
00000300: ac4e b73d 34c2 1abd 64b5 acbd da6d be3d
00000310: 36e4 f1bd c42a 04bd e283 b9bd 406b ae3c
00000320: 2042 b9bd 6035 c7bc 58a8 bebc 0444 45bd
00000330: 5c7f f53d 00ed a0bc a4b9 e53d 2e47 c73d
00000340: 483c 1cbd 7e43 a23d 6025 413c 9477 6dbd
00000350: d246 d73d 2000 223d 4caa 97bd 047e 76bd
00000360: ccdd 013d b0de 14bc 2e73 a2bd a43f 483d
00000370: 5cc9 683d 000b 8bbb e87a 0fbd 507c 913d
00000380: e0b4 7cbd b0d4 b83c 2473 073d 14fc a7bd
00000390: 862d c4bd 5699 8e3d fc61 e0bd 7257 d5bd
000003a0: 4475 a9bd b49b a93d 8096 a2ba 488f a3bd
000003b0: 3e30 a53d 9e64 9dbd 20c6 efbc dc2a c0bd
000003c0: e0c4 e03d 48ea f5bd 20bf a0bd 14f1 573d
000003d0: 5c94 e0bd 4028 af3b 9068 70bc 96c3 ab3d
000003e0: 9660 d2bd a8b5 e13d 283b e4bd cc2d 58bd
000003f0: 1210 f03d f01a ef3d 204f 97bd 90fe 20bd

lstm.bias_ih_l0 f4 [256]
0.018554058 0.1504174 -0.069370285 -0.044960216 -0.0041584605 0.006473544 0.015781455 -0.06800904
0.009635694 0.052268576 -0.09607061 0.11660722 0.110908985 -0.077760115 0.070033565 0.04473453
0.01534389 0.0360415 -0.018128514 -0.09132405 0.03218123 -0.023379017 0.16174796 -0.08762613
0.061711676 -0.192969 0.072341375 0.13133632 0.015244365 0.057695862 -0.1023132 -0.08181962
0.10264933 0.14102498 0.07669192 0.05591357 0.18878964 -0.08939438 -0.121468395 0.11254156
-0.01833814 0.0074220244 -0.109203726 -0.019151768 0.105213664 -0.017575728 0.027464204 -0.036145024
0.118450195 -0.07076443 0.01764572 -0.078270815 0.05527811 0.0026699752 0.070437275 -0.11294978
-0.007668613 0.20213093 0.11017479 -0.01572116 -0.03654219 0.061315604 0.017955411 0.0038026036
-0.062335983 -0.037548274 -0.105486706 0.09907816 -0.0062966794 0.050599843 0.120921 -0.09564513
-0.10442567 -0.08611108 -0.016146332 0.07782945 0.08681187 0.09039456 0.05118978 -0.0973365
0.10970025 -0.08121176 -0.024632528 -0.10977064 0.100033075 0.073477104 -0.11146207 0.007852718
0.019430444 -0.0043640584 0.030177876 -0.024745926 0.09514435 -0.08067191 -0.100790635 0.06033039
-0.03520313 -0.036676034 -0.0831652 0.023254856 -0.05263479 0.029265955 -0.080863744 -0.12482822
0.021512687 -0.06341389 -0.0049458146 -0.087319106 0.06420615 -0.05852002 0.12410694 -0.099758
0.066313654 -0.07535444 0.055940375 -0.0951383 -0.05041614 0.08726293 -0.11928567 -0.06173101
-0.06495865 -0.03875269 -0.104185924 0.12035599 0.11819598 -0.11833824 0.03778167 0.05190067
0.039718688 -0.0996858 0.008974175 0.06339726 0.09621524 -0.00058673136 0.11800711 -0.025499944
0.059056684 0.040623043 -0.0072856806 -0.07161095 -0.13182989 0.16016296 0.050382417 -0.031396847
0.015915025 0.07318622 -0.0032175481 0.07811019 -0.04484291 -0.08633349 -0.12159637 0.055978503
0.10171032 0.13595173 0.021425826 -0.09027856 0.08576818 0.14925961 0.07962448 0.0938278
-0.01981369 0.0170835 -0.060023468 -0.052455176 -0.07890982 -0.04579503 -0.019603683 0.07676927
-0.1054705 -0.037111428 0.061838962 0.08291471 -0.082468905 -0.12565692 -0.068619065 0.05275606
-0.07632272 -0.042423923 0.11670174 -0.10339537 0.06232709 -0.10670141 0.1263512 -0.0007576441
-0.025136098 0.057838377 0.012699541 -0.005773596 0.011845084 0.1256934 -0.02723222 0.079928495
-0.13264327 0.12558837 0.14000344 -0.020451438 -0.017642548 0.09593681 0.02480001 0.0035058928
0.022667266 -0.09551671 0.1260212 0.03645163 0.0057022017 -0.032995623 -0.113346465 0.0037307187
0.038158264 0.03451283 0.12578927 -0.076350585 -0.11600211 -0.08020294 -0.09439507 -0.06769982
-0.039341394 -0.07678158 0.12469224 -0.029211737 -0.07713445 0.05834445 0.078196794 0.09990822
0.027617678 0.10029735 0.0776618 0.05295995 0.27033204 0.07390204 -0.044654313 0.05116343
0.16723141 0.03395913 0.026836403 -0.014004704 -0.09959284 -0.07224575 -0.08329112 -0.033528678
0.09933123 0.10622354 0.14824724 0.07740087 -0.10490176 0.07645797 0.1864783 0.021268867
-0.09851618 0.03253734 -0.0045268866 0.01768327 -0.060726922 0.0552424 0.019475572 -0.0873547
00000000: aefe 973c 0507 1a3e 0212 8ebd 3428 38bd
00000010: b243 88bb 0620 d43b 1c48 813c 5348 8bbd
00000020: 08df 1d3c 9317 563d abc0 c4bd c4cf ee3d
00000030: 4024 e33d b240 9fbd c26d 8f3d 8e3b 373d
00000040: f064 7b3c 40a0 133d 4082 94bc 1b08 bbbd
00000050: 77d0 033d 5a85 bfbc 42a1 253e 5475 b3bd
00000060: 62c5 7c3d aa99 45be b727 943d 077d 063e
00000070: 80c3 793c 7f52 6c3d 9589 d1bd 0c91 a7bd
00000080: d039 d23d da68 103e a710 9d3d a105 653d
00000090: 1252 413e 6714 b7bd 6cc4 f8bd 307c e63d
000000a0: de39 96bc 7434 f33b 34a6 dfbd 2be4 9cbc
000000b0: 437a d73d f9fa 8fbc 9cfc e03c ce0c 14bd
000000c0: 0496 f23d f1ec 90bd c28d 903c 734c a0bd
000000d0: 4d6b 623d c0fa 2e3b 6b41 903d 3752 e7bd
000000e0: fd48 fbbb 69fb 4e3e 52a3 e13d aac9 80bc
000000f0: 43ad 15bd 1226 7b3d 3a17 933c 1a35 793b
00000100: 0454 7fbd 38cc 19bd 6a09 d8bd 7ee9 ca3d
00000110: 6054 cebb c841 4f3d 6ea5 f73d 98e1 c3bd
00000120: 20dd d5bd 025b b0bd 5045 84bc 0c65 9f3d
00000130: 6cca b13d c820 b93d 60ac 513d 5c58 c7bd
00000140: 86aa e03d 5a52 a6bd 28ca c9bc 6ecf e0bd
00000150: 24de cc3d 2a7b 963d 3a46 e4bd b0a8 003c
00000160: 982c 9f3c 6000 8fbb 9837 f73c f8b7 cabc
00000170: 0adb c23d 5037 a5bd 526b cebd 001d 773d
00000180: 2831 10bd 9c39 16bd 8452 aabd f880 be3c
00000190: 9497 57bd 28bf ef3c e49b a5bd f0a5 ffbd
000001a0: 603b b03c 24df 81bd 8010 a2bb 5cd4 b2bd
000001b0: 847e 833d b0b2 6fbd c82b fe3d ec4d ccbd
000001c0: 74cf 873d 6e53 9abd bc21 653d ded7 c2bd
000001d0: 2881 4ebd e8b6 b23d 0c4c f4bd a8d9 7cbd
000001e0: 0a09 85bd 24bb 1ebd 6e5f d5bd 347d f63d
000001f0: bc10 f23d 525b f2bd f4c0 1a3d cc95 543d
00000200: 10b0 223d 1228 ccbd 6b08 133c 6cd6 813d
00000210: 7f0c c53d e0ce 19ba b6ad f13d 42e5 d0bc
00000220: 6ce5 713d 5964 263d b8bc eebb c3a8 92bd
00000230: 6afe 06be c201 243e cb5d 4e3d fb99 00bd
00000240: 3a60 823c a8e2 953d 80dd 52bb 3cf8 9f3d
00000250: 33ad 37bd 9dcf b0bd 8507 f9bd b749 653d
00000260: 804d d03d ee36 0b3e 3785 af3c f7e3 b8bd
00000270: 3aa7 af3d 83d7 183e 2912 a33d ca28 c03d
00000280: 5250 a2bc b2f2 8b3c 2bdb 75bd 3ddb 56bd
00000290: 799b a1bd 9293 3bbd e797 a0bc 3539 9d3d
000002a0: eb00 d8bd 2702 18bd da4a 7d3d 30cf a93d
000002b0: 75e5 a8bd 35ac 00be 2788 8cbd bd16 583d
000002c0: 164f 9cbd b5c4 2dbd 5201 ef3d f4c0 d3bd
000002d0: b14a 7f3d 4586 dabd 3562 013e a39c 46ba
000002e0: 38ea cdbc efe7 6c3d bc11 503c 6f30 bdbb
000002f0: e211 423c c5b5 003e 1b16 dfbc 8db1 a33d
00000300: a3d3 07be 3d9a 003e 105d 0f3e c689 a7bc
00000310: 1b87 90bc 857a c43d 6429 cb3c 1fc3 653b
00000320: b4b0 b93c 449e c3bd b40b 013e 4e4e 153d
00000330: 89d9 ba3b 6b26 07bd 3122 e8bd 137f 743b
00000340: d74b 1c3d 535d 0d3d e7ce 003e b25d 9cbd
00000350: 8492 edbd 7041 a4bd 3452 c1bd 34a6 8abd
00000360: 7124 21bd a93f 9dbd a55e ff3d 744d efbc
00000370: abf8 9dbd 97fa 6e3d a425 a03d ae9c cc3d
00000380: 783e e23c b268 cd3d 260d 9f3d 88ec 583d
00000390: f668 8a3e f459 973d 71e7 36bd bf90 513d
000003a0: b63e 2b3e bb18 0b3d 04d8 db3c fc73 65bc
000003b0: 55f7 cbbd 94f5 93bd 8994 aabd 5e55 09bd
000003c0: 2c6e cb3d ba8b d93d 20ce 173e 5984 9e3d
000003d0: bcd6 d6bd ff95 9c3d 2bf4 3e3e 0c3c ae3c
000003e0: dac2 c9bd e045 053d 4756 94bb 81dc 903c
000003f0: cbbc 78bd db45 623d 3c8b 9f3c 05e7 b2bd

lstm.bias_hh_l0 f4 [256]
0.010551125 0.03167349 -0.050324403 0.06208293 0.08422728 -0.13190891 0.059720546 0.042096045
0.1120377 0.087071076 -0.08698756 0.11388635 -0.088144526 0.008821252 0.09450358 0.016013581
-0.13801901 0.0026664487 0.035564087 0.06006132 0.014018155 0.026809994 0.066480786 -0.10104215
-0.089696586 -0.05250677 -0.085760154 0.11073482 0.05561056 0.06784 -0.15755473 -0.14044611
0.020666879 0.13635868 0.01176387 0.13743864 0.15353133 0.034500167 0.10592787 -0.08496352
0.103559665 0.08804044 0.025319021 0.08751941 0.073238544 -0.08361072 0.032016844 0.03614926
-0.01605216 0.05235228 0.054250825 -0.042131774 0.017770512 0.008140538 -0.02084412 0.04398478
0.0906305 0.02805888 0.11071962 -0.024266839 0.114512995 -0.08844962 -0.095222026 -0.04589712
0.07017343 0.05007577 0.01531975 -0.002740845 -0.009372368 0.05834973 -0.09864093 -0.07285714
-0.115393 0.039651036 -0.103352964 0.053165823 0.11388612 0.10588929 0.10706748 0.062586784
-0.034566894 -0.08633596 -0.0639365 -0.028985605 -0.027652487 0.05426857 -0.07562822 0.04365398
0.08332622 -0.01046513 -0.046163782 0.0713623 0.08234039 0.12129904 0.006134048 -0.010030761
0.0060403645 0.037469506 0.10298644 -0.06524716 0.092601955 0.037482172 -0.022925913 -0.10144614
-0.08093721 0.031492904 0.03240879 0.043701604 -0.03542964 0.0953047 -0.0895094 -0.065565884
-0.028610915 -0.072936445 0.069962546 0.0909013 -0.002260387 0.0826931 -0.03724155 -0.081498116
-0.0019813776 0.081796765 0.07928866 0.0076257586 -0.010566115 -0.031931356 0.0041519403 0.10576016
-0.04228305 0.05749815 -0.12424899 0.12449058 0.14196682 -0.08817733 0.04497923 -0.110710494
-0.11077529 0.03176334 -0.03451983 -0.12501878 -0.048889484 0.06677096 0.012883438 0.046633434
-0.09952647 0.037736993 -0.01361979 -0.06538291 -0.01583919 0.08439002 -0.14939043 -0.07050502
-0.10062976 0.097783566 -0.04309473 -0.11600021 -0.06777145 0.11358033 -0.105282806 -0.059445553
-0.10106368 -0.091376334 0.06616972 0.034514178 -0.053008147 -0.034171127 0.06594925 0.012545121
-0.08971127 -0.11806698 0.18454014 0.0027805285 -0.062060393 0.029958593 -0.08475691 -0.09987367
-0.01669644 -0.07200774 0.07200958 -0.046839986 0.056400467 -0.09206829 0.08828776 0.12206844
-0.04974394 -0.14239068 -0.029381275 -0.21801952 -0.06833861 0.018071536 -0.13747884 0.114879616
0.09698095 -0.08636893 -0.09688679 -0.09251826 0.007172897 0.038426436 -0.022845287 -0.07316706
0.09012339 0.06935443 -0.06397784 -0.09288148 -0.12442688 -0.045690324 -0.0510256 -0.08002839
-0.056835946 0.15470736 0.058858663 0.08539991 0.0011464682 -0.04282905 -0.09389137 0.10972281
0.019737579 0.005520483 0.08979432 0.18738563 -0.017068284 -0.01905642 -0.09976192 0.007614446
0.025666893 -0.084434174 0.032889705 0.029592654 0.08793353 0.13325547 0.10497028 0.088141724
0.032975286 0.05402724 0.041416124 0.009911477 0.036844105 0.03749892 -0.039127983 0.060882725
-0.059493236 0.110828176 0.18280736 -0.0055408166 0.048449714 -0.10637397 0.19172461 0.043620683
-0.0048618643 -0.034485623 0.17156044 0.049233343 -0.0016405603 0.029179782 0.09546532 -0.027688399
00000000: a0de 2c3c 10bc 013d f620 4ebd ac4a 7e3d
00000010: 5a7f ac3d 2113 07be 889d 743d e76c 2c3d
00000020: 0674 e53d 5252 b23d 8926 b2bd 3f3d e93d
00000030: 1e85 b4bd 0387 103c 188b c13d ea2e 833c
00000040: db54 0dbe 96bf 2e3b a6ab 113d dc02 763d
00000050: 67ac 653c a2a0 db3c 1427 883d 30ef cebd
00000060: d8b2 b7bd 5711 57bd 05a3 afbd f0c8 e23d
00000070: e6c7 633d b3ef 8a3d 0756 21be 1bd1 0fbe
00000080: 964d a93c 9ca1 0b3e 3fbd 403c b7bc 0c3e
00000090: 5137 1d3e 0c50 0d3d b6f0 d83d 5b01 aebd
000000a0: 1717 d43d 8c4e b43d d669 cf3c 603d b33d
000000b0: 17fe 953d 193c abbd 1824 033d 3f11 143d
000000c0: d27f 83bc 586f 563d 1d36 5e3d 5e92 2cbd
000000d0: 7793 913c e45f 053c 4ac1 aabc 6229 343d
000000e0: 7c9c b93d bcdb e53c f8c0 e23d 40cb c6bc
000000f0: ca85 ea3d 1325 b5bd c403 c3bd 9efe 3bbd
00000100: 16b7 8f3d 401c 4d3d b0ff 7a3c c09f 33bb
00000110: 908e 19bc 2000 6f3d 4204 cabd 2036 95bd
00000120: 2a53 ecbd 2069 223d b8aa d3bd 68c4 593d
00000130: 203d e93d 7cdc d83d 3246 db3d 802d 803d
00000140: 0496 0dbd e8d0 b0bd 24f1 82bd 3873 edbc
00000150: 7887 e2bc b848 5e3d f8e2 9abd 84ce 323d
00000160: f0a6 aa3d f075 2bbc 3c16 3dbd 6626 923d
00000170: 14a2 a83d a26b f83d 2000 c93b 1058 24bc
00000180: 40ee c53b a079 193d 8eea d23d 4ea0 85bd
00000190: 18a6 bd3d e886 193d 20cf bbbc fec2 cfbd
000001a0: 68c2 a5bd b4fe 003d 14bf 043d 7400 333d
000001b0: ac1e 11bd 1c2f c33d b450 b7bd 6847 86bd
000001c0: 7061 eabc b45f 95bd 8648 8f3d 762a ba3d
000001d0: 0023 14bb 005b a93d 988a 18bd 7ce8 a6bd
000001e0: 00da 01bb 1085 a73d 1862 a23d 80e1 f93b
000001f0: 801d 2dbc 74ca 02bd 000d 883b c898 d83d
00000200: fe30 2dbd 2e83 6b3d 4176 febd ebf4 fe3d
00000210: c05f 113e 5196 b4bd 243c 383d 2fbc e2bd
00000220: 28de e2bd 471a 023d aa64 0dbd ec04 00be
00000230: 5740 48bd 37bf 883d 0e15 533c b302 3f3d
00000240: 89d4 cbbd 1b92 1a3d 8a25 5fbc 7ae7 85bd
00000250: 30c1 81bc add4 ac3d cef9 18be f064 90bd
00000260: fa16 cebd c042 c83d 1984 30bd 8591 edbd
00000270: c2cb 8abd ce9c e83d 839e d7bd 2e7d 73bd
00000280: 7afa cebd 8423 bbbd fd83 873d bd5e 0d3d
00000290: 121f 59bd 06f7 0bbd 6610 873d 0d8a 4d3c
000002a0: 8bba b7bd 1acd f1bd 17f8 3c3e 8739 363b
000002b0: 0a33 7ebd b96b f53c 0895 adbd 918a ccbd
000002c0: f9c6 88bc cb78 93bd c279 933d 49db 3fbd
000002d0: 2d04 673d 4d8e bcbd 37d0 b43d 05ff f93d
000002e0: 4dc0 4bbd ddce 11be 00b1 f0bc 8240 5fbe
000002f0: 1df5 8bbd c20a 943c 41c7 0cbe 0146 eb3d
00000300: f39d c63d 32e2 b0bd 956c c6bd 377a bdbd
00000310: 9f0a eb3b 0a65 1d3d 0a26 bbbc 9dd8 95bd
00000320: 9d92 b83d b209 8e3d d006 83bd a538 bebd
00000330: 85d3 febd c725 3bbd 3800 51bd ede5 a3bd
00000340: cfcc 68bd 9b6b 1e3e c815 713d 26e6 ae3d
00000350: 1745 963a 846d 2fbd 1e4a c0bd 5ab6 e03d
00000360: b4b0 a13c 2be5 b43b 16e6 b73d 05e2 3f3e
00000370: c9d2 8bbc 361c 9cbc fa4f ccbd 9a82 f93b
00000380: 6043 d23c d3eb acbd 5bb7 063d 4b6c f23c
00000390: 7f16 b43d 1f74 083e a8fa d63d a683 b43d
000003a0: 1811 073d ab4b 5d3d f4a3 293d bf63 223c
000003b0: d8e9 163d 7898 193d aa44 20bd 2a60 793d
000003c0: 2eaf 73bd e2f9 e23d da31 3b3e bd8f b5bb
000003d0: 3573 463d 99da d9bd 7553 443e 9aab 323d
000003e0: 4650 9fbb cc40 0dbd 8aad 2f3e e7a8 493d
000003f0: 1208 d7ba 700a ef3c 5283 c33d c8d2 e2bc

linear.weight f4 [32, 64]
-0.22821967 0.0175961 -0.15094464 -0.13135651 0.10374348 -0.2166652 -0.101401925 0.1370843
-0.08534243 -0.22442369 -0.23890272 0.049786575 0.007972542 -0.079355665 -0.18343592 -0.05299317
0.19583552 0.05597043 0.18258998 -0.23715357 -0.11780823 -0.08831899 0.13894609 0.12930496
0.18543006 -0.19774018 0.02654863 0.13141984 0.16472405 -0.060340863 0.071299314 -0.03781814
-0.13832775 -0.046988953 -0.14773022 0.06028336 0.18094264 -0.07858385 -0.16566482 0.04247323
-0.2110314 0.0007166718 0.22078305 -0.09741004 0.093609646 0.09129631 -0.1920636 -0.13429861
-0.14366545 -0.11099143 -0.014440937 0.041614812 0.14016579 0.07792109 -0.06511066 -0.045653287
-0.010515549 -0.1249149 -0.13161694 -0.16572888 0.0538571 0.07248492 -0.08106757 0.01933011
-0.2916328 -0.15346394 0.012019237 -0.01869181 0.08248201 -0.10271865 -0.08643088 0.15491502
-0.17230006 -0.21741788 -0.24811147 -0.11790483 0.08477683 -0.13437197 -0.03933431 -0.18048057
0.23420262 0.2218157 0.20395395 -0.050759457 -0.1531891 -0.088436596 0.042470716 0.15787514
0.13874932 -0.08118658 -0.071726 0.07564771 0.09480759 -0.16330324 0.19429868 0.12160183
-0.057454873 -0.07283266 -0.06974628 0.14629254 0.17346875 0.006397765 -0.18167166 -0.11084254
-0.18600485 -0.049892925 0.17957333 -0.0778277 0.13117096 0.08673646 -0.10782841 0.0023598047
-0.18574013 -0.17738284 -0.22643423 -0.16269371 0.14047538 0.17932343 -0.19607984 -0.104410894
-0.109988146 -0.031267762 -0.040568437 -0.052931834 0.05802449 0.102382764 -0.10081017 -0.12590708
-0.12784305 0.030793477 -0.0021971506 -0.19152968 0.25170198 -0.27229756 -0.043528713 0.003974912
0.034686055 -0.09124754 -0.10965484 -0.13334166 0.1936026 0.028183272 -0.20140038 0.020358773
0.054783422 0.1202041 0.0046254927 -0.02272362 -0.0943467 -0.17552587 0.1499348 0.08738192
0.117400624 -0.1032663 -0.06766103 0.17125936 0.21611467 -0.17849356 0.16324425 0.17116882
0.05518141 0.048549034 -0.065225236 -0.046146844 0.09044486 -0.11351659 -0.22595789 -0.055684816
-0.11173464 0.18434574 0.14742963 -0.15071507 0.19755574 0.08586128 -0.09960691 -0.08788616
-0.014707845 -0.105797864 -0.19137137 -0.17358527 0.038121417 0.09913602 -0.20915262 -0.04052117
-0.08303739 -0.074091755 -0.12533961 -0.12703602 -0.045634124 0.091266125 -0.009014763 0.023481546
0.18795092 0.19228473 0.14281179 0.012134553 -0.23304282 0.08167816 0.08560029 -0.016178587
-0.02423326 0.17081659 0.07765581 0.061221 -0.1571201 -0.0047774776 0.071455516 0.11912946
0.00063439435 -0.046576757 -0.18489753 0.20707493 0.050549384 0.083388485 -0.14102785 -0.017074915
-0.20549168 0.052105274 0.04414032 -0.12563886 -0.13365638 0.045819685 -0.13440062 -0.18697603
-0.06988455 0.14204292 -0.067092694 -0.021341894 -0.18634056 0.035132695 0.033397414 0.025523646
0.14138217 -0.13451582 -0.21209244 0.13837428 0.016774826 -0.03023539 0.19623968 0.04995591
0.16790691 0.059471935 0.13050845 0.02140603 -0.17227936 -0.07829088 0.15870929 0.17679177
0.0239406 0.123174995 0.24502423 0.11981572 0.002058902 -0.036491536 0.18489537 0.06762295
00000000: 6bb2 69be b225 903c 3b91 1abe 5282 06be
00000010: 7677 d43d 7bdd 5dbe d0ab cfbd d45f 0c3e
00000020: 03c8 aebd 53cf 65be eaa2 74be 02ed 4b3d
00000030: 449f 023c 3985 a2bd a0d6 3bbe 5e0f 59bd
00000040: 1b89 483e 4041 653d def8 3a3e 63d8 72be
00000050: 7145 f1bd 96e0 b4bd e247 0e3e 8568 043e
00000060: 61e1 3d3e 677c 4abe 837c d93c ec92 063e
00000070: 6cad 283e fb27 77bd 6005 923d 32e7 1abd
00000080: caa5 0dbe 7d77 40bd 9746 17be afeb 763d
00000090: 0749 393e 92f0 a0bd 0aa4 29be 69f8 2d3d
000000a0: 9e18 58be 08df 3b3a f414 623e ea7e c7bd
000000b0: 6ab6 bf3d 8ff9 ba3d 52ac 44be 9385 09be
000000c0: 091d 13be 7a4f e3bd ae99 6cbc 4b74 2a3d
000000d0: 9f87 0f3e 1895 9f3d bd58 85bd f1fe 3abd
000000e0: 6949 2cbc 62d3 ffbd 97c6 06be d5b4 29be
000000f0: 4399 5c3d f972 943d c106 a6bd 2e5a 9e3c
00000100: e550 95be a725 1dbe 55ec 443c 911f 99bc
00000110: 54ec a83d 285e d2bd ac02 b1bd 0ba2 1e3e
00000120: 6d6f 30be cba2 5ebe ef10 7ebe 1678 f1bd
00000130: 7a9f ad3d ce98 09be 031d 21bd e6cf 38be
00000140: d0d2 6f3e a823 633e 4ed9 503e 26e9 4fbd
00000150: 9add 1cbe 3f1e b5bd c6f5 2d3d 05aa 213e
00000160: 4d14 0e3e 2645 a6bd 15e5 92bd 30ed 9a3d
00000170: 7b2a c23d f738 27be 3cf6 463e 610a f93d
00000180: cd55 6bbd 4a29 95bd 23d7 8ebd b6cd 153e
00000190: cba1 313e 58a4 d13b 2308 3abe 6a01 e3bd
000001a0: 0e78 3ebe 865c 4cbd 12e2 373e 2164 9fbd
000001b0: ae51 063e e3a2 b13d 24d5 dcbd f4a6 1a3b
000001c0: a932 3ebe d9a3 35be 60de 67be 2e99 26be
000001d0: c7d8 0f3e 90a0 373e 27c9 48be 61d5 d5bd
000001e0: 7741 e1bd a012 00bd 172b 26bd 0dcf 58bd
000001f0: 16ab 6d3d 0eae d13d 9075 cebd c9ed 00be
00000200: 4ae9 02be 9a42 fc3c 12fe 0fbb 5b20 44be
00000210: 15df 803e 966a 8bbe 2a4b 32bd fb3f 823b
00000220: f712 0e3d fedf babd b792 e0bd b78a 08be
00000230: c33f 463e 9be0 e63c e73b 4ebe 71c7 a63c
00000240: 9564 603d 912d f63d 7291 973b e326 babc
00000250: d838 c1bd 0ebd 33be 8288 193e 4bf5 b23d
00000260: bd6f f03d 487d d3bd de91 8abd 9d5e 2f3e
00000270: 2a4d 5d3e 04c7 36be 8029 273e e146 2f3e
00000280: e705 623d 5adb 463d cf94 85bd 7904 3dbd
00000290: 283b b93d 637b e8bd 8161 67be c315 64bd
000002a0: 22d5 e4bd 21c5 3c3e cbf7 163e 0d55 1abe
000002b0: 0d4c 4a3e 0ad8 af3d b5fe cbbd a9fd b3bd
000002c0: 2cf9 70bc 8dac d8bd dbf6 43be 56c0 31be
000002d0: 3425 1c3d d307 cb3d 1b2c 56be 87f9 25bd
000002e0: 820f aabd 6bbd 97bd 0759 00be bb15 02be
000002f0: d9ea 3abd bce9 ba3d a8b2 13bc 5f5c c03c
00000300: 3576 403e 4ae6 443e 413d 123e 01d0 463c
00000310: c7a2 6ebe e146 a73d 344f af3d f588 84bc
00000320: d484 c6bc 8bea 2e3e 020a 9f3d dfc2 7a3d
00000330: 17e4 20be 638c 9cbb 4557 923d 25fa f33d
00000340: 7c4d 263a 45c7 3ebd c755 3dbe 730b 543e
00000350: df0c 4f3d 95c7 aa3d 9b69 10be b1e0 8bbc
00000360: 696c 52be 576c 553d 7bcc 343d 79a7 00be
00000370: 38dd 08be 6cad 3b3d 51a0 09be a576 3fbe
00000380: a21f 8fbd b373 113e e567 89bd 32d5 aebc
00000390: 0fd0 3ebe 4de7 0f3d bacb 083d f716 d13c
000003a0: 7dc6 103e 84be 09be c32e 59be fdb1 0d3e
000003b0: 5c6b 893c 35b0 f7bc 0ef3 483e 919e 4c3d
000003c0: caef 2b3e d898 733d 02a4 053e b35b af3c
000003d0: 006a 30be f856 a0bd b084 223e e708 353e
000003e0: 141f c43c 2c43 fc3d a2e7 7a3e f261 f53d
000003f0: a5ee 063b 2678 15bd 3655 3d3e e77d 8a3d

linear.bias f4 [32]
0.0073494483 -0.012851751 0.14384787 -0.1520585 -0.038372967 0.025942106 0.076485924 0.09942448
-0.005081765 0.0359693 -0.054458946 -0.053507797 0.14467843 -0.11024024 -0.021580229 0.026678002
-0.08815461 0.11676481 0.057828344 0.14393675 -0.08572975 0.050867897 -0.01901321 -0.08311422
0.1129984 -0.14698237 -0.103143826 -0.05872975 -0.13671589 -0.0874443 -0.0476165 -0.06747054
00000000: a4d3 f03b 2790 52bc db4c 133e 39b5 1bbe
00000010: f92c 1dbd 8a84 d43c a7a4 9c3d 109f cb3d
00000020: ef84 a6bb 8b54 133d 5810 5fbd fe2a 5bbd
00000030: 9526 143e a3c5 e1bd 05c9 b0bc d38b da3c
00000040: 678a b4bd 6422 ef3d 6add 6c3d 2864 133e
00000050: 1493 afbd db5a 503d 97c1 9bbc ca37 aabd
00000060: b56b e73d 8c82 16be 123d d3bd 9b8e 70bd
00000070: 40ff 0bbe ff15 b3bd 8509 43bd ff2d 8abd

linear1.weight f4 [1, 32]
0.35123837 0.14538074 0.17690273 -0.18648325 0.26826838 0.20337544 0.18749993 0.18055114
0.18731715 -0.19881316 0.24239382 0.25497958 0.19844308 -0.32608572 -0.2098158 -0.26824415
-0.26704597 0.19914234 -0.27218893 0.2538784 -0.2788709 0.32813966 0.30225715 0.19973618
0.18947898 -0.17056338 -0.23410948 0.25148782 -0.1606943 0.27316532 -0.14469603 -0.24697319
00000000: 84d5 b33e b0de 143e fd25 353e 77f5 3ebe
00000010: 795a 893e a741 503e fbff 3f3e 66e2 383e
00000020: 11d0 3f3e ad95 4bbe 1636 783e af8c 823e
00000030: aa34 4b3e b5f4 a6be f4d9 56be 4c57 89be
00000040: 40ba 88be f8eb 4b3e 595c 8bbe 5afc 813e
00000050: 2bc8 8ebe ec01 a83e 73c1 9a3e a487 4c3e
00000060: c706 423e 2ba8 2ebe 65ba 6fbe 03c3 803e
00000070: 0c8d 24be 53dc 8b3e 322b 14be 8ae6 7cbe

exp_avg f4 [256, 33]
-0.00085686106 0.0013166564 -0.0018431143 -0.00021847532 -0.0017221147 0.0012662798 -0.0002418017 0.00045461528
-0.001976698 -0.0009169738 0.0008233327 0.0039345003 0.00045412005 -0.00081282575 -0.0009193637 -0.00042286233
-0.0005758964 -0.00063176744 -0.0013399677 -0.0007414201 0.0010227691 -0.00030340542 -0.0004961896 -0.00077882124
0.00056174275 -0.00081019365 -0.0008029183 -0.0007292749 0.0007210493 -0.00063918874 0.0008791467 -0.00071393594
-0.0015510452 -0.0019181317 -0.0006067914 0.0009038828 0.00015964913 0.00085094356 0.00042596247 6.5071737e-07
-2.3353741e-05 0.0009467106 -0.00042631288 -0.00080530194 -0.0005650098 -0.000361721 -0.0007193762 0.00020559925
-0.00071104185 0.00051093585 -0.00015149664 0.00021016554 0.00024702627 1.6262586e-05 0.00030139813 0.00010590658
-0.0018728497 -0.00036832053 -0.0018184896 -0.00037061694 -0.001733606 0.00021988638 -0.001651117 0.00018101149
-0.0015652161 0.00039817067 -0.0007476013 -0.00027621837 0.0009755805 4.9211203e-06 0.00092426373 0.00013996419
-0.000115185634 0.00014132257 0.00095976674 -0.00029445617 -0.00026720978 -0.0006787145 0.00014153693 -0.0004593928
-0.00023230091 -0.0005515114 0.00010548352 -0.0003787829 -0.0002544447 -0.00019240037 -0.00026562993 0.00013243227
-7.9364174e-05 -0.00074569933 -0.000314507 -0.0007053444 8.5917454e-05 -0.0006571595 0.00028019643 -0.00064549124
-0.00020341616 -0.000585385 0.0005609418 0.00020642545 -0.0002010674 6.560535e-05 -1.1783229e-05 0.0001236576
0.00028596522 -4.9482423e-05 3.7429705e-05 -0.00031082987 -0.0006681102 0.00016201148 -0.00032866336 0.0005275868
2.6315298e-05 0.00025646528 3.718705e-06 -5.2086907e-05 9.095562e-05 0.0005927081 0.00032269512 -0.0002931006
-8.569542e-05 -8.4928724e-05 0.00017847797 -0.00023951943 0.00018445129 0.00016321153 0.00016873583 -0.0001379255
0.00016800898 6.8823596e-05 0.00016909314 0.00012799494 0.0001852159 0.003114339 -0.0006967308 -7.48217e-05
-0.00067954126 0.0012927111 -0.00029894273 0.00035893387 -0.0008290869 0.000595351 0.0012985383 0.005730257
-0.00091852626 -0.00085998786 -0.0010014708 -0.000327847 -7.985034e-05 -0.00060232094 -0.0015186241 -0.0007031716
0.00063799473 0.00044559594 -0.00015767958 0.0002452805 0.0007662772 0.00035240594 0.0014491163 0.00062003295
0.0039046002 0.0007274975 0.001865548 0.0008218086 0.0017788026 -0.001525752 -0.0013241929 -0.0013242242
0.00028249723 -0.00095630425 0.0004492408 3.5764384e-05 -6.0161376e-05 -0.0011294698 0.0003168315 0.0004996897
-3.0106687e-05 -0.00073770015 -4.4222164e-05 -0.0002447251 0.00020428302 0.00072594464 0.00039808618 -7.3664145e-05
0.00022082227 0.0008971867 -0.0005217684 -0.00024195288 -0.0015331907 -0.0009919727 -0.0015519873 -0.0011469028
-0.0016080702 -0.0016093032 -0.0016515598 -0.0015097136 -0.0016892668 -0.001502867 0.0003415902 0.00088586524
-0.0012293555 7.844015e-05 -0.0014366094 -0.0011993092 0.000100750076 -0.0002640732 -0.0007194236 0.00092895
0.0007771282 0.0024185572 -0.0011370849 0.00018735386 0.00043362478 0.0002386234 0.0003942753 0.00056015333
0.00014568152 0.00060938305 0.0007256705 -0.00046404047 0.0005414369 0.00034571043 0.00028123747 0.00036800405
0.0004354754 0.00039941794 0.0006095876 0.0003995375 0.00015579881 0.0004208882 0.00043513984 -0.0009755234
-0.0008129748 -6.909618e-05 0.00025826227 -0.00015819233 -0.00026905243 0.00019717829 -0.00024026427 -0.00016800195
-0.00031229327 -0.00014281175 -0.0008100261 0.00012241198 3.016071e-05 0.00023081047 -0.00014006466 0.00019627952
8.753816e-05 -7.3926503e-06 -4.0447444e-06 -0.000121798286 0.00016213267 0.00018875983 -0.0009495899 -0.00018223656
00000000: f99e 60ba a893 ac3a a794 f1ba 8616 65b9
00000010: 95b8 e1ba 4df9 a53a 268c 7db9 6e59 ee39
00000020: 7d8b 01bb 1261 70ba ecd4 573a fbec 803b
00000030: f616 ee39 d013 55ba 7401 71ba 9fb3 ddb9
00000040: c1f7 16ba 329d 25ba dba1 afba dc5b 42ba
00000050: 700e 863a 6312 9fb9 b812 02ba cf29 4cba
00000060: eb41 133a 2d63 54ba ef7a 52ba cf2c 3fba
00000070: cd04 3d3a 3b8f 27ba 8976 663a 6e27 3bba
00000080: 714c cbba d269 fbba 1511 1fba 8cf2 6c3a
00000090: 7d67 2739 db11 5f3a b753 df39 f5ac 2e35
000000a0: c7e7 c3b7 ac2c 783a bf82 dfb9 e61a 53ba
000000b0: 2a1d 14ba 5fa5 bdb9 8594 3cba 2196 5739
000000c0: 3665 3aba 53f0 053a 12db 1eb9 e25f 5c39
000000d0: 4e83 8139 a36b 8837 f904 9e39 2a1a de38
000000e0: 687a f5ba 251b c1b9 635a eeba 5d4f c2b9
000000f0: 2a3a e3ba 4d91 6639 4b6a d8ba e7cd 3d39
00000100: f027 cdba 90c1 d039 adfa 43ba 67d1 90b9
00000110: 19be 7f3a 1a20 a536 4a4a 723a 5ac3 1239
00000120: d18f f1b8 fd2f 1439 db98 7b3a 3d61 9ab9
00000130: 4a18 8cb9 c2eb 31ba 8869 1439 a8da f0b9
00000140: cd95 73b9 4e93 10ba 0937 dd38 6197 c6b9
00000150: fd66 85b9 15bf 49b9 3f44 8bb9 84dd 0a39
00000160: 5170 a6b8 097b 43ba 6ae4 a4b9 dde6 38ba
00000170: 952e b438 3a45 2cba 54e7 9239 2f36 29ba
00000180: 1c4c 55b9 8674 19ba 2b0c 133a e973 5839
00000190: 9fd5 52b9 9b95 8938 95b0 45b7 16aa 0139
000001a0: 9aed 9539 598b 4fb8 d7fd 1c38 e1f6 a2b9
000001b0: 1e24 2fba a0e1 2939 7350 acb9 c04d 0a3a
000001c0: acbf dc37 3076 8639 de8e 7936 e477 5ab8
000001d0: 6dbf be38 f85f 1b3a 682f a939 4cab 99b9
000001e0: 61b7 b3b8 c31b b2b8 d125 3b39 8227 7bb9
000001f0: 4469 4139 c323 2b39 aeee 3039 18a0 10b9
00000200: 912b 3039 6355 9038 984e 3139 6136 0639
00000210: 8436 4239 f019 4c3b d0a4 36ba 98e9 9cb8
00000220: 3e23 32ba 3070 a93a 6abb 9cb9 4a2f bc39
00000230: 1457 59ba 5411 1c3a b733 aa3a e1c4 bb3b
00000240: 41c9 70ba cf70 61ba c943 83ba e1e2 abb9
00000250: 5375 a7b8 13e5 1dba 920c c7ba 0c55 38ba
00000260: 1a3f 273a e09e e939 ca56 25b9 fe98 8039
00000270: fedf 483a 20c3 b839 46f0 bd3a b589 223a
00000280: 52e4 7f3b 88b5 3e3a 6785 f43a a46e 573a
00000290: b626 e93a befb c7ba 8a90 adba 9791 adba
000002a0: 231c 9439 7eb0 7aba 1488 eb39 b701 1638
000002b0: c955 7cb8 b80a 94ba 671c a639 9cfd 023a
000002c0: 9e8d fcb7 3862 41ba 307b 39b8 724e 80b9
000002d0: ce34 5639 524d 3e3a 39b6 d039 237c 9ab8
000002e0: 878c 6739 2e31 6b3a 49c7 08ba bbb4 7db9
000002f0: 58f5 c8ba 1505 82ba 0d6c cbba ac53 96ba
00000300: e2c5 d2ba 41ef d2ba 2779 d8ba 95e1 c5ba
00000310: 636a ddba d9fb c4ba 7617 b339 6939 683a
00000320: 5322 a1ba 3c80 a438 9d4c bcba 2432 9dba
00000330: c949 d338 4e73 8ab9 b397 3cba c784 733a
00000340: 31b8 4b3a a880 1e3b 3d0a 95ba 6b74 4439
00000350: 2258 e339 fb36 7a39 bcb6 ce39 41d7 123a
00000360: 16c2 1839 01bf 1f3a ec3a 3e3a 754a f3b9
00000370: 37ef 0d3a 7840 b539 0e73 9339 abf0 c039
00000380: 8550 e439 f868 d139 bbcc 1f3a 0479 d139
00000390: ed5d 2339 a8aa dc39 7b23 e439 44ba 7fba
000003a0: d11d 55ba bbe7 90b8 6067 8739 6ee0 25b9
000003b0: 9b0f 8db9 a5c1 4e39 73ef 7bb9 ae29 30b9
000003c0: 4bbb a3b9 bdbf 15b9 ee57 54ba b75b 0039
000003d0: a201 fd37 b705 7239 52de 12b9 62d0 4d39
000003e0: b194 b738 620e f8b6 17b8 87b6 f56d ffb8
000003f0: 2802 2a39 d5ed 4539 e6ed 78ba c116 3fb9

exp_avg_sq f4 [256, 33]
4.6705195e-06 1.2622593e-05 7.875435e-06 7.9181115e-07 9.098245e-06 5.8426945e-06 2.740931e-06 2.8203367e-06
9.741596e-06 7.0740357e-06 4.1844773e-06 1.1777229e-05 9.256665e-06 1.1475127e-05 1.00826455e-05 1.1093194e-05
1.10887395e-05 1.3139091e-05 1.1586282e-05 9.406614e-06 5.5687697e-06 5.4065954e-06 2.8267407e-06 4.7999197e-06
9.031138e-06 4.8197435e-06 6.895751e-06 4.961093e-06 8.8629085e-06 5.1563147e-06 8.273779e-06 5.3505937e-06
8.789615e-06 1.4844997e-05 2.2506252e-05 6.515205e-06 2.3916211e-06 4.9347623e-06 3.844645e-06 7.105057e-07
1.0997077e-06 8.723939e-06 6.44181e-06 4.8111647e-06 3.1866018e-06 5.474102e-06 4.6316163e-06 1.3966785e-06
4.6887944e-06 3.6809158e-06 1.8752969e-06 3.849064e-06 2.025096e-06 3.2899914e-06 4.005253e-06 1.62116e-06
1.4977836e-05 1.5574771e-05 1.4808602e-05 1.4266034e-05 1.4659526e-05 1.0965136e-05 1.4903388e-05 1.4904915e-05
1.5230009e-05 1.8356806e-05 8.730458e-06 1.4367331e-05 3.7538507e-06 4.895324e-07 2.9315424e-06 2.1560372e-06
1.9879056e-07 2.7470958e-07 6.122403e-06 3.6500358e-06 4.855251e-06 2.7292847e-06 3.5526557e-06 2.5462675e-06
1.4217587e-06 2.6190262e-06 3.1811594e-06 1.832071e-06 3.1677087e-06 1.6406741e-06 2.6409357e-06 2.8846866e-06
1.0961996e-06 8.9749265e-06 1.3971131e-05 9.214699e-06 1.29482405e-05 9.4481675e-06 1.23363325e-05 9.685515e-06
1.188839e-05 9.995217e-06 1.3156208e-05 2.542876e-06 4.681318e-06 2.697657e-06 8.727778e-07 2.541349e-06
2.0049606e-06 9.731604e-07 1.1489781e-06 3.700615e-06 3.5601731e-06 1.077418e-06 1.4244727e-06 3.383941e-06
2.13498e-06 9.945247e-07 2.0185837e-06 2.2339188e-06 1.2380608e-06 2.0480074e-06 1.0418642e-06 2.4292463e-06
2.9613013e-06 1.014647e-06 2.6715284e-06 6.6039574e-06 2.7684923e-06 6.3681982e-06 2.8635932e-06 5.738238e-06
3.0209212e-06 7.040739e-06 3.2434154e-06 7.720554e-06 9.532317e-06 2.3993895e-05 7.7404065e-06 4.7403187e-06
1.0425948e-05 6.4351448e-06 3.4888892e-06 3.4947584e-06 1.1777002e-05 9.566576e-06 1.5798609e-05 2.9145825e-05
1.1913743e-05 1.0042433e-05 7.763433e-06 9.710595e-06 1.5333088e-05 1.1390058e-05 1.2048625e-05 6.2037743e-06
6.718214e-06 8.219312e-06 4.25237e-06 9.540619e-06 8.683281e-06 9.670374e-06 1.4101046e-05 1.06940015e-05
2.6647467e-05 1.0675021e-05 1.2571635e-05 1.1534383e-05 2.2255472e-05 3.3949294e-05 0.00010930586 2.2481829e-05
3.3875783e-06 1.4763216e-05 9.758878e-06 4.7884976e-07 7.827652e-07 3.524812e-05 1.2766534e-05 1.8699742e-05
1.294236e-05 1.1673133e-05 1.0059178e-05 3.097899e-06 9.466743e-06 1.6342607e-05 4.1247486e-06 1.4873153e-05
3.409558e-06 1.1885266e-05 1.2107457e-05 6.6401e-06 3.6031088e-05 0.00010066274 3.791624e-05 7.771166e-05
3.9618328e-05 7.803971e-05 4.21302e-05 7.953497e-05 4.4623343e-05 7.27575e-05 3.981889e-06 4.629682e-06
5.4769325e-06 7.311181e-06 5.3558215e-06 1.1896346e-05 4.698796e-06 5.4687653e-06 5.705446e-06 8.575366e-06
7.1652917e-06 2.1016116e-05 1.1863968e-05 4.271072e-06 2.902884e-06 4.0278765e-06 3.810816e-06 2.848415e-06
3.9050315e-06 2.7430153e-06 5.4104685e-06 6.587158e-06 3.4717877e-06 4.182869e-06 1.0113503e-05 4.18656e-06
1.098913e-05 4.3337295e-06 8.452826e-06 4.3875502e-06 7.013313e-06 4.426908e-06 6.15023e-06 1.0509573e-05
2.1789265e-05 3.5942733e-06 3.6679305e-07 2.6645357e-06 1.8940806e-06 1.109946e-06 1.1634212e-06 5.1045267e-06
2.387864e-06 5.9556182e-06 4.21887e-06 2.4446601e-06 2.1879196e-06 5.9985456e-07 2.0890284e-06 2.068661e-06
8.965775e-07 2.3678613e-06 8.92036e-07 2.0634973e-06 2.2451966e-06 1.5811682e-06 1.0731122e-05 1.5516775e-05
00000000: 75b7 9c36 a0c5 5337 bc20 0437 d98c 5435
00000010: aaa4 1837 5d0c c436 d6f0 3736 0445 3d36
00000020: d66f 2337 815d ed36 6368 8c36 d096 4537
00000030: 134d 1b37 4c85 4037 a228 2937 e81c 3a37
00000040: c609 3a37 f76f 5c37 b462 4237 19d1 1d37
00000050: 5edb ba36 4d6a b536 09b3 3d36 ff0e a136
00000060: 7184 1737 48b9 a136 0d62 e736 7777 a636
00000070: e7b1 1437 6804 ad36 9ccf 0a37 4089 b336
00000080: 1c77 1337 c70e 7937 cfcb bc37 2f9d da36
00000090: bd7f 2036 4995 a536 4001 8136 94b9 3e35
000000a0: ab99 9335 085d 1237 ba26 d836 976f a136
000000b0: 67d9 5536 2eae b736 4869 9b36 8275 bb35
000000c0: 7054 9d36 a705 7736 b6b2 fb35 3527 8136
000000d0: e2e6 0736 9fc9 5c36 dc64 8636 a296 d935
000000e0: 5149 7b37 91a6 8237 7672 7837 2658 6f37
000000f0: 2ff2 7537 e7f6 3737 9009 7a37 1f10 7a37
00000100: 6484 7f37 f1fc 9937 0879 1237 370b 7137
00000110: aaea 7b36 6968 0335 84bb 4436 70b0 1036
00000120: 2273 5534 cc7b 9334 0b6f cd36 23f3 7436
00000130: 4aea a236 c128 3736 296a 6e36 8be0 2a36
00000140: 42d3 be35 87c2 2f36 e77b 5536 7be5 f535
00000150: d294 5436 2235 dc35 ee3a 3136 8a96 4136
00000160: 2221 9335 0493 1637 8d65 6a37 d598 1a37
00000170: 453c 5937 9283 1e37 25f8 4e37 f87e 2237
00000180: 3f74 4737 21b1 2737 7cb9 5c37 47a6 2a36
00000190: 3714 9d36 6509 3536 d548 6a35 0b8c 2a36
000001a0: f68c 0636 899d 8235 9636 9a35 1558 7836
000001b0: 4feb 6e36 cd9b 9035 8230 bf35 aa17 6336
000001c0: ad46 0f36 9c7b 8535 0177 0736 6fea 1536
000001d0: 722b a635 8070 0936 2ed6 8b35 2206 2336
000001e0: c5ba 4636 012f 8835 8248 3336 9097 dd36
000001f0: 56ca 3936 68ae d536 282c 4036 178b c036
00000200: 08bb 4a36 7d3f ec36 74a9 5936 8787 0137
00000210: fdec 1f37 7f46 c937 cbdc 0137 070f 9f36
00000220: 1beb 2e37 79ed d736 a922 6a36 7e87 6a36
00000230: d795 4537 2280 2037 4187 8437 2f7e f437
00000240: 23e1 4737 ec7b 2837 b13f 0237 b0ea 2237
00000250: 8e9f 8037 ed17 3f37 7324 4a37 042a d036
00000260: 056d e136 ade5 0937 95af 8e36 a610 2037
00000270: 68ae 1137 f13d 2237 8893 6c37 636a 3337
00000280: 0089 df37 de18 3337 c3ea 5237 cc83 4137
00000290: 43b1 ba37 c764 0e38 233b e538 5c97 bc37
000002a0: 2756 6336 88af 7737 10ba 2337 4e8a 0035
000002b0: 371f 5235 61d7 1338 d92f 5637 64dd 9c37
000002c0: 0323 5937 b9d7 4337 d7c3 2837 80e5 4f36
000002d0: 5ad3 1e37 7b17 8937 5267 8a36 b587 7937
000002e0: c3cf 6436 d466 4737 2221 4b37 06ce de36
000002f0: 1620 1738 e61a d338 4108 1f38 21f9 a238
00000300: db2b 2638 40a9 a338 f5b4 3038 03cc a638
00000310: f329 3b38 6395 9838 2b9c 8536 aa58 9b36
00000320: 7ec6 b736 9152 f536 28b6 b336 6b96 4737
00000330: 5aaa 9d36 5680 b736 6871 bf36 ebde 0f37
00000340: 636d f036 c44b b037 5b0b 4737 3b50 8f36
00000350: 2bcf 4236 3227 8736 52bd 7f36 6627 3f36
00000360: f707 8336 a514 3836 928b b536 4207 dd36
00000370: dcfc 6836 925a 8c36 2aad 2937 477a 8c36
00000380: f45d 3837 746a 9136 9cd0 0d37 c538 9336
00000390: e653 eb36 da8a 9436 135e ce36 4652 3037
000003a0: 17c8 b637 2535 7136 a7eb c434 60d0 3236
000003b0: 1d38 fe35 74f9 9435 d926 9c35 8d47 ab36
000003c0: 313f 2036 5fd6 c736 d18f 8d36 f10e 2436
000003d0: 2cd4 1236 b105 2135 3c31 0c36 53d3 0a36
000003e0: 56ac 7035 8ce7 1e36 3f74 6f35 9d7a 0a36
000003f0: 2fac 1636 8738 d435 d109 3437 052a 8237
