COVID-19 Modeling_Umich+ZJU/Python_LSTM/output risk score file/predict output/weekly_randomly_split/checkpoint_weekly_random.tar (torch_old, 308202 bytes, 21 tensors)

lstm.weight_ih_l0 f4 [256, 25]
0	0xbca50d44	-0.020147927
1	0x3a8424e7	0.0010081799
2	0xbda854f6	-0.0821933
3	0xbe2142d4	-0.15748149
4	0x3d5e4a27	0.054269936
5	0xbe01c40d	-0.12672444
6	0xbd8053b0	-0.06265962
7	0x3bda9d99	0.006671619
8	0xbd87d6bd	-0.06632755
9	0x3c63cbac	0.01390354
10	0xbd1da2dd	-0.038485397
11	0x3df0699f	0.117388956
12	0x3c34242b	0.010994951
13	0xbd617c79	-0.055050347
14	0x3d947ccc	0.072503656
15	0x3cbee029	0.023300247
16	0x3df9b602	0.12192918
17	0xbdc9de20	-0.0985682
18	0x3d11b47d	0.035572518
19	0x3d5f2946	0.05448272
20	0xbdebae21	-0.11507822
21	0xbd4bdb68	-0.04976979
22	0xbdf0219b	-0.1172516
23	0x3d845920	0.06462312
24	0x3cd76cb8	0.026296958
25	0x3de02725	0.10944966
26	0x3cfb2ab7	0.030660016
27	0x3dcc8a43	0.09987309
28	0x3d5776f0	0.052603662
29	0xbd5e7e49	-0.054319654
30	0xbdab365e	-0.08359979
31	0xbdcc2b0f	-0.0996915
32	0x3c81a080	0.015823603
33	0xbd366fe6	-0.04454031
34	0x3c215285	0.009846334
35	0x3cfd1bcd	0.030897046
36	0x3d3f7b73	0.04674859
37	0x3dafeb33	0.085897826
38	0x3d2f5858	0.04280886
39	0x3c8742ac	0.016511284
40	0xbe22438b	-0.15846078
41	0xbd92292f	-0.071367614
42	0xbc9ae3da	-0.018907476
43	0xbd0035ec	-0.031301424
44	0xbdf005a4	-0.11719826
45	0xbe02a843	-0.12759499
46	0xbd5c678d	-0.05380969
47	0x3e181f43	0.14855675
48	0x3de4564b	0.111492716
49	0xbcca1785	-0.024669418
50	0xbce56c15	-0.02800564
51	0x3d6752d7	0.056475487
52	0x3da8c46a	0.08240588
53	0xbcffc43c	-0.031221502
54	0x3c7362dd	0.014855114
55	0xbca18455	-0.019716421
56	0xbd399f90	-0.045318186
57	0x3ccb88a2	0.024845425
58	0xbcb1138e	-0.02161577
59	0x3d5c5ae8	0.053797632
60	0x3e08b044	0.1334849
61	0x3d23c5e3	0.03998364
62	0x3ca2be19	0.019866036
63	0xbd423fe7	-0.047424223
64	0xbc163c58	-0.0091696605
65	0xbcb9b2b2	-0.022668216
66	0x3a7b516b	0.00095870224
67	0x3db294e8	0.08719808
68	0xbddcd7bf	-0.10783338
69	0xbe02b2b1	-0.12763478
70	0xbdf34e53	-0.118801735
71	0xbdd9dde7	-0.10638028
72	0x3b2aeb94	0.0026080357
73	0x3df61568	0.12015802
74	0x3d5af1ac	0.053453133
75	0xbd9889c7	-0.07448154
76	0xbdce736d	-0.100806095
77	0xbdcb5961	-0.09929157
78	0xbcf7d5e4	-0.030253358
79	0xbdabb4c3	-0.08384087
80	0xbc0728b1	-0.008249448
81	0xbbdcc325	-0.00673713
82	0x3dc55a8d	0.09636412
83	0x3d29dcc3	0.0414703
84	0xbd7ec229	-0.062196884
85	0x3d374224	0.04474081
86	0x3da3b8c9	0.07994229
87	0xbda48dfd	-0.080348946
88	0x3d0272f5	0.031847913
89	0x3d971860	0.07377696
90	0xbc89aef4	-0.016807057
91	0xbd92f956	-0.07176463
92	0x3bfe1acc	0.0077546593
93	0xbd6edaa1	-0.05831397
94	0xbd994278	-0.07483381
95	0x3da23115	0.07919518
96	0xbd0371d7	-0.032090988
97	0xbc38ff65	-0.01129136
98	0x3d89801a	0.067138866
99	0x3d0d26c1	0.034460787
100	0x3de56a38	0.112019
101	0xbd7c2bd8	-0.06156525
102	0x3dd9ab77	0.106284074
103	0xbdea7bb5	-0.114493765
104	0xbb6ba3c3	-0.0035955764
105	0x3dad4d3c	0.08461997
106	0x3ccf3479	0.025293576
107	0x3e0bd49f	0.13655327
108	0xbd833e5b	-0.06408378
109	0x3e061c95	0.1309684
110	0x3cfa6b5d	0.030568773
111	0x3db78ca7	0.08962374
112	0xbda209ef	-0.07912051
113	0xbd4dd981	-0.050256256
114	0xbd91ea71	-0.07124794
115	0xbcbf79e1	-0.023373546
116	0x3cbb767e	0.02288365
117	0xbd7ca1cc	-0.06167774
118	0xbd4e7ddf	-0.05041301
119	0xbd2d340d	-0.042285968
120	0xbde400a7	-0.11132937
121	0xbda785df	-0.08179831
122	0x3d723b05	0.059138317
123	0xbcfb6a14	-0.03069023
124	0xb9c561e0	-0.0003764769
125	0x3d862120	0.06549287
126	0x3c3ed859	0.011648261
127	0xbd88e9a5	-0.06685189
128	0xbcf06288	-0.029343858
129	0xbc922d49	-0.01784386
130	0xbc075098	-0.008258961
131	0x3d7ac6c5	0.061224718
132	0x3bafd432	0.005365872
133	0xbd791076	-0.060806714
134	0x3e15da8d	0.14634152
135	0xbdec12ff	-0.11527061
136	0x3dc0c744	0.09413007
137	0x3d1d51fa	0.038408257
138	0xbdb77aa0	-0.08958936
139	0x3d081368	0.033221632
140	0xbceb4ed0	-0.028724104
141	0xbc84a4a9	-0.016191797
142	0x3dd7f81d	0.10545371
143	0x3d2005b2	0.03906793
144	0x3e0f3307	0.13984309
145	0x3dad2984	0.08455184
146	0xbc9865f0	-0.018603295
147	0xbd42eb01	-0.0475874
148	0x3e0a8785	0.13528259
149	0x3e0e7cf4	0.13914853
150	0x3b92a4aa	0.004475196
151	0x3e1230f5	0.14276488
152	0x3d787af5	0.060664136
153	0x3ce549bb	0.027989259
154	0x3dd8117e	0.10550211
155	0xbd8dcbc6	-0.06923632
156	0x3c1b68f0	0.009485468
157	0xbb50cc50	-0.003186006
158	0xbd31425d	-0.04327618
159	0x3d9530f7	0.0728473
160	0xbd9166cb	-0.07099684
161	0x3d326f87	0.043563392
162	0x3cd50006	0.026000988
163	0x3e089b91	0.13340594
164	0x3d35c4b1	0.044377033
165	0xbdf966ca	-0.121778086
166	0xbe120fa3	-0.14263777
167	0x3d8aafb8	0.06771797
168	0xbde5ae2b	-0.112148605
169	0x3d5b745b	0.053577762
170	0x3d519ad8	0.05117306
171	0x3d225799	0.03963432
172	0xbcde1bc9	-0.027112858
173	0x3e2530cb	0.16131894
174	0x3bb4c5ba	0.005516735
175	0x3d000851	0.03125793
176	0x3d417c2b	0.047237556
177	0x3d642bab	0.055705708
178	0xbdea9f29	-0.11456139
179	0x3d4a6e16	0.049421392
180	0xbde5bb96	-0.1121742
181	0xbd045a09	-0.032312427
182	0xbdbc6bc6	-0.09200244
183	0x3daff519	0.085916705
184	0xbdc42f6e	-0.09579359
185	0x3c3792c6	0.011204427
186	0xbd8aee7c	-0.067837685
187	0x3c83def7	0.016097529
188	0xbd534060	-0.051575065
189	0x3de5c2a6	0.11218767
190	0x3cb7e1b1	0.022446485
191	0x3ab4802c	0.0013771108
192	0x3d946c01	0.072471626
193	0xbcc1ca5f	-0.023656068
194	0xbe38a484	-0.18031508
195	0xbe211a34	-0.15732652
196	0x3cbfb000	0.023399353
197	0x3e0e226a	0.13880315
198	0x3d2bbc3e	0.04192757
199	0x3dbd3441	0.09238482
200	0x3da8f5af	0.082499854
201	0x3d8ab8bf	0.06773519
202	0xbc063c09	-0.008193024
203	0xbd48b7e4	-0.049003497
204	0x3da89957	0.08232372
205	0x3cfae150	0.030625015
206	0x3d991f6a	0.07476695
207	0xbdc576cd	-0.096418
208	0x3d5e171a	0.05422125
209	0x3e2e5182	0.1702328
210	0x3d77d19f	0.060502645
211	0x3d442406	0.047885917
212	0x3d309fef	0.043121275
213	0x3d9234e9	0.07138998
214	0x3d9ecf35	0.07754365
215	0x3d60b7ed	0.054862905
216	0x3ab83977	0.0014055212
217	0xbd406b08	-0.046977073
218	0xbe159d22	-0.14610723
219	0xbc4f4c34	-0.012652446
220	0x3d6283dd	0.055301536
221	0x3bff7223	0.0077955886
222	0x3e2b20bc	0.16711706
223	0x3cc8fb54	0.024533905
224	0xbc399401	-0.011326791
225	0x3da071ed	0.078342296
226	0x3def89a0	0.11696172
227	0x3d6508a0	0.05591643
228	0xbcc854ca	-0.024454493
229	0x3d95b2b5	0.07309476
230	0xbe22ed58	-0.15910852
231	0xbc2ea7a1	-0.010660083
232	0xbdc950dd	-0.098298766
233	0xbdc34665	-0.09534911
234	0x3d496af1	0.049174253
235	0x3d35c86a	0.044380583
236	0xbd5fe76d	-0.054664064
237	0x3e06b1d9	0.13153781
238	0xbd5eb2ab	-0.05436961
239	0xbdf74f61	-0.12075687
240	0xbdc4260b	-0.095775686
241	0xbbbd5a0f	-0.005778558
242	0xbe042fba	-0.12908831
243	0x3cc36a99	0.02385454
244	0x3d81e7be	0.063430294
245	0xbdc29839	-0.095016904
246	0xbd8acd7b	-0.067774735
247	0x3e222a0a	0.15836349
248	0x3d831598	0.06400603
249	0x3df83e38	0.12121242
250	0xbd0d631c	-0.034518346
251	0x3dea158e	0.114298925
252	0xbd23d763	-0.04000033
253	0x3c969ecb	0.018386265
254	0xbd89f0eb	-0.067354046
255	0xbbb05587	-0.0053812894

lstm.weight_hh_l0 f4 [256, 64]
0	0x3ccd2008	0.025039688
1	0xbdf29e86	-0.11846642
2	0xbbaf4460	-0.005348727
3	0xbdb00268	-0.08594209
4	0x3dcb0b2a	0.09914239
5	0xbc7783d0	-0.01510711
6	0xbde74126	-0.11291723
7	0x3d3764b4	0.044773772
8	0x3d3f020c	0.04663281
9	0x3d04b5c4	0.032399908
10	0x3c85b970	0.016323775
11	0xbca92308	-0.020646587
12	0xbd6bf1d8	-0.057603687
13	0xbd6f3ea0	-0.058409333
14	0x3b101500	0.0021985173
15	0x3c8ffe38	0.017577276
16	0xbddfe1ec	-0.10931763
17	0x3d8c3e0e	0.068477735
18	0x3d84ecac	0.06490454
19	0x3d6e7758	0.058219284
20	0x3c6f08f0	0.014589533
21	0x3ddfc834	0.109268576
22	0x3d2d4264	0.042299643
23	0x3dcbb000	0.09945679
24	0xbdb0cdf4	-0.086330324
25	0x3d01c780	0.0316844
26	0x3d100150	0.0351575
27	0x3dd18f42	0.102324024
28	0x3d01ebb0	0.03171891
29	0xbd97cf1c	-0.0741255
30	0xbd9da84a	-0.07698114
31	0xbd0f94b8	-0.03505394
32	0x3d125458	0.035724968
33	0xbde76ca6	-0.1130002
34	0xbd42a9d0	-0.047525227
35	0xbd5c0ec0	-0.053725004
36	0x3c89d7d0	0.01682654
37	0xbd9bb69c	-0.07603189
38	0x3dcd434a	0.100226
39	0xbc17d1e0	-0.009266347
40	0x3dc0951a	0.09403439
41	0xbd5a3484	-0.05327274
42	0xbdf0f38a	-0.117652014
43	0x3ccc8bf0	0.024969071
44	0xbdd813fe	-0.10550688
45	0x3d885c70	0.06658256
46	0xbc9c31c8	-0.019066706
47	0x3da02a10	0.07820523
48	0x3cbd7828	0.023128584
49	0x3db5f03c	0.08883712
50	0x3d9137ae	0.07090698
51	0x3d8e4650	0.06947005
52	0x3dcb49ce	0.099261865
53	0xbdfd2740	-0.12361002
54	0x3d5693fc	0.052387223
55	0x3cf093a0	0.029367268
56	0xbdf98f36	-0.121855184
57	0xbda164fe	-0.07880591
58	0x3d2176ec	0.039420053
59	0xbb3f8700	-0.0029224753
60	0xbcb407c0	-0.021976352
61	0xbb90de80	-0.0044210553
62	0x3d0532dc	0.032519206
63	0x3d0dc4e0	0.034611583
64	0xbd98203a	-0.07428022
65	0x3c2534f0	0.010083422
66	0x3c0275f0	0.007962689
67	0xbd145ec0	-0.036223173
68	0x3d30040c	0.04297261
69	0xbd7fbdc0	-0.06243682
70	0xbdaa81aa	-0.08325513
71	0x3df9422e	0.12170826
72	0x3dd34914	0.10316673
73	0xbbf3a640	-0.00743559
74	0x3dd66524	0.1046851
75	0xbd95f982	-0.073229805
76	0xbb2562c0	-0.0025235862
77	0xbc84d1a8	-0.016213253
78	0x3d082d5c	0.033246383
79	0x3d02d3f4	0.031940416
80	0xbd7dbcb0	-0.061947525
81	0xbd6cfa08	-0.057855636
82	0xbdb4203a	-0.08795209
83	0x3cc13630	0.023585409
84	0x3da61248	0.081089556
85	0xbda0f420	-0.07859063
86	0x3d8c11fa	0.06839366
87	0x3de6c2dc	0.11267635
88	0x3a6c0c00	0.00090044737
89	0x3d6525f4	0.055944398
90	0xbdd97ff6	-0.1062011
91	0xbdfdf32e	-0.123998985
92	0x3dfaf8b6	0.12254469
93	0x3d484588	0.048894435
94	0xbd978adc	-0.07399532
95	0xbc5b0fe0	-0.013370484
96	0xbd068b88	-0.03284791
97	0x3c6bd8e0	0.014394969
98	0x3d883488	0.066506445
99	0x3dff0534	0.12452164
100	0xbca837b8	-0.020534381
101	0x3c95d438	0.01828967
102	0xbdcb87b8	-0.09937996
103	0x3d322a6c	0.043497488
104	0xbc4626c0	-0.0120942
105	0x3d72cc20	0.0592767
106	0xbd85eeaa	-0.06539662
107	0xbdb0772e	-0.08616482
108	0xbd57a930	-0.052651584
109	0xbc9d8dc0	-0.01923263
110	0x3d8fe066	0.070252225
111	0xbdf2397c	-0.118273705
112	0xbd637634	-0.05553265
113	0xbc95ec20	-0.01830107
114	0xbdb2edf6	-0.08736794
115	0xbd97a432	-0.07404365
116	0x3ddfcd34	0.10927811
117	0x3dd84794	0.105605274
118	0xbd983244	-0.074314624
119	0x3df21ab2	0.11821498
120	0x3d532de0	0.05155742
121	0xbd9b1e96	-0.07574193
122	0xbdae9b90	-0.08525765
123	0xbd4275e0	-0.047475696
124	0xbdd1af90	-0.10238564
125	0xbdc47e9a	-0.0959446
126	0xbdb1d1b2	-0.08682574
127	0xbd883f1e	-0.06652664
128	0x3de01870	0.10942161
129	0x3dcc886c	0.09986958
130	0xbd7ee1f4	-0.062227204
131	0xbd512a18	-0.051065534
132	0xbd92024a	-0.07129343
133	0xbc29e6d0	-0.010369971
134	0x3c29c770	0.010362491
135	0x3d198f08	0.03748992
136	0xbd619dfc	-0.055082306
137	0x3a4c2c00	0.0007788539
138	0x3deb17b8	0.11479133
139	0x3df03380	0.11728573
140	0x3bf2bee0	0.007408008
141	0x3d5d9b24	0.05410303
142	0xbc0c8000	-0.008575439
143	0xbde9cfb2	-0.11416568
144	0x3d703858	0.058647484
145	0xbdb8f2fa	-0.09030719
146	0x3df9fdc4	0.12206605
147	0x3dbd9e5a	0.09258719
148	0x3ba463c0	0.005016774
149	0xbdf40140	-0.11914301
150	0xbddfb6b6	-0.10923521
151	0xbd2bb13c	-0.04191707
152	0xbbad0de0	-0.005281195
153	0xbda4f67a	-0.08054824
154	0xbd881c4a	-0.06646021
155	0xbd0b73cc	-0.03404598
156	0xbce76a90	-0.028249055
157	0x3cdcfbf0	0.026975602
158	0x3d070010	0.032959044
159	0xbc000260	-0.007813066
160	0x3dc5c01a	0.09655781
161	0x3dd12d40	0.10213709
162	0x3cad2700	0.02113676
163	0xbde22888	-0.11042887
164	0x3d65be74	0.056089833
165	0x3db204e6	0.086923406
166	0xbcba8470	-0.02276823
167	0x3df14c42	0.11782123
168	0xbd961fee	-0.07330309
169	0xbd9d2d70	-0.07674682
170	0xbdb6c5b4	-0.08924428
171	0x3d496670	0.049169958
172	0x3dc1460a	0.09437187
173	0x3dcfa2d4	0.10138479
174	0xbcbdd058	-0.023170635
175	0xbdff9904	-0.12480357
176	0x3dd464d8	0.10370797
177	0x3c44b8c0	0.012006938
178	0x3db30f4c	0.08743152
179	0xbd185594	-0.03719099
180	0xbda401b2	-0.08008136
181	0xbd359534	-0.044331744
182	0xbdbb4418	-0.09143847
183	0x3c7149e0	0.014727086
184	0xbcd0d380	-0.025491476
185	0xbc87a2c0	-0.016557097
186	0x3dc876cc	0.09788284
187	0x3d3404a8	0.043949753
188	0x3d0118b0	0.031517684
189	0xbdfa1030	-0.12210119
190	0xbdfba474	-0.12287226
191	0xbda4e6f8	-0.08051866
192	0x3da17956	0.07884471
193	0xbda6551e	-0.081217036
194	0x3ddddb90	0.10832894
195	0xbd854e0c	-0.06509027
196	0xbdd77028	-0.10519439
197	0xbdb7b5f4	-0.08970252
198	0xbd11b5e4	-0.035573855
199	0x3dc2c774	0.09510699
200	0xbd2b0a94	-0.041758135
201	0xbcac6c10	-0.021047622
202	0xbd943f6c	-0.07238659
203	0x3d0409cc	0.032235906
204	0xbd94a3a8	-0.072577775
205	0xbbee0480	-0.00726372
206	0xbd949994	-0.07255855
207	0x3d55a054	0.052154854
208	0xbcca7a08	-0.024716392
209	0xbd4e50cc	-0.050370023
210	0xbd988dea	-0.07448943
211	0xbd892c1e	-0.06697868
212	0xbc1c9a90	-0.009558335
213	0x3d2fa704	0.042883888
214	0x3cccb128	0.024986818
215	0x3db25a34	0.08708611
216	0xbde71148	-0.11282593
217	0x3d831e60	0.06402278
218	0xbdcd2a3e	-0.10017823
219	0xbc44bce0	-0.012007922
220	0x3d826052	0.06366028
221	0x3d8441de	0.06457876
222	0x3d408bc8	0.047008306
223	0x3d4ffae0	0.050776362
224	0xbc97a340	-0.01851046
225	0x3cb55b18	0.022138163
226	0x3d3a2268	0.04544297
227	0xbcc14020	-0.023590147
228	0x3d60b610	0.05486113
229	0x3dce403c	0.100708455
230	0xbd5a72c0	-0.05333209
231	0xbd9ad864	-0.075608045
232	0xbd9027f2	-0.07038869
233	0x3d3dac34	0.046306804
234	0xbdecd090	-0.11563218
235	0xbdda9fac	-0.10674986
236	0xbdb5f9c8	-0.088855326
237	0x3dfaa780	0.12238979
238	0x3aa6d900	0.0012729466
239	0x3d0f7a2c	0.03502862
240	0xbd59dd54	-0.05318959
241	0x3d913322	0.07089831
242	0x3d7fb780	0.06243086
243	0xbd689f08	-0.05679229
244	0xbd03d208	-0.032182723
245	0xbdc51a72	-0.09624185
246	0xbc56f8e0	-0.01312086
247	0x3cada4b8	0.021196708
248	0xbb886880	-0.004162848
249	0xbdb054e8	-0.086099446
250	0xbdabb42c	-0.083839744
251	0xbd23dc80	-0.040005207
252	0xbc91cea8	-0.017798737
253	0x3cbd4070	0.023102015
254	0x3de1c33c	0.11023566
255	0xbd51d2b0	-0.051226318

lstm.bias_ih_l0 f4 [256]
0	0x3ada7fd0	0.0016670171
1	0xbd84e91c	-0.064897746
2	0x3d21237e	0.03934049
3	0x3de1f201	0.11032487
4	0x3d51993a	0.05117152
5	0x3b0cc727	0.0021481009
6	0xbd22547c	-0.03963135
7	0x3e168459	0.14698924
8	0xbdc1b0b8	-0.094575346
9	0x3de09355	0.10965601
10	0x3e0b21b9	0.13587083
11	0x3c95ca48	0.018284932
12	0xbdcd4319	-0.100225635
13	0xbd2fce3b	-0.042921286
14	0x3dc91d0c	0.098199934
15	0xbcdb9351	-0.026803644
16	0x3d955d5d	0.07293198
17	0x3dcadd38	0.099054754
18	0x3d11a870	0.035561025
19	0x3df43fb4	0.11926213
20	0x3d32ad45	0.043622274
21	0x3ca0c1a7	0.01962359
22	0x3cba35e6	0.022730779
23	0xbd5f840e	-0.054569297
24	0x3e06cd26	0.13164195
25	0xbccf9d4c	-0.02534356
26	0x3dd689a2	0.1047547
27	0x3dc3b7eb	0.09556564
28	0xbbe3470a	-0.0069359588
29	0x3d9cffe0	0.07665992
30	0x3d89d666	0.067303464
31	0x3d0e3058	0.034714073
32	0xbbd91ca0	-0.006625727
33	0x3d8efe4f	0.06982099
34	0x3c5b63ab	0.013390462
35	0x3d9572f5	0.07297317
36	0x3da28450	0.07935393
37	0x3e25a58e	0.16176435
38	0x3cec431c	0.028840594
39	0x3e11ca0e	0.14237234
40	0x3e283f7c	0.16430467
41	0xbd1f1428	-0.038837582
42	0x3dd20875	0.10255519
43	0xbcb08df0	-0.021552056
44	0x3d6bab56	0.057536446
45	0x3d0f9f14	0.035063818
46	0x3c7f1cff	0.015570878
47	0x3dc4e425	0.096138276
48	0xbd1e040e	-0.038578086
49	0xbc20af8f	-0.009807481
50	0x3cda912a	0.026680548
51	0x3e3a5c3b	0.18199246
52	0xbd79ec5a	-0.061016418
53	0x3daa540e	0.083168134
54	0x3df303f8	0.11865991
55	0xbb96d3fa	-0.0046029063
56	0xbc9ca680	-0.019122362
57	0x3de3e3eb	0.11127456
58	0x3deb9dec	0.115047306
59	0x3d301d77	0.04299685
60	0xb95ab9f4	-0.00020859373
61	0xbe01053b	-0.12599652
62	0x3d80a5d6	0.06281631
63	0xbddc797e	-0.1076536
64	0xbc9479c0	-0.018124461
65	0x3de78424	0.11304501
66	0x3d3e14d8	0.046406597
67	0xbdbdd964	-0.092699796
68	0x3da39ffc	0.07989499
69	0xbcad49c8	-0.021153346
70	0x3dbea67c	0.09309098
71	0x3c179f70	0.009254321
72	0x3d6bd218	0.057573408
73	0xbdd5c2be	-0.10437535
74	0x3d10fcc0	0.03539729
75	0x3bb43c00	0.0055003166
76	0xbdd5cbb8	-0.10439247
77	0xbc89bd00	-0.016813755
78	0x3d877c56	0.06615512
79	0x3ca08c30	0.019598097
80	0x3da13a00	0.07872391
81	0xbd86f430	-0.06589544
82	0xbd6e8dcc	-0.058240697
83	0x3dd6ab6c	0.10481915
84	0x3dbd629a	0.092473224
85	0xbd1b6848	-0.037941247
86	0xbdd4880a	-0.1037751
87	0xbdd3e59a	-0.103465274
88	0xbdf72428	-0.12067443
89	0x3c698f00	0.014255285
90	0xbcfe75e0	-0.031062067
91	0xbdd24512	-0.1026708
92	0xbc96c168	-0.01840277
93	0xbd47eaf8	-0.048808068
94	0xbcb8f258	-0.022576496
95	0xbd32b0b0	-0.043625534
96	0xbd5ec4d0	-0.054386914
97	0xbc6ce6a0	-0.014459282
98	0x3dadbf6a	0.08483775
99	0x3d1ba010	0.037994444
100	0xbb7ef600	-0.0038903952
101	0xbb5d8ac0	-0.0033804625
102	0xbdc0a11e	-0.09405731
103	0x3daf549e	0.08561061
104	0xbdd699de	-0.104785666
105	0x3c8c55a8	0.017130688
106	0x3d957efe	0.072996125
107	0xbd9bc71e	-0.07606338
108	0x3d7d9640	0.061910868
109	0x3da359cc	0.07976112
110	0x3d84fa2e	0.064930305
111	0xbdac6f6e	-0.08419691
112	0xbd0c2d08	-0.034222633
113	0x3d60039c	0.054690942
114	0xbd627034	-0.055282786
115	0xbd80a0fa	-0.06280704
116	0x3d90ee4a	0.070767
117	0xbdc40d20	-0.09572816
118	0x3c8a5f50	0.016891152
119	0x3db99b68	0.090628445
120	0x3d6a950c	0.05727105
121	0x3c270fa0	0.010196596
122	0x3de96fd2	0.11398281
123	0xbda0ebf6	-0.07857506
124	0xbc25cda0	-0.010119826
125	0xbdf4e8a8	-0.11958438
126	0xbdbe9ec6	-0.093076274
127	0x3d1f8570	0.038945615
128	0xbc332338	-0.01093369
129	0x3d93f66d	0.07224736
130	0xbd1ba273	-0.03799672
131	0x3dbb78a9	0.091538735
132	0x3e0b411f	0.1359906
133	0x3d43182b	0.04763047
134	0xbd47a638	-0.048742503
135	0x3d310161	0.043214206
136	0xbd8898e6	-0.06669788
137	0x3dcdfbd9	0.10057802
138	0x3d6982af	0.057009395
139	0xbda8d8fd	-0.08244512
140	0x3dc85fd2	0.09783901
141	0x3d3ee93d	0.046609152
142	0xbd736460	-0.059421897
143	0x3da23224	0.0791972
144	0x3dded429	0.1088031
145	0xbdc38722	-0.09547259
146	0xbd78ed05	-0.060772914
147	0xbdf26c73	-0.11837091
148	0x3d1c0815	0.038093645
149	0x3cea7185	0.028618583
150	0xbd5cdae0	-0.053919673
151	0xba03ba2a	-0.0005024994
152	0xbc98bd5c	-0.018644981
153	0xbdd79de0	-0.10528159
154	0x3c1be2e3	0.009514543
155	0x3dda7dce	0.106685266
156	0x3da3e1da	0.08002062
157	0x3e234b76	0.15946755
158	0x3c5da1b5	0.0135273235
159	0x3e009b2c	0.12559193
160	0xbcb9c582	-0.022677187
161	0x3dbbf505	0.09177593
162	0x3d0e0dd3	0.034681153
163	0x3d9f1872	0.077683344
164	0x3d5e88ab	0.054329555
165	0xbd609763	-0.054831874
166	0xbdb0e44b	-0.086372934
167	0xbd0f2f84	-0.034957424
168	0x3d832329	0.06403191
169	0x3cf83e7d	0.030303234
170	0xbd21bbd5	-0.03948577
171	0x3d7415cf	0.05959111
172	0xbd642e90	-0.055708468
173	0x3dc6ac3b	0.09700819
174	0x3dbe0fd4	0.09280363
175	0x3d53a79a	0.05167351
176	0x3d3af9a4	0.045648232
177	0x3d47dee1	0.04879654
178	0x3c4a11d1	0.012333349
179	0x3d4e1d48	0.050320894
180	0xbd6d1286	-0.057878993
181	0xbd6daf4e	-0.05802851
182	0xbdb7e64b	-0.08979472
183	0xbb841cfe	-0.0040317765
184	0xbdb9f4f5	-0.09079925
185	0x3d5efbb2	0.054439254
186	0x3c5f582d	0.013631863
187	0xbdb73054	-0.08944765
188	0x3d799d1b	0.060940843
189	0x3e084a77	0.13309656
190	0x3cd97169	0.026543336
191	0x3bdcf320	0.00674285
192	0xbd1bbf8b	-0.038024466
193	0xbc3eb697	-0.0116402125
194	0x3d735537	0.05940744
195	0x3d89b27d	0.06723497
196	0x3dfd0af8	0.12355608
197	0xbc7a2c28	-0.015269317
198	0x3dad7e85	0.08471397
199	0x3c0eb8f9	0.008711093
200	0xbda53766	-0.08067207
201	0xbd2d45df	-0.042302962
202	0x3e13ec8b	0.14445703
203	0x3d895905	0.06706432
204	0x3dcea048	0.10089165
205	0xbce8179f	-0.028331576
206	0x3de191b5	0.110141195
207	0xbcc72f8a	-0.02431466
208	0x3e0346c0	0.12819958
209	0x3d37287f	0.044716354
210	0xbc1b168e	-0.009465827
211	0x3b5ba839	0.0033517017
212	0x3df17b6f	0.11791121
213	0xbc6419b9	-0.013922148
214	0xbd09fa04	-0.0336857
215	0xbce36876	-0.027759772
216	0x3d45e264	0.048311606
217	0x3da742d4	0.08167043
218	0xbc6a4d8f	-0.014300718
219	0x3ba644b5	0.0050741085
220	0xbdf3aecd	-0.11898575
221	0xbd3bd926	-0.045861386
222	0xbd7f277c	-0.062293515
223	0x3dd453cb	0.10367545
224	0xbc84f14a	-0.016228337
225	0x3de07d84	0.1096144
226	0xbdc589f3	-0.09645452
227	0x3d8068b1	0.06269968
228	0xbd8014f2	-0.06253995
229	0x3e25aa76	0.16178307
230	0x3da6cb1c	0.08144209
231	0x3e05e531	0.13075711
232	0x3d4ec424	0.050480023
233	0x3d6ea162	0.058259375
234	0x3e3309e1	0.17484237
235	0x3dee75cc	0.11643562
236	0x3e1edc51	0.15513732
237	0x3d9059a0	0.070483446
238	0x3d00bead	0.031431843
239	0x3e14f5e4	0.14546925
240	0x3e359b6d	0.17735071
241	0x3db88b07	0.09010892
242	0xbd85aaf3	-0.065267466
243	0xbcb2ecfa	-0.021841515
244	0x3de62116	0.112367794
245	0x3d6d3307	0.05790999
246	0x3c770ef8	0.015079252
247	0x3dbe5ac5	0.09294657
248	0xbd951120	-0.07278657
249	0xbd920d84	-0.07131484
250	0x3d6ef6c4	0.058340803
251	0x3d6531db	0.05595575
252	0x3c37346e	0.011181934
253	0xbd22d829	-0.039756928
254	0xbd7aa8f6	-0.06119629
255	0x3b7331a5	0.0037108448

lstm.bias_hh_l0 f4 [256]
0	0xbd068c87	-0.03284886
1	0x3e05a770	0.13052154
2	0x3d888375	0.066656984
3	0x3de1fa41	0.1103406
4	0x3e0aa3f2	0.13539103
5	0xbd969f73	-0.07354631
6	0xbca26b1a	-0.01982646
7	0x3ddca2b3	0.1077322
8	0xbd228bae	-0.03968399
9	0x3d2a3dae	0.04156273
10	0xbcafc4ec	-0.021456204
11	0xbd7c43db	-0.06158815
12	0x3d8f9bb0	0.07012117
13	0x3d83e8ca	0.06440885
14	0xbc0e113e	-0.008671103
15	0xbd2fb82d	-0.042900253
16	0xbc5dbdf0	-0.013534054
17	0xbcfe3b08	-0.031034008
18	0x3db7e4c3	0.0897918
19	0xbc5093d8	-0.012730561
20	0x3dc089c3	0.09401276
21	0xbd6bfe95	-0.057615835
22	0x3e3777cb	0.17916791
23	0x3d87e409	0.06635291
24	0xbd49c6de	-0.04926192
25	0x3d50f9b6	0.051019393
26	0x3c64e2cb	0.013970087
27	0xbd73505e	-0.059402816
28	0x3cf7a5d6	0.030230444
29	0x3dbeb3f7	0.09311669
30	0x3cf91d04	0.030409344
31	0x3dc7f4ac	0.09763464
32	0xbd2c333f	-0.04204106
33	0x3dd5206d	0.10406575
34	0xbda0821c	-0.078373164
35	0xbd3e08bf	-0.04639506
36	0x3daf1da4	0.085505754
37	0x3ddeb0fd	0.108736016
38	0x3e3fc88e	0.1872885
39	0x3dd15f2f	0.10223233
40	0xbd967f69	-0.0734852
41	0x3d47866f	0.04871219
42	0xbd8e3f2f	-0.06945645
43	0x3de83310	0.113378644
44	0x3d1af832	0.037834354
45	0xbdf0bdc8	-0.11754948
46	0x3cb707bc	0.022342555
47	0x3daafc3d	0.08348892
48	0x3e27c130	0.16382289
49	0xbd820df1	-0.06350315
50	0xbcf167d8	-0.029468462
51	0x3c3dbfb4	0.01158135
52	0x3dacb488	0.08432871
53	0x3ccfef23	0.025382584
54	0x3e265614	0.16243774
55	0x3de1f115	0.11032311
56	0x3d95fbda	0.073234275
57	0x3d56602a	0.052337803
58	0x3e35645d	0.17714067
59	0x3afbb3a6	0.001920332
60	0x3c346f8d	0.011012924
61	0xbdfa34d5	-0.12217108
62	0x3d012367	0.031527903
63	0x3deb6f88	0.11495882
64	0x3d6acf74	0.05732675
65	0xbca911a8	-0.020638302
66	0xbd10ddd4	-0.0353678
67	0x3db9f5f6	0.090801165
68	0x3c9b95d0	0.018992335
69	0x3dff09aa	0.12453015
70	0xbd8fdddc	-0.07024738
71	0xbd6b9d64	-0.057523146
72	0x3ddf1106	0.10891919
73	0xbdb5b46a	-0.08872302
74	0x3be59b20	0.0070070177
75	0xbd1eb264	-0.038744345
76	0xbd080678	-0.033209294
77	0x3d88387e	0.066514
78	0x3de7b084	0.113129646
79	0xbdcff0f6	-0.101533815
80	0xba078e00	-0.0005171001
81	0x3df8116c	0.12112698
82	0x3d07fc04	0.033199325
83	0x3cddde20	0.027083457
84	0xbd450d8c	-0.048108622
85	0x3d1e2240	0.038606882
86	0xbde14918	-0.1100027
87	0x3cadb8b0	0.02120623
88	0xbd84450a	-0.06458481
89	0x3db1ae7e	0.0867586
90	0x3dcee546	0.10102324
91	0xbd97cb80	-0.074118614
92	0xbdd34a2e	-0.10316883
93	0xbcc144c0	-0.023592353
94	0x3c89e238	0.016831502
95	0xbdca8558	-0.098887146
96	0xbcc01a90	-0.023450166
97	0x3da5e022	0.080993906
98	0x3a4cc000	0.00078105927
99	0x3d66d290	0.05635315
100	0xbd3fab38	-0.046794146
101	0xbb6cd180	-0.0036135614
102	0x3c853ee0	0.016265333
103	0xbd325e2c	-0.04354684
104	0xbddfe24a	-0.10931833
105	0x3d56e97c	0.05246876
106	0x3c4c0500	0.012452364
107	0x3dc9354c	0.09824619
108	0x3dbbdb2e	0.091726646
109	0xbd119430	-0.035541713
110	0x3d8e3db0	0.0694536
111	0xbdd3c32c	-0.103399605
112	0x3d6f7c5c	0.058468208
113	0x3db7784c	0.08958492
114	0xbcd7a228	-0.02632244
115	0x3d9cdad2	0.07658924
116	0x3d233110	0.03984171
117	0x3d0536d8	0.032523006
118	0x3caccde0	0.021094263
119	0xbd8844a6	-0.06653719
120	0xba262e00	-0.0006339252
121	0x3d36d5e4	0.044637576
122	0x3d4d6980	0.05014944
123	0x3d7b3e54	0.061338738
124	0xbd9d2c6a	-0.07674487
125	0xbdfa02a8	-0.12207538
126	0x3d3a2194	0.04544218
127	0xbde33414	-0.110939175
128	0x3ddc6ea9	0.10763294
129	0x3d690703	0.056891453
130	0x3d34685c	0.044044837
131	0x3da4faa1	0.08055616
132	0xbdc23621	-0.094829805
133	0xbc091a22	-0.008368047
134	0x3ddedf8f	0.10882484
135	0x3da8a0e4	0.082338125
136	0xbcb89bfb	-0.022535315
137	0x3d5c7331	0.053820793
138	0x3d1b890b	0.03797249
139	0xbdd16331	-0.102239974
140	0xbdad1340	-0.08450937
141	0x3ddc5433	0.10758247
142	0x3cb254b1	0.0217689
143	0xbaf5e3ae	-0.001875987
144	0x3d02ceac	0.03193538
145	0x3c389bad	0.011267585
146	0x3deea7ce	0.116531
147	0xbe09bf8f	-0.1345198
148	0x3debc673	0.115124606
149	0xbdcc2156	-0.09967296
150	0x3e0ddd71	0.13854004
151	0x3d8a89fc	0.067646
152	0x3ccc375c	0.024928741
153	0x3d996338	0.074896276
154	0xbe0355cd	-0.12825699
155	0x3d8ce7e4	0.06880167
156	0x3c2b51a6	0.010456478
157	0xbd820ddc	-0.063503
158	0x3dceb17f	0.100924484
159	0x3d884f9c	0.06655809
160	0xbdb7ef1e	-0.08981155
161	0xbc9412d7	-0.01807539
162	0x3d732c61	0.059368495
163	0x3cf57432	0.029962633
164	0xbca4e219	-0.020127343
165	0xbc06dc63	-0.008231255
166	0x3c9df2c2	0.019280795
167	0x3cc63b74	0.024198271
168	0x3cef7461	0.029230298
169	0xbc87c829	-0.016574936
170	0x3dde18c8	0.108445704
171	0x3cfc33b0	0.030786365
172	0xbe09d74c	-0.13461035
173	0xbc3a7535	-0.011380483
174	0x3da114a4	0.07865265
175	0xbd1762e0	-0.03695953
176	0xbda2c1af	-0.079470985
177	0x3e08e0ee	0.13367054
178	0xbcd30c7b	-0.025762787
179	0x3d4a124d	0.04933386
180	0x3dddabf8	0.10823816
181	0xbd7c0b26	-0.06153407
182	0xbcda1b42	-0.026624326
183	0xbd90f4ca	-0.0707794
184	0x3d4abc7c	0.04949616
185	0x3d6c8a2a	0.05774895
186	0xbdc574d1	-0.096414216
187	0x3b847b9e	0.0040430566
188	0x3c0341ae	0.008011265
189	0x3dcb7e3f	0.09936189
190	0xbbb38efa	-0.0054796906
191	0xbda45f67	-0.08026009
192	0xbd07b9d0	-0.03313619
193	0xbd01141f	-0.03151333
194	0x3dae7cd9	0.085199066
195	0xbc091621	-0.008367092
196	0x3d9f7e1f	0.077877276
197	0xbd3dc778	-0.046332806
198	0x3dc23fb2	0.09484805
199	0x3dd23fc6	0.1026607
200	0x3de34b52	0.110983506
201	0x3d644212	0.055727072
202	0xbc9ed3ff	-0.019388197
203	0xbd9c51c6	-0.076327845
204	0xbda0be90	-0.07848847
205	0xbda8fe23	-0.08251598
206	0x3e369ba1	0.17832805
207	0x3e202e0f	0.1564257
208	0xbd395365	-0.045245547
209	0x3de33b94	0.11095348
210	0xbc53f0ac	-0.012935799
211	0x3bded139	0.0067998436
212	0x3dafe7c5	0.085891284
213	0x3dcfb247	0.101414256
214	0x3d263c4e	0.040584855
215	0x3cb21c60	0.021742046
216	0x3df8801b	0.12133809
217	0xbd9d5256	-0.0768172
218	0x3d317b73	0.04333062
219	0xbd48eb3d	-0.049052466
220	0x3daad825	0.083420075
221	0x3d22b1d3	0.039720368
222	0x3def7dd3	0.11693921
223	0xbc2b26ed	-0.010446292
224	0x3c00c157	0.007858596
225	0xbd3d0244	-0.04614474
226	0x3c30c08e	0.010788096
227	0xbd073b0f	-0.033015307
228	0x3c2e3a0a	0.010633955
229	0x3e0f736c	0.14008874
230	0x3df2772b	0.11839136
231	0xbdb01f1e	-0.08599685
232	0x3d8ec431	0.06971014
233	0x3dc83755	0.09776179
234	0x3d5d5410	0.054035246
235	0x3db42810	0.08796704
236	0x3e04ce41	0.12969305
237	0x3dbf4732	0.09339751
238	0x3be92e93	0.007116148
239	0x3d5dac73	0.05411954
240	0x3e08f73e	0.13375565
241	0x3df3875d	0.11891053
242	0x3dbd482a	0.0924228
243	0x3e0a74af	0.13521074
244	0x3bb4e438	0.00552037
245	0xbd22b9db	-0.039728027
246	0x3d0f7fb2	0.03503389
247	0xbdb3faff	-0.08788108
248	0xbd6de711	-0.05808169
249	0x3e1a04a0	0.15040827
250	0x3e124248	0.14283097
251	0x3c95db6e	0.018293109
252	0x3c04da0f	0.00810863
253	0x3d94c71a	0.07264538
254	0x3e39dad9	0.1814989
255	0x3d20c488	0.039249927

linear.weight f4 [32, 64]
0	0x3e288512	0.16457012
1	0xbcd74272	-0.0262768
2	0xbe0fa6a9	-0.1402842
3	0x3e0942a5	0.13404329
4	0xbc9b6aca	-0.01897182
5	0x3e262f85	0.16229065
6	0xbe027b6f	-0.12742399
7	0x3e032a6e	0.12809154
8	0x3d201a42	0.03908754
9	0xbd5937af	-0.05303162
10	0x3c340530	0.010987565
11	0xbd219103	-0.039444935
12	0xbd189577	-0.037251916
13	0xbcfa5e12	-0.030562434
14	0x3db28d49	0.08718354
15	0xbddb3e1b	-0.10705205
16	0x3d4605c3	0.04834534
17	0x3db9c2f3	0.09070387
18	0xbb6b9724	-0.003594824
19	0x3e14a171	0.1451471
20	0x3caa6e5c	0.020804577
21	0x3dbec1cc	0.093143076
22	0xbe0b8a55	-0.13626988
23	0xbe3513f4	-0.17683393
24	0xbcd4bfd0	-0.02597037
25	0xbc879a53	-0.01655308
26	0x3c75c372	0.015000211
27	0xbd3037d4	-0.04302199
28	0xbd0f3e3c	-0.03497146
29	0xbe3728aa	-0.17886606
30	0xbcc04cf9	-0.023474203
31	0x3dc71921	0.0972159
32	0xbe1f5705	-0.15560539
33	0xbd5dd611	-0.054159228
34	0x3de087d7	0.109634094
35	0x3d4b5ddd	0.049650062
36	0xbe1956ee	-0.14974567
37	0xbd8dd73d	-0.06925819
38	0xbd9c69bd	-0.076373555
39	0xbc4ec16b	-0.012619357
40	0x3daf8e3e	0.085720524
41	0x3e1423d7	0.14466797
42	0xbe171250	-0.1475308
43	0x3daf5f04	0.08563045
44	0x3e36826f	0.17823194
45	0x3da75e79	0.08172316
46	0xbd0009ef	-0.031259473
47	0x3ccb7038	0.024833784
48	0xbd569194	-0.052384928
49	0x3b7dfb51	0.0038754533
50	0x3e005697	0.12533031
51	0xbca43de9	-0.020049052
52	0xbd588463	-0.05286063
53	0xbd9955ee	-0.07487093
54	0xbdcb0d5e	-0.09914659
55	0xbd0da444	-0.034580484
56	0xbb37bcba	-0.0028036074
57	0x3bf1e8c9	0.0073824865
58	0x3d84d1b1	0.06485308
59	0xbd289c6a	-0.041164793
60	0x3e303b71	0.17210175
61	0xbd6ff2a5	-0.058581013
62	0xbd5c67f8	-0.05381009
63	0xbdd39db1	-0.103328116
64	0xbda3c648	-0.079968035
65	0xbd88b420	-0.06674981
66	0x3e0fc440	0.14039707
67	0xbd657bb6	-0.056026183
68	0x3d1d577b	0.038413506
69	0xbe1e78b5	-0.15475734
70	0x3e1e2e77	0.15447412
71	0xbde25b5b	-0.11052581
72	0xbe1358bd	-0.1438932
73	0xbd1a8636	-0.03772565
74	0xbe15f2ba	-0.14643374
75	0xbe1f671f	-0.15566681
76	0xbda064c1	-0.07831717
77	0xbc9a0ca8	-0.018804863
78	0xbded3d62	-0.115839735
79	0x3e065ac9	0.1312057
80	0xbde4e248	-0.11175972
81	0x3c699263	0.014256093
82	0xbd9ecf9e	-0.077544436
83	0x3cfd05ec	0.030886613
84	0x3c2a2cb7	0.010386637
85	0xbc1aab8e	-0.009440316
86	0x3e312ce8	0.17302287
87	0x3dfd1389	0.12357242
88	0x3a773e88	0.000943162
89	0xbe23ab33	-0.15983276
90	0xbc9e8e3a	-0.019354928
91	0xbe043549	-0.12910952
92	0xbdaff4e5	-0.08591632
93	0x3e0f19e8	0.13974726
94	0xbe2aa3ae	-0.16664001
95	0x3deed907	0.116624884
96	0x3d5a91ff	0.05336189
97	0x3e1653dc	0.14680427
98	0xbc86ccb0	-0.016455024
99	0x3e061ff0	0.1309812
100	0x3d140ad7	0.03614315
101	0x3baf8895	0.005356858
102	0x3de2ad22	0.11068179
103	0xbd3308b6	-0.04370948
104	0x3c5af0d0	0.013363078
105	0xbd8cbf9f	-0.06872486
106	0x3d4dfbbd	0.050288904
107	0xbe31ff17	-0.17382465
108	0xbd697e7a	-0.057005383
109	0xbd907695	-0.07053868
110	0x3daa175f	0.08305239
111	0x3dda6606	0.10663991
112	0xbe0fcd14	-0.14043075
113	0x3d440b97	0.047862615
114	0xbd5e886e	-0.05432933
115	0x3de8e2ec	0.11371407
116	0xbd7f1a9a	-0.06228123
117	0xbd6979f7	-0.05700108
118	0x3dbbf83f	0.091782086
119	0x3ce3e31f	0.02781826
120	0xbd928a16	-0.07155244
121	0x3d9e33b1	0.07724703
122	0xbe1acbae	-0.1511676
123	0xbcd9163d	-0.026499862
124	0x3d9fbef8	0.07800096
125	0x3e066cc7	0.13127433
126	0xbe17c367	-0.14820634
127	0x3cc0d8f8	0.023540959
128	0xbd8ddc29	-0.06926758
129	0xbcab0311	-0.020875486
130	0x3c175ec7	0.009238905
131	0xbe0180e2	-0.12646821
132	0x3cd131d8	0.025536463
133	0xbe15a9c4	-0.14615542
134	0xbc109d60	-0.008826584
135	0xbe207a04	-0.15671545
136	0xbdc1d5df	-0.09464621
137	0x3df089ef	0.11745059
138	0xbba36b0d	-0.0049871267
139	0x3d0273d1	0.031848732
140	0xbd92f57b	-0.07175728
141	0x3d9507f0	0.072769046
142	0xbd6732d8	-0.056444973
143	0xbc281c90	-0.010260716
144	0x3d96afc6	0.07357745
145	0xbdc92886	-0.09822182
146	0x3c0174a7	0.007901347
147	0xbd1e3405	-0.03862383
148	0xba9f8ed1	-0.00121733
149	0x3b98322a	0.004644652
150	0x3df3ee6a	0.11910708
151	0x3da4d717	0.08048838
152	0x3d191b73	0.037379693
153	0xbe245fa2	-0.16052106
154	0xbd80f14c	-0.06296024
155	0x3d12a8ef	0.03580564
156	0xbd31454b	-0.043278974
157	0x3dfabe54	0.122433335
158	0x3ac23811	0.0014817734
159	0x3e103e67	0.14086305
160	0x3d89b6e0	0.06724334
161	0x3c4c5ae3	0.012472841
162	0x3b4f2efb	0.0031613696
163	0x3e169f66	0.14709243
164	0x3e0a7c9f	0.13524102
165	0x3d725c7c	0.05917023
166	0x3d807e02	0.06274034
167	0x3c813d7e	0.015776392
168	0xbb36e7df	-0.0027909202
169	0xbdc4087c	-0.09571931
170	0xbc91dd64	-0.017805763
171	0x3d3db477	0.046314683
172	0xbc58e539	-0.013238245
173	0x3d27657b	0.040868264
174	0xbc3fdaa4	-0.011709843
175	0xbb4eb1dd	-0.003153912
176	0xbbde5919	-0.0067855236
177	0xbd11414c	-0.035462663
178	0xbe119495	-0.14216836
179	0x3d3647f3	0.04450221
180	0x3daf6cf9	0.08565707
181	0xbdfe3ec4	-0.12414315
182	0x3ad4ee03	0.001624525
183	0xbd00d131	-0.0314495
184	0x3c2dfe17	0.010619662
185	0xbe06576d	-0.13119288
186	0xbe259d4d	-0.16173287
187	0x3d8575b7	0.06516593
188	0xbdd69e4e	-0.10479413
189	0x3e0a2c1c	0.13493389
190	0xbdb4c8fe	-0.08827399
191	0xbdaf7860	-0.085678816
192	0xbe3173f1	-0.17329384
193	0xbdc2fae0	-0.09520507
194	0x3e1579e9	0.14597286
195	0x3c99b55c	0.018763237
196	0xbccee73f	-0.025256751
197	0xbdd22437	-0.10260814
198	0xbc361b1d	-0.011114863
199	0x3d6f405b	0.058410984
200	0xbccc8211	-0.024964364
201	0x3dad1037	0.08450358
202	0x3da28a81	0.07936574
203	0xbe05fe47	-0.1308528
204	0xbe017b58	-0.12644708
205	0x3e2dc225	0.16968592
206	0x3b06cf15	0.0020570208
207	0xbd6ba46a	-0.057529844
208	0xbcf3b6a0	-0.029750168
209	0xbe0e5c37	-0.13902365
210	0xbde229f0	-0.11043155
211	0xbe3b1d32	-0.18272856
212	0x3db77d0e	0.08959399
213	0x3bb7e7af	0.0056123356
214	0x3d23a126	0.039948605
215	0x3da9331f	0.08261704
216	0x3d46a2a9	0.04849497
217	0xbd2bc664	-0.041937247
218	0xbd03c2c3	-0.03216816
219	0x3c0e154c	0.00867207
220	0x3dd31fb1	0.10308779
221	0x3e2b535b	0.16731016
222	0xbdd5b261	-0.10434414
223	0xbcff9196	-0.03119735
224	0xbcf16d3b	-0.02947103
225	0x3dc48b9b	0.0959694
226	0xbdd2cfc3	-0.10293534
227	0x3e2d090b	0.16897981
228	0x3de66df4	0.11251441
229	0xbc8be261	-0.01707572
230	0x3e2a9e75	0.16662009
231	0xbdbf2a2d	-0.09334216
232	0x3c15ccab	0.009143035
233	0x3c950540	0.01819098
234	0x3d88586c	0.0665749
235	0x3ce1a5fc	0.027544968
236	0xbd9ce73f	-0.07661294
237	0x3e0e3c34	0.13890153
238	0xbda764b8	-0.081735075
239	0x3debc2ca	0.115117624
240	0x3c84fc5a	0.016233612
241	0x3df9a476	0.121895716
242	0x3d728583	0.059209358
243	0x3e1af5b0	0.15132785
244	0x3da7a4b9	0.08185715
245	0x3ba43afd	0.0050119148
246	0x3e3b60ce	0.18298647
247	0x3e0c2c85	0.13688858
248	0xbe050157	-0.12988792
249	0xbe1b2b47	-0.15153228
250	0x3d54ee05	0.051984806
251	0x3d17f8e5	0.0371026
252	0xbd807c93	-0.06273761
253	0x3dfdff08	0.12402159
254	0xbd78388f	-0.060600813
255	0x3c625e26	0.013816392

linear.bias f4 [32]
0	0xbdc82dad	-0.09774337
1	0xbd05e2b1	-0.032686893
2	0x3c5359b9	0.0128998095
3	0xbd81259a	-0.06306
4	0x3dbcd351	0.09219993
5	0xbbcd9e3c	-0.0062749665
6	0x3e02abd9	0.12760867
7	0xbdce3dbf	-0.10070371
8	0xbdc9da75	-0.098561205
9	0x3da59bb1	0.080863364
10	0xbdc421a8	-0.09576732
11	0x3d7e3399	0.062060926
12	0xbdacc8a5	-0.084367074
13	0x3d8b146c	0.067910045
14	0x3d3622c3	0.044466745
15	0xbe00d0bf	-0.1257963
16	0xbdfa4cb6	-0.12221663
17	0x3d13e1ec	0.036104128
18	0xbcef6a3d	-0.029225463
19	0x3d476477	0.048679795
20	0xba483abf	-0.00076381484
21	0xbe01add5	-0.12663968
22	0x3d8ce150	0.068789124
23	0x3dc5c8c0	0.09657431
24	0x3dceb448	0.1009298
25	0x3dacdca3	0.084405206
26	0x3dbde658	0.0927245
27	0x3d1253f0	0.03572458
28	0xbd2f63ca	-0.042819776
29	0x3da49cfc	0.08037755
30	0x3d788e9f	0.06068289
31	0xbc7b4cbd	-0.01533812

linear1.weight f4 [1, 32]
0	0x3daeb8d2	0.085313454
1	0xbe48cd7e	-0.19609639
2	0xbdae6a0b	-0.0851632
3	0xbd9dab98	-0.076987445
4	0xbe537a2b	-0.20652072
5	0xbe36a1ca	-0.17835155
6	0x3debc5af	0.115123145
7	0xbe31efa4	-0.17376572
8	0x3e25ca90	0.16190553
9	0xbe5be9ed	-0.21475954
10	0x3dc88761	0.097914465
11	0x3e5efdb4	0.21776468
12	0xbde2d59a	-0.110758975
13	0x3e2962bb	0.16541569
14	0xbdc03096	-0.09384267
15	0xbe1a0cb2	-0.15043905
16	0xbe0d831b	-0.13819544
17	0x3dddefaf	0.10836732
18	0xbd8d52b7	-0.06900542
19	0x3e37a05d	0.17932267
20	0xbe26e810	-0.16299462
21	0xbe374fa4	-0.17901474
22	0xbe616fc4	-0.22015291
23	0xbe02c24a	-0.12769428
24	0xbe0de5fb	-0.13857262
25	0x3de3a540	0.11115503
26	0x3d4a0291	0.049318854
27	0xbdc3ed1c	-0.095667094
28	0x3e3ea315	0.18616898
29	0x3e36e8b1	0.17862202
30	0x3dea8983	0.114520095
31	0x3deaaf2c	0.11459193

exp_avg f4 [256, 25]
0	0xb951245c	-0.00019945338
1	0xba3ab497	-0.0007122247
2	0x38679974	5.5217606e-05
3	0x38d541b4	0.000101688696
4	0x39052699	0.00012698247
5	0x38f8febe	0.00011873011
6	0x38c79d6e	9.518383e-05
7	0xb84be158	-4.860884e-05
8	0xb9875489	-0.0002581219
9	0x39f157c0	0.0004603248
10	0xba1d81f9	-0.0006008442
11	0xba8a21a2	-0.0010538588
12	0xb907463c	-0.00012900768
13	0x3905f7d8	0.00012776197
14	0xb9951820	-0.0002843747
15	0x383977ee	4.421913e-05
16	0xb90c7c90	-0.00013397844
17	0xb87f01e0	-6.0798484e-05
18	0xb88004c7	-6.1044055e-05
19	0x35b66800	1.3590325e-06
20	0xb96ef92a	-0.0002279027
21	0xb90e60de	-0.00013578261
22	0x39645076	0.00021773748
23	0xb962b97e	-0.00021622141
24	0xb9634da7	-0.00021677335
25	0xb835a0c4	-4.3303487e-05
26	0xb9e55137	-0.00043738793
27	0xb984f55a	-0.00025359803
28	0x381dd1dc	3.7627164e-05
29	0xb94ae21e	-0.00019348456
30	0xb75db598	-1.3214907e-05
31	0xb8115292	-3.4647594e-05
32	0x3838aa54	4.402765e-05
33	0xba10aeaa	-0.0005519191
34	0x39b4eb4e	0.0003450759
35	0x39543392	0.00020237107
36	0x38fee3cd	0.00012154095
37	0xb95ecc07	-0.00021247576
38	0x3925d498	0.00015814824
39	0x397ead6d	0.00024287934
40	0x39161a6e	0.0001431496
41	0x3997aef8	0.00028931326
42	0xb7340778	-1.0730575e-05
43	0x395426e8	0.00020232389
44	0x394204ee	0.00018503118
45	0x38e49522	0.00010899665
46	0x388735b4	6.4473046e-05
47	0xb92e73b3	-0.00016637034
48	0x388cbb4c	6.710607e-05
49	0x39ab1630	0.00032632193
50	0x3985fc2a	0.00025555614
51	0x39ad1281	0.00033010918
52	0x38a42dcd	7.8286605e-05
53	0x38137f11	3.516587e-05
54	0x3907f332	0.000129652
55	0x3987d00a	0.00025904208
56	0x3902352d	0.00012417576
57	0xb86f7711	-5.709293e-05
58	0xb8c14161	-9.215135e-05
59	0x39231911	0.0001555423
60	0xb99da5f6	-0.00030069024
61	0xba03e07e	-0.00050307054
62	0xb8fb4de6	-0.000119831224
63	0x392f48f6	0.0001671648
64	0x38160b47	3.577329e-05
65	0x384ad039	4.8354475e-05
66	0x399d103f	0.00029957478
67	0xb895f7b9	-7.1510156e-05
68	0x3899a976	7.327173e-05
69	0x39da48b0	0.00041634357
70	0x3807f42d	3.2413915e-05
71	0xb8458fe5	-4.7102472e-05
72	0xb8a4d477	-7.859704e-05
73	0x39710f26	0.00022989194
74	0x3903dae9	0.00012574684
75	0xb9431327	-0.00018603784
76	0xb891397f	-6.924848e-05
77	0x37260200	9.894837e-06
78	0x39946ad2	0.00028308347
79	0x381b82ef	3.707682e-05
80	0x397177ed	0.00023028227
81	0x38482100	4.771445e-05
82	0xb7e1a61c	-2.689944e-05
83	0xb9a562f6	-0.00031544984
84	0xb6a12a58	-4.8031034e-06
85	0xba01c7b1	-0.0004950716
86	0xba100e10	-0.00054952595
87	0xb908a1c9	-0.0001303024
88	0x38eda4ad	0.00011331714
89	0x379f0a09	1.895895e-05
90	0x395b40bb	0.00020909582
91	0x3885b49a	6.375574e-05
92	0xb7da14ac	-2.5997251e-05
93	0x392d50da	0.00016528685
94	0x38842e9d	6.302933e-05
95	0xb79141e2	-1.7316026e-05
96	0x38c4d4f8	9.385677e-05
97	0xb73744fc	-1.0923712e-05
98	0xb9ad5a11	-0.00033064236
99	0xba227e5d	-0.0006198639
100	0xb9d8f792	-0.00041383185
101	0x3939d1dc	0.00017721154
102	0xb9bc06f0	-0.00035863323
103	0x3981a644	0.00024728675
104	0xb99f8ac1	-0.00030430223
105	0x39bc8ab9	0.0003596151
106	0x38a3706e	7.793387e-05
107	0xb80a4b77	-3.2972046e-05
108	0xba496624	-0.00076827616
109	0xb9552f22	-0.00020330821
110	0xb9c03af0	-0.00036665006
111	0xb9121d6c	-0.00013934606
112	0xba110736	-0.00055323855
113	0x393db8b8	0.00018093258
114	0x38e6d168	0.000110062596
115	0x39aacc76	0.00032577262
116	0x39c34fe1	0.00037252813
117	0x385d65d6	5.2785348e-05
118	0x3999a83a	0.00029307773
119	0x3a0ae896	0.000529894
120	0x38f4a8ea	0.00011666289
121	0x38de25b5	0.000105928084
122	0xb934e279	-0.00017250505
123	0xb9b6ae03	-0.00034843394
124	0xb8e32698	-0.00010831392
125	0x38cf8bbc	9.896557e-05
126	0xb7d16dd5	-2.4965886e-05
127	0xb90aeab7	-0.00013248144
128	0x385c8315	5.2574167e-05
129	0xb895af63	-7.137542e-05
130	0x39e9c2fe	0.00044586504
131	0xb88abecf	-6.615894e-05
132	0x38b5a14a	8.660795e-05
133	0xb965a02b	-0.00021898809
134	0xb9144a01	-0.00014141948
135	0x39e1f504	0.00043097895
136	0x39db7b26	0.00041862688
137	0xb8b08c53	-8.4184714e-05
138	0x3949b68f	0.00019236862
139	0xb98e2199	-0.00027109383
140	0xb93136db	-0.0001690047
141	0xb94edb1a	-0.00019727313
142	0xb99195bc	-0.00027768116
143	0xb96f121e	-0.00022799565
144	0xb95f06a3	-0.0002126941
145	0xb9b1b12f	-0.00033892083
146	0xb97194c8	-0.00023038976
147	0x39a9b447	0.0003236851
148	0xb886aa3b	-6.421326e-05
149	0xb9f2d4a1	-0.00046316258
150	0x37c9f5e4	2.4075569e-05
151	0xb89877b0	-7.270218e-05
152	0xb9ca0dc6	-0.00038538704
153	0x38a6a115	7.945501e-05
154	0xb9bb0233	-0.00035669058
155	0x3a250428	0.000629487
156	0x38a3ce2c	7.810848e-05
157	0xb78dbe32	-1.6897076e-05
158	0xba425a54	-0.00074139726
159	0xb8d7fc7e	-0.00010299029
160	0x36137a20	2.1975793e-06
161	0x35aab200	1.2717792e-06
162	0xb96c2f71	-0.00022524387
163	0x38ac7d8a	8.2249826e-05
164	0x3976cd5f	0.00023536895
165	0x39c19728	0.0003692445
166	0x39e2e89b	0.00043279384
167	0xb81dc8cf	-3.7618734e-05
168	0x39bf0c1e	0.00036439387
169	0x3a088715	0.0005208117
170	0x3950ec11	0.00019924367
171	0x398c3ed6	0.00026749697
172	0xb9847e6d	-0.00025271197
173	0x383b2fab	4.462867e-05
174	0x38a10f9a	7.679984e-05
175	0x3952b469	0.00020094369
176	0xb889aed8	-6.565236e-05
177	0xb90009e8	-0.00012210722
178	0x3912b668	0.00013991597
179	0xb814caac	-3.5474703e-05
180	0x39e589ae	0.00043780863
181	0xb7a41293	-1.9558973e-05
182	0x3875e941	5.8629787e-05
183	0xb99d3a34	-0.00029988738
184	0x3a1016fe	0.000549659
185	0xb813c730	-3.523304e-05
186	0xb9186d4c	-0.00014536566
187	0xba1fd903	-0.0006097706
188	0x39cdc534	0.00039247575
189	0xb87c91c7	-6.0217248e-05
190	0xb81aedb1	-3.693783e-05
191	0x397b1261	0.00023944072
192	0xb98b29a8	-0.00026543182
193	0xb7e406c0	-2.7182861e-05
194	0x39891909	0.0002614933
195	0xb9496268	-0.00019205513
196	0xb967e2fe	-0.00022114438
197	0x38e59930	0.00010948104
198	0xb90d9858	-0.0001350356
199	0xba7e1677	-0.00096926786
200	0x393892db	0.00017602315
201	0x391f58b2	0.00015196463
202	0xb805a398	-3.186203e-05
203	0xb8b86013	-8.791699e-05
204	0xb88b0471	-6.628864e-05
205	0x39722f84	0.0002309662
206	0xb8c5a073	-9.423578e-05
207	0x38bd0b80	9.014364e-05
208	0xb914e6be	-0.00014200338
209	0xb979f5fe	-0.0002383813
210	0x390cecf2	0.0001343971
211	0x3974176c	0.00023278379
212	0x39d78122	0.00041104207
213	0xb80cce46	-3.357071e-05
214	0x39a557a4	0.0003153655
215	0x38461cff	4.7233883e-05
216	0x39aa0d04	0.00032434624
217	0xb8b6c170	-8.714467e-05
218	0x391bd789	0.00014862245
219	0x395315fa	0.00020130715
220	0x393c710a	0.00017971187
221	0x3904a9ea	0.00012651799
222	0xb9659180	-0.00021893345
223	0xb833ba02	-4.285016e-05
224	0xba1ea5b4	-0.00060519134
225	0x3980cde4	0.00024567463
226	0x397f9e2e	0.00024377622
227	0xb8c02c67	-9.163544e-05
228	0xb868c0f0	-5.5492797e-05
229	0xb84328e2	-4.6529698e-05
230	0x3a0a2de0	0.0005271118
231	0xb81649c2	-3.583148e-05
232	0x38d3dec2	0.00010102756
233	0xb981fdac	-0.00024793798
234	0x399a2549	0.0002940095
235	0x3980c70d	0.00024562367
236	0x39356ea9	0.00017302729
237	0xba13f31e	-0.0005643832
238	0x3996f5cb	0.0002879336
239	0x389d8935	7.5119e-05
240	0x38bd1031	9.015238e-05
241	0x399fdb8b	0.00030490416
242	0xb88d7092	-6.744372e-05
243	0x38e82c9c	0.00011070931
244	0x39cc7cd2	0.0003900291
245	0x383c33be	4.487088e-05
246	0xb758494e	-1.2891671e-05
247	0xb8c4ef94	-9.390633e-05
248	0x39607972	0.00021407547
249	0x388be54f	6.6707486e-05
250	0x3881d634	6.191098e-05
251	0x38013cc0	3.0812575e-05
252	0xb92de24c	-0.00016582868
253	0x389c44cf	7.451476e-05
254	0xb9072f27	-0.00012892169
255	0x392c65ce	0.00016441123
