COVID-19 Modeling_Umich+ZJU/Python_LSTM/checkpoint_weekly_sequential.tar (torch_old, 308202 bytes, 21 tensors)

lstm.weight_ih_l0 f4 [256, 25]
0	0x3bf9d651	0.0076244255
1	0x3c445601	0.011983396
2	0x3e0fc982	0.14041713
3	0x3da8ef73	0.08248796
4	0x3da346eb	0.07972511
5	0xbb13c688	-0.0022548754
6	0x3ccc21ad	0.024918402
7	0x3da6fff8	0.08154291
8	0xbd93778e	-0.072005376
9	0xbbe9b2c0	-0.0071319044
10	0x3c990a41	0.018681647
11	0xbcccbbe8	-0.024991944
12	0xbe19dd5a	-0.15025845
13	0xbbdd70d3	-0.0067578345
14	0xbdb62b36	-0.088949606
15	0x3c94a831	0.018146606
16	0xbe1498b3	-0.14511375
17	0x3c90aa87	0.017659439
18	0x3dc96387	0.098334365
19	0x3d3fb515	0.046803553
20	0x3c415711	0.011800543
21	0x3da18f29	0.07888634
22	0x3db55313	0.08853736
23	0xbb770b3f	-0.0037695912
24	0x3c398a0a	0.011324415
25	0xbd9fe608	-0.07807547
26	0x3cb960cd	0.022629166
27	0x3b17003e	0.0023040916
28	0xbd951bbc	-0.072806805
29	0x3c70e760	0.014703602
30	0xbcd8d72e	-0.026469793
31	0xbd26edbc	-0.040754065
32	0xbd93211c	-0.071840495
33	0x3e2e62e9	0.17029919
34	0x3de3e198	0.11127013
35	0xbdd62b80	-0.10457516
36	0x3d188dc7	0.037244584
37	0xbd8e726d	-0.06955419
38	0xbd11233d	-0.035433996
39	0xbcb2b2c9	-0.021813767
40	0x3d66f7bc	0.0563886
41	0xbddb1686	-0.106976554
42	0xbd712cf5	-0.058880765
43	0x3d514bba	0.05109761
44	0xbd6c31f5	-0.05766483
45	0x3c71e242	0.014763417
46	0x3d798d78	0.06092593
47	0xbc2ce301	-0.010552169
48	0x3d0728bb	0.032997828
49	0x3dcbafc2	0.099456325
50	0x3d80cde0	0.062892675
51	0x3e09ab87	0.13444339
52	0xbe09f767	-0.13473283
53	0x3d6fc316	0.058535658
54	0xbc27eb24	-0.010248933
55	0xbd278c49	-0.04090527
56	0xbbf7b905	-0.007559898
57	0x3d845bd7	0.064628296
58	0x3d7f28fb	0.06229494
59	0x3df478d9	0.11937112
60	0x3dc4ecc2	0.096154705
61	0x3d5907e9	0.05298606
62	0x3bcae352	0.0061916495
63	0xbe49acd6	-0.19694838
64	0x3d419100	0.047257423
65	0x3d5899d3	0.052881073
66	0xbda8cfb1	-0.08242739
67	0x3cbfd7a1	0.02341825
68	0x3d2cefe1	0.042220954
69	0x3d928a02	0.07155229
70	0x3d56fb43	0.052485716
71	0x3da64e2f	0.08120381
72	0x3c5a62bd	0.013329205
73	0xbd8a7fc0	-0.06762648
74	0x3dd08be6	0.101829335
75	0x3afb399d	0.001916695
76	0x3cbdba57	0.023160143
77	0xbd35f97f	-0.04442739
78	0xbd723fbb	-0.05914281
79	0x3ce10836	0.027469736
80	0x3d8b22ff	0.06793784
81	0xbc3bb821	-0.011457474
82	0x3d2aad76	0.04166933
83	0xbca5c1da	-0.020234037
84	0xbd480141	-0.04882932
85	0x3d4f2fff	0.050582882
86	0xbda4c641	-0.080456264
87	0x3c17f7ba	0.009275371
88	0x3c5de734	0.013543893
89	0xbdbc452f	-0.09192883
90	0x3d4eeb15	0.05051716
91	0x3cc949da	0.024571348
92	0xbe284df2	-0.16435984
93	0xbdb8ee70	-0.09029853
94	0xbe27038b	-0.16309945
95	0xbd81a2d7	-0.06329887
96	0xbd977e53	-0.07397141
97	0x3cba8289	0.022767322
98	0x3d0a8ff1	0.03382868
99	0xbd623b72	-0.055232473
100	0x3de0248e	0.10944472
101	0xbd46cc71	-0.048534814
102	0x3c91bcdd	0.017790252
103	0x3d822303	0.06354334
104	0x3d1694cc	0.036762998
105	0xbd56269e	-0.052282922
106	0x3e008c52	0.12553528
107	0xbba1fac2	-0.0049432227
108	0x3df83131	0.121187575
109	0xbdb1f593	-0.08689418
110	0x3d27febf	0.04101443
111	0x3d4e6b92	0.050395556
112	0x3c9da107	0.019241823
113	0xbd802080	-0.06256199
114	0xbdab1e10	-0.08355343
115	0x3c18df90	0.009330645
116	0xbddc307a	-0.10751434
117	0x3de5c510	0.11219227
118	0x3d868254	0.06567827
119	0xbd8176fb	-0.06321522
120	0x3d1174fb	0.035511952
121	0x3d8a729c	0.06760141
122	0x3db4be1e	0.088253245
123	0xbdc3309d	-0.095307566
124	0xbd673984	-0.056451336
125	0x3d09a85b	0.033607822
126	0x3deed641	0.116619594
127	0xbde1047d	-0.10987184
128	0x3dc64519	0.09681148
129	0xbd300aa2	-0.04297889
130	0xbd5c83c7	-0.05383661
131	0x3de23e9a	0.110470966
132	0xbd7d3d5f	-0.061826106
133	0xbdb1ffbb	-0.08691355
134	0xbe0531bc	-0.13007253
135	0xbccf83da	-0.025331426
136	0x3df38d08	0.11892134
137	0xbe0bc7e3	-0.1365047
138	0xbd7083c9	-0.05871943
139	0xbcfef64b	-0.031123301
140	0xbdac7c23	-0.08422115
141	0xbe2cca86	-0.16874132
142	0x3d0cf6bd	0.034414995
143	0xbdc589c2	-0.09645416
144	0xbdb6ab9f	-0.08919453
145	0xbd073011	-0.033004824
146	0xbd914042	-0.07092334
147	0x3d9017c7	0.07035785
148	0x3d52b057	0.051437702
149	0x3d5b00e9	0.053467665
150	0xbd26715e	-0.04063546
151	0x3c0cc9cc	0.008593034
152	0xbd1506a9	-0.036383305
153	0xbd817580	-0.063212395
154	0x3c8c3a02	0.017117504
155	0xbdc30b84	-0.09523681
156	0xbbf2f701	-0.007414699
157	0xbbf9c468	-0.0076222904
158	0xbc7f9fae	-0.015602035
159	0x3e02c523	0.12770514
160	0xbd40effc	-0.047103867
161	0x3d94bf05	0.072629966
162	0x3d27a9c7	0.040933397
163	0xbdd306ab	-0.10304006
164	0xbd331ece	-0.04373055
165	0x3cbd1b27	0.023084236
166	0xbe11ce95	-0.14238961
167	0xbd1066f1	-0.035254423
168	0xbb5205c6	-0.0032046898
169	0xbd3d88fe	-0.046273224
170	0xbdc4ff0c	-0.09618959
171	0x3dd9f1bb	0.106418096
172	0xbba1e59c	-0.0049407016
173	0x3decf8b6	0.11570875
174	0x3d2b260e	0.04178434
175	0xbd8233e1	-0.06357551
176	0xbe0ad292	-0.13556889
177	0x3d5029d1	0.05082113
178	0x3ced909e	0.028999623
179	0x3d9076b1	0.070538886
180	0xbd9792bb	-0.074010335
181	0x3e0c0a33	0.13675766
182	0xbd801bbf	-0.06255292
183	0xbda225b5	-0.07917348
184	0xbd82e918	-0.06392115
185	0xbdbf2044	-0.09332326
186	0xbd4885ec	-0.048955843
187	0x3d6c6c90	0.05772072
188	0xbdb80f6b	-0.08987316
189	0xbda00b68	-0.078146756
190	0x3d0c223a	0.03421233
191	0xbd1fa5f6	-0.038976632
192	0x3df81980	0.12114239
193	0x3d421230	0.047380626
194	0x3ceeba88	0.02914168
195	0x3e21ab51	0.15788008
196	0xbcc447b2	-0.023959968
197	0x3d1611e0	0.03663814
198	0xbcd42cb4	-0.025900222
199	0xbd765671	-0.06014103
200	0xbd7db66d	-0.061941553
201	0x3d815acc	0.06316146
202	0xbd995275	-0.074864306
203	0x3d9a4190	0.07532036
204	0xbcdd9e6c	-0.02705308
205	0x3d6b44c3	0.057438623
206	0x3b994a11	0.004678019
207	0x3a96b7c1	0.0011498855
208	0xbc2c7169	-0.010525086
209	0xbd149cfd	-0.03628253
210	0xbdab1930	-0.083544135
211	0xbce912d1	-0.028451355
212	0xbd187edf	-0.03723037
213	0x3deb31fc	0.11484143
214	0x3de59ea7	0.11211901
215	0x3dfe6d67	0.124232106
216	0xbd3e8e82	-0.046522625
217	0x3cf01073	0.029304719
218	0xbd80e8c4	-0.062943965
219	0x3cc6de90	0.024276048
220	0x3dd22e19	0.10262699
221	0x3d8ea779	0.069655366
222	0xbbc9c644	-0.0061576683
223	0x3c3ba5c2	0.011453094
224	0x3dd6bdc6	0.10485415
225	0x3d1394d1	0.036030594
226	0xbded3aa0	-0.115834475
227	0xbd8bfe3e	-0.06835602
228	0xbdef83fb	-0.11695095
229	0xbd25e3ec	-0.040500566
230	0x3bf44a41	0.007455141
231	0x3d659ed3	0.05605967
232	0xbc8cef6d	-0.01720401
233	0xbdcd3c09	-0.100212164
234	0x3dbe954a	0.093058184
235	0xbde9f24f	-0.1142317
236	0xbd56d5da	-0.05245004
237	0x3cd51927	0.02601297
238	0xbda450d4	-0.08023229
239	0xbde2d976	-0.11076634
240	0xbdddede8	-0.10836393
241	0xbe09ec25	-0.13468988
242	0x3c99c48b	0.018770477
243	0xbdbcf945	-0.09227232
244	0x3dab481b	0.083633624
245	0x3df61e18	0.12017459
246	0x3deee649	0.11665017
247	0xbd028f73	-0.031875085
248	0x3d44e1b0	0.048066795
249	0x3d94baba	0.07262178
250	0xbdeb5b24	-0.11491993
251	0x3d387cfa	0.045041062
252	0xbda39cdf	-0.07988905
253	0x3db82581	0.08991528
254	0xbdd792bc	-0.10526034
255	0xbde68f35	-0.11257783

lstm.weight_hh_l0 f4 [256, 64]
0	0x3d9070d8	0.07052773
1	0x3d70dec4	0.058806196
2	0xbd61f584	-0.055165783
3	0xbd43e6bc	-0.047827467
4	0xbd8c4fb4	-0.0685114
5	0xbdf2a198	-0.11847228
6	0x3cecd360	0.028909385
7	0xbd1a3210	-0.0376454
8	0xbc3e3d80	-0.011611342
9	0xbdb06526	-0.086130425
10	0xbd7571c8	-0.059922963
11	0xbd55d770	-0.05220741
12	0x3cb31098	0.021858498
13	0x3d474fb0	0.04865998
14	0xbc4efe20	-0.01263383
15	0xbc860af8	-0.016362652
16	0xbd7fd054	-0.062454537
17	0x3cb05fd8	0.021530077
18	0x3dd66480	0.104683876
19	0x3cdac5f0	0.026705712
20	0xbd639ee4	-0.05557145
21	0xbc818268	-0.015809253
22	0x3d4e1ce0	0.050320506
23	0xbdd21886	-0.10258584
24	0xbd80144c	-0.06253871
25	0x3da41cac	0.08013281
26	0xbd981e80	-0.074276924
27	0x3da85c56	0.08220737
28	0x3da40fb6	0.08010809
29	0xbd3cb5e8	-0.046071917
30	0xbd5bf9c0	-0.053704977
31	0x3c158510	0.009125963
32	0x3dd1b9e0	0.10240531
33	0x3cab71a0	0.020928204
34	0x3da1940e	0.07889567
35	0x3df3f2c8	0.11911541
36	0x3c534eb0	0.0128971785
37	0x3ddb0186	0.1069365
38	0x3d47a2c0	0.048739195
39	0xbdb493ea	-0.08817275
40	0xbd8c0e5c	-0.06838676
41	0x3cf943b8	0.030427799
42	0x3cf63200	0.030053139
43	0x3dedd3dc	0.116126746
44	0xbdf89ab4	-0.12138882
45	0xbd624f1c	-0.055251226
46	0xbdf94bf2	-0.121726885
47	0xbdc42bec	-0.0957869
48	0x3d975a18	0.07390231
49	0x3d71906c	0.058975622
50	0x3d082b28	0.033244282
51	0x3c760380	0.015015483
52	0x3ddd83b4	0.10816136
53	0xbd1c73b8	-0.038196295
54	0xbd889d72	-0.06670655
55	0x3b44fd40	0.0030058175
56	0xbd57b54c	-0.052663133
57	0x3df7207e	0.12066744
58	0xbd1d6ffc	-0.038436875
59	0xbd8c57fa	-0.06852718
60	0xbdb3f0de	-0.08786176
61	0xbdf1bc02	-0.11803438
62	0xbdfd85ba	-0.12379022
63	0x3d1544f0	0.036442697
64	0x3da8c768	0.08241159
65	0xbd629ba0	-0.055324197
66	0xbdb38ee8	-0.087674916
67	0x3d07b338	0.0331299
68	0x3d413d90	0.04717785
69	0xbce98cb8	-0.028509483
70	0x3c8756f8	0.016520962
71	0x3dcb2a7c	0.099202126
72	0x3dc8d5fc	0.09806439
73	0xbd4861cc	-0.04892139
74	0xbc73e340	-0.014885724
75	0xbcc4d8e8	-0.02402921
76	0x3dffc278	0.12488264
77	0xbd9bee2c	-0.07613787
78	0x3dd46c34	0.103722006
79	0x3cf0b078	0.029381022
80	0xbdb5deec	-0.088804096
81	0x3d65a1a4	0.056062356
82	0xbdbf8324	-0.09351185
83	0x3df062c0	0.11737585
84	0xbd86eece	-0.06588517
85	0xbd072028	-0.03298965
86	0x3b5c22c0	0.0033590049
87	0xbd50a3d0	-0.050937474
88	0xbd4d9f98	-0.05020103
89	0x3ce821f8	0.02833651
90	0xbc224840	-0.009904921
91	0xbafdc480	-0.001936093
92	0x3dd09f50	0.101866364
93	0xbbcd4a60	-0.0062649697
94	0x3df698de	0.12040876
95	0xbd6601b8	-0.056153983
96	0x3d883ada	0.0665185
97	0xbdf44ad4	-0.11928335
98	0x3d9b5034	0.07583657
99	0xbd924af8	-0.071432054
100	0xbdca66fa	-0.098829225
101	0xbdf15dd0	-0.117854714
102	0x3d99788e	0.07493697
103	0x3d2f2bfc	0.042766556
104	0x3b168940	0.002296999
105	0xbd5f4f08	-0.05451873
106	0x3d1213a0	0.035663247
107	0xbc4f7060	-0.01266107
108	0x3d6c64e4	0.057713404
109	0xbdac9e6c	-0.08428654
110	0x3d7f6c44	0.06235911
111	0x3b60d740	0.0034307986
112	0xbd153e80	-0.036436558
113	0x3df9317e	0.12167643
114	0x3d927b02	0.07152368
115	0x3dc51ea8	0.09624988
116	0xbcaef350	-0.021356255
117	0x3dc4520e	0.09585963
118	0x3de270c6	0.11056666
119	0xbde7d866	-0.113205716
120	0xbd8e9f90	-0.06964028
121	0xbdd8c9c6	-0.1058536
122	0x3d2860b8	0.041107863
123	0x3d375b2c	0.044764683
124	0xbdde5542	-0.108561054
125	0x3d4c318c	0.04985194
126	0x3d902dd0	0.07039988
127	0x3c411f10	0.011787191
128	0xbd74f750	-0.059806168
129	0x3bce36a0	0.006293133
130	0xbd907a6c	-0.070546
131	0xbdbd3086	-0.09237771
132	0xbc931530	-0.017954439
133	0xbdd0e4be	-0.10199879
134	0x3de4e700	0.11176872
135	0xbdc2b0fe	-0.09506415
136	0x3d69efb0	0.05711335
137	0x3ce9a130	0.028519243
138	0xbddef666	-0.108868405
139	0x3dd05dd6	0.10174148
140	0x3dea3478	0.11435789
141	0x3db06868	0.08613664
142	0xbd8a1e2a	-0.067440346
143	0xba30f400	-0.0006750226
144	0x3d87b6d8	0.066266716
145	0x3d891c7a	0.066948846
146	0x3caf0bd8	0.021367952
147	0x3de17126	0.110079095
148	0x3dcf9e9c	0.10137674
149	0x3de54ac8	0.11195904
150	0x3dbbe1dc	0.09173939
151	0x3d96551c	0.07340452
152	0x3ce84480	0.028352976
153	0xbd408804	-0.047004715
154	0x3cd74ff0	0.026283234
155	0xbd7041f8	-0.058656663
156	0x3d14bfb0	0.03631562
157	0xbdb959de	-0.09050344
158	0xbde1c1da	-0.110233024
159	0x3cac4c88	0.021032587
160	0x3dcd4702	0.10023309
161	0xbb7a6800	-0.0038208961
162	0x3c3bbf30	0.011459157
163	0x3d8d9eb2	0.06915034
164	0x3d3aea0c	0.04563336
165	0xbdf1b232	-0.11801566
166	0x3dd0c034	0.1019291
167	0x3bec8120	0.0072175413
168	0xbdf53938	-0.11973804
169	0x3d6bbfec	0.057556078
170	0xbd843938	-0.06456226
171	0xbcc885d0	-0.02447787
172	0xbd37e858	-0.044899315
173	0x3d9f67f8	0.07783502
174	0x3dd0743e	0.101784214
175	0x3de94b94	0.113913685
176	0xbd3de6e4	-0.046362773
177	0xbdad9a4a	-0.08476694
178	0x3da6b25e	0.081394896
179	0x3cb1c128	0.02169855
180	0x3daaa064	0.08331373
181	0x3d8d10ca	0.06887968
182	0xbdef94ba	-0.11698289
183	0xbb25b900	-0.002528727
184	0x3b584b00	0.0033003688
185	0xbd95b78a	-0.07310398
186	0x3b943be0	0.004523739
187	0x3c534220	0.012894183
188	0x3cc3f728	0.023921564
189	0xbd64e5b0	-0.05588311
190	0xbdf3b506	-0.11899762
191	0x3dd9625e	0.10614465
192	0x3d86fcd6	0.065911934
193	0xbd970570	-0.07374084
194	0xbd9b9ba4	-0.075980455
195	0x3d45e2cc	0.048311993
196	0x3dbc5e9a	0.09197731
197	0x3d296b4c	0.041362092
198	0xbd91a10a	-0.07110794
199	0xbc35dc50	-0.01109989
200	0xbd4d68ac	-0.05014865
201	0x3d8d1fde	0.06890844
202	0x3dd26386	0.10272889
203	0xbcb5b7e0	-0.022182405
204	0x3c068790	0.008211032
205	0xbd171a88	-0.036890537
206	0x3cccb860	0.02499026
207	0x3d02acb0	0.03190297
208	0x3cda4798	0.026645467
209	0xbcdc3fe0	-0.026885927
210	0xbd186298	-0.0372034
211	0xbd28dc14	-0.041225508
212	0x3d8b4f9e	0.06802295
213	0x3da9360a	0.0826226
214	0x3d8928a4	0.06697205
215	0xbdb17fa8	-0.086669266
216	0xbd7ab900	-0.061211586
217	0xbddb24b6	-0.107003614
218	0xbcdf66f8	-0.027270779
219	0x3d9ba928	0.07600623
220	0xbdd80148	-0.105471194
221	0xbdc188d2	-0.094499245
222	0xbd808918	-0.062761486
223	0x3dcdfa32	0.100574866
224	0x3d617998	0.0550476
225	0xbcd93680	-0.026515245
226	0xb8457000	-4.707277e-05
227	0xbd9adbfe	-0.075614914
228	0x3da0d9e4	0.07854059
229	0x3c1dd740	0.009633839
230	0x3d02a5e0	0.031896472
231	0xbd92187c	-0.07133576
232	0x3d0bd3d0	0.034137547
233	0x3ddb4fc8	0.107085764
234	0xbdc896cc	-0.09794387
235	0xbbac31a0	-0.005254939
236	0xbd4de50c	-0.050267264
237	0x3b5afec0	0.0033416003
238	0x3da042fc	0.07825276
239	0x3cda9518	0.026682422
240	0x3df8b906	0.121446654
241	0xbda775b4	-0.08176747
242	0x3dc813e8	0.09769422
243	0x3c7fbfd0	0.0156096965
244	0x3d63b898	0.055595964
245	0x3d16a180	0.036775112
246	0x3d1ac124	0.03778185
247	0xbd339a70	-0.043848455
248	0xbd8e67be	-0.06953381
249	0x3c725730	0.014791295
250	0x3c592740	0.013253987
251	0xbc3472f0	-0.011013731
252	0x3d709908	0.058739692
253	0xbda033ce	-0.07822381
254	0xbde6bc32	-0.11266364
255	0x3c60f950	0.013731316

lstm.bias_ih_l0 f4 [256]
0	0xbc873786	-0.016505968
1	0x3e1511be	0.1455755
2	0x3dd5f0fb	0.10446354
3	0x3dcbe0e7	0.09955006
4	0xbe0301f6	-0.12793717
5	0xbc7bddf5	-0.015372743
6	0x3e1a69a6	0.15079364
7	0x3c2b3d67	0.010451651
8	0x3de54597	0.11194914
9	0xbdf36de3	-0.118861936
10	0xbd3a388b	-0.04546408
11	0x3da20d8c	0.0791274
12	0xbdaea790	-0.08528054
13	0x3d85d5f7	0.06534951
14	0xbd2b4d74	-0.041821912
15	0x3d9bfbc3	0.07616379
16	0xbb51e488	-0.0032027084
17	0x3cd61cb3	0.026136732
18	0x3dcd9dc6	0.100398585
19	0xbd2dbc44	-0.042415872
20	0x3daeeb8b	0.0854102
21	0x3c7acc96	0.015307566
22	0x3bcfbb38	0.006339457
23	0xbcc999a6	-0.024609398
24	0x3e2d18e3	0.16904025
25	0xbd208512	-0.039189406
26	0x3e137563	0.14400248
27	0x3da5e574	0.08100405
28	0x3de7a549	0.113108225
29	0x3d959f5c	0.07305786
30	0x3e376023	0.17907767
31	0xbc05ce57	-0.008166871
32	0x3db73a22	0.08946635
33	0x3d8a620b	0.067569815
34	0x3de1cc7e	0.11025332
35	0x3c3db561	0.011578889
36	0x3dc205f3	0.09473791
37	0x3d2144de	0.039372317
38	0x3d562e24	0.052290097
39	0xbdd15d0b	-0.10222825
40	0x3deebd39	0.11657185
41	0x3d5d05a6	0.053960465
42	0x3e204389	0.15650763
43	0x3d8870bd	0.06662128
44	0x3e1f099d	0.15531011
45	0x3ce9cd60	0.028540313
46	0x3af0ed52	0.0018381274
47	0xbd0fc9d8	-0.035104603
48	0x3d573b43	0.05254675
49	0xbd39a069	-0.045318995
50	0xbcd44cba	-0.025915492
51	0xbc47f4a9	-0.012204328
52	0x3e188673	0.14895038
53	0x3ce2b633	0.02767477
54	0x3e00a259	0.1256193
55	0x3d5715a8	0.052510887
56	0x3bde5087	0.006784502
57	0x3da0f5c9	0.0785938
58	0x3d41b749	0.047293935
59	0x3dcf2e3e	0.10116242
60	0x3df9b141	0.121920116
61	0xbc8c8140	-0.017151475
62	0xbdeff386	-0.1171637
63	0xbd5dde52	-0.0541671
64	0x3da400a0	0.08007932
65	0xbce91438	-0.028452024
66	0xbd89977c	-0.067183465
67	0x3d58e12c	0.052949116
68	0x3d5dcbe4	0.054149523
69	0x3dba6e62	0.09103085
70	0x3c855d68	0.016279891
71	0x3d5ab394	0.053393915
72	0xbdf7d72a	-0.12101586
73	0x3dcea244	0.100895435
74	0x3d2de598	0.042455286
75	0x3de30bda	0.11086245
76	0xbd014478	-0.031559438
77	0x3df928a4	0.12165955
78	0x3def148e	0.11673842
79	0x3dc4cb66	0.09609108
80	0xbd2588fc	-0.04041384
81	0xbc0ead90	-0.008708373
82	0xbda3c120	-0.0799582
83	0xb90e0400	-0.00013543665
84	0xbc83a428	-0.016069487
85	0x3d570170	0.052491605
86	0xbdbf9948	-0.09355408
87	0xbd34b120	-0.044114232
88	0xbdb7bd38	-0.089716375
89	0x3cb11310	0.021615535
90	0x3de4e094	0.111756474
91	0x3dd60600	0.10450363
92	0xbdfd9280	-0.12381458
93	0x3d23c96c	0.039987013
94	0x3df1ac7a	0.118004754
95	0x3dd62b78	0.1045751
96	0xbd5323a0	-0.051547647
97	0xbdb63412	-0.088966504
98	0xbd8796c2	-0.06620552
99	0x3c8a1138	0.016853914
100	0xbd865c4e	-0.065605745
101	0xbd7ff3f8	-0.062488526
102	0xbd198adc	-0.037485942
103	0xbd8664a2	-0.06562163
104	0x3d0b7b4c	0.034053132
105	0x3d01739c	0.031604394
106	0x3c8ca6b8	0.017169341
107	0xbca88ae8	-0.020574048
108	0x3d17053c	0.036870226
109	0x3ddd6bda	0.10811587
110	0xbc3eb9b0	-0.011640951
111	0xbdf4316e	-0.119234905
112	0x3d4af1a4	0.049546853
113	0xbc38bfa0	-0.011276156
114	0x3def0846	0.116715
115	0xbd2e97ec	-0.042625353
116	0x3dd2cc82	0.10292913
117	0x3d8eb030	0.06967199
118	0xbd9f53d0	-0.07779658
119	0x3c9cb5b0	0.019129604
120	0xbd4e186c	-0.05031626
121	0x3dbf00aa	0.093262985
122	0xbdb70178	-0.08935827
123	0xbd21cbf8	-0.03950116
124	0x3d22f770	0.039786756
125	0x3cebe300	0.028794765
126	0x3cf93638	0.030421361
127	0x3dfa4d48	0.122217715
128	0xbd3599c8	-0.04433611
129	0x3bc95db9	0.006145206
130	0xbc8c4eaa	-0.017127354
131	0x3c8046c1	0.015658738
132	0xbd9d6800	-0.07685852
133	0xbdabf418	-0.083961666
134	0xbdddf0cc	-0.10836944
135	0xbc6cee20	-0.01446107
136	0xbd826198	-0.06366271
137	0xbdd4c8b6	-0.10389845
138	0x3d8ff4d1	0.07029117
139	0xbc9798f7	-0.018505557
140	0xbdd8b996	-0.10582273
141	0xbb7cfe66	-0.0038603782
142	0x3dff515f	0.12466692
143	0xbe0c6b49	-0.13712801
144	0xbe079195	-0.13239129
145	0xbcc34f7c	-0.023841612
146	0xbc895c01	-0.016767504
147	0x3dcad919	0.09904689
148	0xbd42293e	-0.047402613
149	0xbdf6d61a	-0.120525554
150	0x3e1a3689	0.15059866
151	0x3d64d2a2	0.055864938
152	0xbd001d89	-0.031278167
153	0x3da03dba	0.078242734
154	0x3d8475be	0.0646777
155	0x3da97fde	0.08276342
156	0xbdf5f444	-0.120094806
157	0x3d79c923	0.060982835
158	0xbd51ca48	-0.0512183
159	0xbd13ebf8	-0.03611371
160	0xbdc4815c	-0.09594986
161	0xbd6d9b12	-0.058009215
162	0xbe09d28a	-0.1345922
163	0x3d9a308a	0.07528789
164	0xbd0798bf	-0.033104654
165	0xbdb2baab	-0.0872701
166	0xbcbd5e33	-0.023116207
167	0xbc2c9b9a	-0.010535145
168	0x3dbd8ffe	0.0925598
169	0xbda49b45	-0.08037428
170	0x3cba8a96	0.022771161
171	0x3dc07977	0.093981676
172	0x3d7bb615	0.061452944
173	0xbc7af17a	-0.015316362
174	0xbc8d3407	-0.017236723
175	0xbd39c57f	-0.045354363
176	0xbddee80b	-0.108841024
177	0xbd5f5445	-0.054523725
178	0x3d8cf451	0.06882537
179	0x3dbb4f63	0.09146001
180	0x3d53fcd1	0.051754776
181	0x3d152cc9	0.036419664
182	0xbddb4434	-0.10706368
183	0x3e222b19	0.15836753
184	0x3db72f3e	0.089445576
185	0xbcb2a22a	-0.021805841
186	0xbd8d9307	-0.06912809
187	0xbd493a89	-0.04912809
188	0x3d1ed20d	0.03877454
189	0x3d951572	0.07279481
190	0xbdc3eb67	-0.09566384
191	0xbcb0dc9d	-0.021589572
192	0x3d0b055a	0.03394065
193	0x3cc6f3bd	0.024286145
194	0x3dfa40d8	0.12219399
195	0x3d8ed9a0	0.069751024
196	0xbd65db50	-0.056117356
197	0xbdae4ba8	-0.08510524
198	0x3ddf8144	0.10913327
199	0x3dadfb72	0.08495225
200	0xbd520b41	-0.051280264
201	0x3cefeccb	0.029287716
202	0x3de0851d	0.10962889
203	0x3c8fd748	0.017558709
204	0x3e0e2f5c	0.13885254
205	0x3d862016	0.06549089
206	0x3dfe1512	0.124063626
207	0xbd1e2b68	-0.038615614
208	0xbd5c0a89	-0.053720985
209	0x3df67d20	0.120355844
210	0xbd478c78	-0.048717946
211	0x3d064d93	0.032788824
212	0x3dcf421e	0.10120033
213	0x3db6185a	0.088913634
214	0x3df1496e	0.11781584
215	0xbd7c049b	-0.06152783
216	0x3dd2aa02	0.10286333
217	0x3e1e4726	0.15456828
218	0x3dbf0d08	0.093286574
219	0xbccda0da	-0.025101114
220	0x3e02a69b	0.12758867
221	0xbd65a736	-0.056067668
222	0x3cb82fca	0.022483725
223	0xbdcc234d	-0.099676706
224	0x3dba5231	0.09097708
225	0xbd8e0332	-0.06934203
226	0x3e194a0f	0.14969657
227	0xbc5d5155	-0.013508161
228	0x3cf8cfad	0.030372465
229	0x3dcecaa2	0.10097243
230	0x3c9b8de2	0.018988553
231	0xbda588e8	-0.080827534
232	0x3d115dd2	0.035489865
233	0x3e0859fd	0.13315578
234	0x3d6d7440	0.057972193
235	0x3c9d58df	0.019207416
236	0x3de326dc	0.11091396
237	0xbc8b6030	-0.01701364
238	0x3cf17501	0.029474737
239	0xbdd4103d	-0.1035466
240	0x3da8e255	0.082462944
241	0x3e261af6	0.16221222
242	0x3dc25a71	0.094899066
243	0x3dd5630e	0.10419284
244	0x3d00e2d2	0.031466313
245	0xbdec2a0e	-0.11531459
246	0x3c7e100f	0.015506758
247	0x3e2d29a2	0.16910413
248	0xbd1d3cdc	-0.03838812
249	0xbd77339c	-0.060351953
250	0x3e2baa4f	0.16764186
251	0x3daf1cd7	0.08550423
252	0x3da03456	0.07822482
253	0xbdd1ea30	-0.10249746
254	0xbd21eddc	-0.03953348
255	0x3db55f42	0.088560596

lstm.bias_hh_l0 f4 [256]
0	0x3e20f1d9	0.15717258
1	0xbc6490d4	-0.013950545
2	0x3dd4c1f4	0.10388556
3	0x3e109197	0.14118038
4	0xbc7be4a6	-0.015374338
5	0x3dee27e8	0.11628705
6	0xbd845ba7	-0.06462794
7	0x3cc3e599	0.023913192
8	0x3e0e7693	0.1391242
9	0xbc7b18f0	-0.01532577
10	0x3c097370	0.008389339
11	0xbd1accca	-0.03779296
12	0xbca2292d	-0.019795025
13	0x3d90bc03	0.070671104
14	0x3db52c40	0.08846331
15	0x3ddda8e9	0.10823233
16	0x3e02018d	0.12695904
17	0x3de5f79e	0.1122887
18	0xbdaf8504	-0.085702926
19	0x3dd2114d	0.10257206
20	0x3dfa418d	0.12219534
21	0x3e31f6db	0.17379324
22	0x3e2309cf	0.1592171
23	0xbd84e0c2	-0.06488182
24	0x3d66fad1	0.05639154
25	0x3de417dc	0.11137363
26	0x3dc0235f	0.093817465
27	0x3e06476d	0.13113184
28	0xbc11a878	-0.008890264
29	0x3c4b84f1	0.012421832
30	0x3e2aadac	0.16667813
31	0x3d8bf992	0.06834711
32	0x3e080b94	0.13285667
33	0xbd85c347	-0.06531387
34	0x3da0cf98	0.07852095
35	0x3dde746b	0.10862049
36	0x3d706491	0.058689658
37	0x3d5f39d2	0.0544985
38	0x3c675132	0.01411848
39	0xbd87f48b	-0.0663844
40	0x3bbfba32	0.0058510536
41	0xbd6a9078	-0.057266682
42	0x3deaeda9	0.11471111
43	0x3d3e801c	0.046508893
44	0xbcc82d1a	-0.024435569
45	0xbd45c3b5	-0.048282344
46	0x3e2838d0	0.16427922
47	0x3d696479	0.056980584
48	0xbd17a72a	-0.037024654
49	0x3e37e0cb	0.17956845
50	0x3dd061c6	0.10174899
51	0x3d3e8b8b	0.046519797
52	0x3d70f391	0.058826033
53	0x3d18ec5e	0.037334792
54	0xbd796388	-0.060885936
55	0x3dd09c2e	0.10186039
56	0x3da505a9	0.0805772
57	0x3dc5a265	0.09650115
58	0x3ce21041	0.027595641
59	0xbc8a271f	-0.016864358
60	0x3cc3c51c	0.0238977
61	0x3d1d36b6	0.038382255
62	0x3c670c7c	0.014102098
63	0x3c408f75	0.011752953
64	0x3d5c5550	0.053792298
65	0xbd963f78	-0.073363245
66	0x3da127f0	0.078689456
67	0x3d931498	0.07181662
68	0xbddc6b96	-0.10762708
69	0xbdda7ddc	-0.10668537
70	0xbdbcc970	-0.09218109
71	0xbc86cba8	-0.016454533
72	0xbcd646f8	-0.026156887
73	0x3dc99934	0.09843674
74	0xbdd51e4a	-0.10406168
75	0x3dbbd0a6	0.09170656
76	0xbc40ff50	-0.011779621
77	0x3cacb1a0	0.021080792
78	0x3c7b32a0	0.015331894
79	0xbd7fe500	-0.06247425
80	0x3dbb35a4	0.091410905
81	0xbd9f7f22	-0.077879205
82	0x3ddabc6a	0.106804684
83	0x3bd52de0	0.006505713
84	0x3d3fea84	0.04685451
85	0x3d768390	0.06018406
86	0x3d4a6918	0.04941663
87	0xbd9b4fac	-0.075835556
88	0x3dbfd1cc	0.093661875
89	0x3cfcd0c0	0.030861259
90	0xbddad284	-0.10684684
91	0xbdcb3086	-0.099213645
92	0x3d9b0a68	0.07570344
93	0xbd0e1084	-0.03468372
94	0xbd92d6a6	-0.07169847
95	0xbd964eb2	-0.07339229
96	0x3cd318c8	0.025768653
97	0xbdfb65a6	-0.12275247
98	0xbd5321f4	-0.051546052
99	0xbce3ba70	-0.027798861
100	0x3dffa152	0.12481941
101	0xbd627c70	-0.055294454
102	0x3def81fc	0.116947144
103	0xbd8bc918	-0.06825465
104	0x3c8ff288	0.017571703
105	0x3db4854a	0.08814485
106	0xbd4d2370	-0.050082624
107	0xbd7df554	-0.06200154
108	0x3dd56ef2	0.10421552
109	0xbd96228a	-0.073308066
110	0xbd8b8344	-0.06812146
111	0x38b00800	8.393824e-05
112	0xbde2a34a	-0.11066301
113	0x3d17cc54	0.037060097
114	0xbd9d28ca	-0.076737955
115	0x3c249480	0.010045171
116	0x3d86dd96	0.06585233
117	0x3c91f958	0.017819092
118	0xbc9c5740	-0.019084573
119	0x3da9b97c	0.082873315
120	0x3c6bd980	0.014395118
121	0x3cde1db8	0.02711378
122	0xbc4de590	-0.012566939
123	0x3ddb8374	0.10718432
124	0x3d06a710	0.032874167
125	0x3dbe99e6	0.093066975
126	0xbc6a8fe0	-0.014316529
127	0x3da59e0e	0.08086787
128	0xbd6d909a	-0.05799923
129	0x3b725da8	0.0036982093
130	0xbc9a2f42	-0.018821362
131	0xbd4b83de	-0.049686305
132	0xbde18c1a	-0.110130504
133	0x3d9f12be	0.07767247
134	0xbdf3acfe	-0.1189823
135	0x3da6ecff	0.08150672
136	0xbc7024ae	-0.014657183
137	0xbd724069	-0.059143458
138	0xbc837e61	-0.016051473
139	0x3d89d883	0.067307495
140	0xbe02d2a8	-0.12775671
141	0x3dbac8f8	0.09120363
142	0x3e24159c	0.16023868
143	0x3c945cab	0.018110594
144	0xbdf92107	-0.121645026
145	0x3de094e1	0.109658964
146	0x3c9e3938	0.019314393
147	0xbd87ac95	-0.06624714
148	0x3c60600e	0.013694776
149	0xbdab5d4d	-0.08367405
150	0xbd8b1b4b	-0.06792315
151	0xbce9788a	-0.02849986
152	0xbdbe882d	-0.09303317
153	0x3de1c4df	0.11023878
154	0xb88b1c14	-6.6332665e-05
155	0xbd13d500	-0.036091805
156	0xbd009a9f	-0.03139746
157	0xbc3775c0	-0.011197507
158	0x3d377489	0.04478887
159	0x3e10b21d	0.14130445
160	0x3d0ebbc3	0.034847032
161	0xbdeb03c8	-0.114753306
162	0x3d8ec936	0.06971972
163	0xbbfac48f	-0.007652826
164	0xbd00bc3f	-0.031429525
165	0xbdfe302b	-0.12411531
166	0x3dabfdca	0.08398016
167	0xbd9158fd	-0.07097051
168	0x3af8c57f	0.0018979757
169	0x3d4f6b49	0.050639424
170	0x3d380f49	0.044936452
171	0x3daacb01	0.08339501
172	0xbdbc9501	-0.09208108
173	0xbc33b324	-0.010968003
174	0x3dc3bf3c	0.095579594
175	0x3deab58c	0.114604086
176	0xbd479e85	-0.04873516
177	0x3db4d6c9	0.088300295
178	0xbd2c875c	-0.042121276
179	0x3de51bb5	0.11186925
180	0x3d58cfa9	0.052932415
181	0xbd858477	-0.06519406
182	0x3b0ffcaa	0.0021970668
183	0x3d7de3dc	0.06198488
184	0xbc513a6a	-0.012770275
185	0x3d195174	0.037431195
186	0xbab2d260	-0.0013643019
187	0xbdc21a0b	-0.094776236
188	0x3d5da53f	0.05411267
189	0x3da79c48	0.08184105
190	0xbd16d13d	-0.03682064
191	0x3d14b63c	0.036306605
192	0x3e0b73a5	0.13618334
193	0x3a8a6743	0.0010559339
194	0xbbf2ad82	-0.0074059376
195	0xbdb9c4e5	-0.09070758
196	0xbcbf9312	-0.023385558
197	0x3ba10bbf	0.0049147303
198	0xbd820d65	-0.06350211
199	0x3d25bf8e	0.040465884
200	0x3d9d840d	0.07691202
201	0xbdd15efd	-0.10223196
202	0xbddd89ad	-0.10817275
203	0x3db05688	0.086102545
204	0xbc913a1e	-0.017727908
205	0x3bca3841	0.006171257
206	0x3da17a3d	0.07884643
207	0x3dd46412	0.103706494
208	0xbd8ceb1b	-0.0688078
209	0x3c9d9825	0.019237587
210	0xbd9c19ce	-0.07622109
211	0x3e15501f	0.14581345
212	0x3e05506a	0.13018957
213	0x3e0cc638	0.1374749
214	0x3d051716	0.03249272
215	0xbd865716	-0.06559579
216	0x3d423344	0.047412172
217	0x3dfa51ae	0.122226104
218	0x3d606eb4	0.054793075
219	0x3c868dcc	0.016425036
220	0x3d63544a	0.055500306
221	0x3da06938	0.07832569
222	0xbd7a1305	-0.061053295
223	0xbd427183	-0.047471534
224	0xbd4c9674	-0.04994817
225	0x3e04d5f5	0.12972243
226	0x3e19dffd	0.15026851
227	0x3d8d1b28	0.06889945
228	0xbdac275a	-0.08405943
229	0xbdca2702	-0.098707214
230	0xbcfe5fdf	-0.031051574
231	0xbcf17077	-0.029472573
232	0xbdb76d0a	-0.089563444
233	0xbc1236c0	-0.008924186
234	0x3de35642	0.11100437
235	0xbca679a3	-0.020321673
236	0xbc551495	-0.013005395
237	0xbdab7116	-0.08371179
238	0x3de82fe0	0.113372564
239	0xbd919c75	-0.0710992
240	0x3d939373	0.07205858
241	0x3e027ab6	0.12742123
242	0x3d9c75d9	0.07639665
243	0x3da09e7a	0.07842727
244	0x3e03da01	0.1287613
245	0xbd018997	-0.031625357
246	0x3da9dcc0	0.08294058
247	0x3e2c7b14	0.16843826
248	0x3dae2413	0.08502974
249	0x3dada601	0.08478928
250	0x3d90d6fd	0.07072256
251	0x3daff444	0.08591512
252	0x3d48434b	0.0488923
253	0xbdaf9c8d	-0.085747816
254	0xbdb546cb	-0.08851393
255	0x3e000e8d	0.1250555

linear.weight f4 [32, 64]
0	0xbcad11a4	-0.021126576
1	0x3d3e0a99	0.046396825
2	0x3cfeec98	0.031118676
3	0x3cd14a45	0.02554811
4	0x3d999887	0.074997954
5	0x3d527df8	0.051389664
6	0x3d9abac2	0.075551525
7	0x3d683e59	0.056700084
8	0x3e0d6d78	0.1381129
9	0x3de71f79	0.112853
10	0xb9f8b0a0	-0.00047433842
11	0xbdf44313	-0.11926856
12	0x3b817187	0.003950301
13	0x3d37c9bd	0.044870127
14	0x3d52fe6a	0.05151216
15	0xbde95718	-0.11393565
16	0x3d4717ca	0.04860667
17	0x3e2921fc	0.1651687
18	0xbd11f38e	-0.035632662
19	0x3c7302bb	0.014832194
20	0x3cf4ff51	0.0299069
21	0x3d22015c	0.039552078
22	0xbdab0034	-0.08349648
23	0x3d324515	0.043522913
24	0xbd7d419e	-0.061830156
25	0xbb660ff6	-0.0035104728
26	0x3c985a30	0.018597692
27	0xbcdd7fc3	-0.02703846
28	0xbc798951	-0.015230493
29	0x3e18d421	0.14924671
30	0xbd0944d5	-0.03351291
31	0xbde38c12	-0.11110701
32	0xbd594173	-0.053040933
33	0xbdf7a62a	-0.1209224
34	0xbd753db8	-0.059873313
35	0xbde3dd27	-0.11126166
36	0xbdb9db13	-0.09074988
37	0x3d1f8577	0.03894564
38	0x3d76a1e4	0.060212985
39	0xbd09c392	-0.033633776
40	0xbb53aa3e	-0.0032297517
41	0xbd1db172	-0.038499303
42	0xbc0338e2	-0.008009167
43	0x3daffe47	0.085934214
44	0xbd183ac0	-0.037165403
45	0x3db390a9	0.08767826
46	0xbd3b3051	-0.045700375
47	0x3d8c6925	0.06855992
48	0xbb8c0ab1	-0.0042737355
49	0x3e0c51a3	0.13703017
50	0x3ddfd929	0.10930092
51	0x3c4ac731	0.0123765925
52	0xbd286613	-0.04111297
53	0xbcd0011c	-0.025391154
54	0x3c83d74a	0.016093869
55	0x3d00fc15	0.031490404
56	0x3d3a8813	0.045539927
57	0x3da93467	0.08261948
58	0xbdc2104a	-0.09475763
59	0xbddb7033	-0.1071476
60	0xbd344ead	-0.044020344
61	0x3d87dd47	0.06634002
62	0xbda24e5d	-0.07925103
63	0xbe0696f9	-0.13143529
64	0xbe004c07	-0.12529002
65	0x3e28b854	0.16476566
66	0xbd1a21c7	-0.03762987
67	0xbd08e460	-0.03342092
68	0x3d0ae9e2	0.033914454
69	0x3db58751	0.088637
70	0x3a76ade6	0.0009410068
71	0x3d501a73	0.050806474
72	0x3b8e5b9d	0.0043444172
73	0x3d938d41	0.072046764
74	0x3ca74dff	0.020422934
75	0x3d3ef259	0.04661784
76	0x3dc4e7b4	0.09614506
77	0x3d8f391d	0.06993315
78	0xbdc17cb4	-0.09447613
79	0x3dd11b6c	0.102103084
80	0x3e14c583	0.1452847
81	0x3c92b366	0.01790781
82	0xbd3b16aa	-0.04567591
83	0x3c2a3704	0.010389093
84	0xbd4e3b33	-0.050349426
85	0xba8a18ef	-0.0010535995
86	0xbcfdf8ec	-0.031002484
87	0xbdf81527	-0.121134095
88	0x3cd977a1	0.026546301
89	0xbd75fc71	-0.0600552
90	0x3be874b8	0.007093992
91	0x3d6bfcd8	0.057614177
92	0x3dde768a	0.10862453
93	0xbe06c27d	-0.13160129
94	0x3da4be5d	0.080441214
95	0x3d9932a6	0.074803635
96	0xbdf1103d	-0.11770675
97	0x3c3329b4	0.010935236
98	0xbd3c891e	-0.046029203
99	0x3e1c5126	0.1526533
100	0x3dca4570	0.098765254
101	0xbe18f5bc	-0.1493749
102	0x3d8f6219	0.070011325
103	0xbd9a515a	-0.07535048
104	0xbdc25522	-0.09488894
105	0xbda7651b	-0.08173581
106	0x3e1600b4	0.14648706
107	0xbe08601a	-0.1331791
108	0xbda9f8f9	-0.08299441
109	0x3d34659b	0.04404221
110	0x3e1dc7f4	0.15408307
111	0xbe0fa11d	-0.14026304
112	0x3db40909	0.08790786
113	0xbd021b9f	-0.031764623
114	0x3d7df44f	0.06200057
115	0xbce84451	-0.028352888
116	0xbb9b64e1	-0.0047422503
117	0xbd04d54c	-0.03242998
118	0xbbf3c954	-0.0074397717
119	0xbc858eb6	-0.016303401
120	0x3d404e6d	0.046949793
121	0x3dab8b9a	0.08376236
122	0xbca894e1	-0.020578803
123	0x3cb4beb5	0.022063592
124	0xbbb7e648	-0.0056121685
125	0x3dbeba7a	0.09312911
126	0x3d59fea0	0.053221345
127	0x3d01b89d	0.0316702
128	0x3cac436a	0.02102824
129	0x3d35c0d6	0.044373356
130	0xbd9fe489	-0.078072615
131	0xbd847566	-0.064677045
132	0xbcdde98a	-0.0270889
133	0x3da0876c	0.0783833
134	0x3c2fe65f	0.010736077
135	0xbdf5b0fb	-0.11996647
136	0xbdaa93fc	-0.08329007
137	0xbdab81e1	-0.08374382
138	0x3d8a9af0	0.06767833
139	0x3d064cec	0.032788202
140	0x3d841542	0.06449367
141	0x3dee656c	0.116404384
142	0xbd83b315	-0.064306416
143	0x3d0a00b9	0.033692095
144	0x3bfb3876	0.007666643
145	0xbdf099da	-0.11748095
146	0xbda71fa7	-0.08160334
147	0x3c22ece1	0.009944172
148	0xbddddbca	-0.10832937
149	0x3da9205a	0.08258124
150	0xbd0a8d38	-0.033826083
151	0x3d751263	0.059831988
152	0xbcc58b51	-0.024114283
153	0x3db15e66	0.08660583
154	0xbdb87967	-0.09007531
155	0x3d54923b	0.05189727
156	0x3da83409	0.0821305
157	0xbe0bd552	-0.13655594
158	0x3e1568d2	0.14590767
159	0x3dc55270	0.09634864
160	0xbdbe00fb	-0.09277531
161	0x3e017f1a	0.12646142
162	0x3d92c55b	0.07166549
163	0xbd594c1e	-0.053051107
164	0x3d0a3a17	0.033746805
165	0xbc0bd961	-0.008535714
166	0x3df218db	0.11821147
167	0xbad0027f	-0.0015869885
168	0xbe0e4cd2	-0.13896492
169	0x3d1eb8b4	0.038750365
170	0x3c7a044d	0.015259814
171	0xbe05b59b	-0.13057558
172	0x3d9a0515	0.075205006
173	0xbcfe1e80	-0.031020403
174	0x3df06143	0.11737301
175	0xbe0d0d74	-0.13774663
176	0x3df8b80c	0.12144479
177	0x3c5304d5	0.01287957
178	0x3dd61e2c	0.104549736
179	0xbda41096	-0.08010976
180	0x3e304480	0.1721363
181	0x3daa6660	0.08320308
182	0x3dde6ce2	0.108606115
183	0xbc890d59	-0.016729997
184	0xbd8a1521	-0.06742311
185	0x3c5fe8b8	0.013666324
186	0x3e39b5a8	0.18135703
187	0x3e44bac2	0.19211867
188	0xbdc76d13	-0.09737601
189	0x3d2bf34d	0.041980077
190	0x3d28f7a4	0.041251794
191	0x3db73944	0.089464694
192	0x3c335e26	0.01094774
193	0x3d60db6d	0.05489676
194	0xba322ba6	-0.0006796665
195	0xbe16d208	-0.14728558
196	0x3d32721b	0.04356585
197	0xbdc51c38	-0.09624523
198	0x3e115144	0.14191157
199	0x3d2ad7a0	0.041709542
200	0x3d0bd53b	0.0341389
201	0x3dd9a472	0.106270686
202	0x3dfd7d54	0.1237742
203	0xbc813c1d	-0.015775735
204	0xbe08ffa5	-0.1337877
205	0xbd6e663d	-0.05820297
206	0x3d8fc201	0.07019425
207	0xbdbc560f	-0.09196102
208	0xbdbaa17f	-0.09112834
209	0x3d29ad17	0.041424837
210	0xbd290081	-0.041260246
211	0x3cf8e646	0.03038324
212	0x3e01ca0a	0.12674728
213	0xbcb0e7e2	-0.021594945
214	0x3dabad2b	0.083826385
215	0xbd1325f6	-0.035924874
216	0xbd98d8f7	-0.07463258
217	0x3dac2d97	0.08407133
218	0xbdad6a39	-0.08467526
219	0xbde73858	-0.112900436
220	0x3d4adfac	0.049529716
221	0x3dfadccd	0.12249146
222	0xbe2caa57	-0.16861854
223	0xbc025465	-0.007954692
224	0x3c1dd8d8	0.009634219
225	0xbe27a00d	-0.16369648
226	0x3d81ce41	0.06338168
227	0x3d66f946	0.05639007
228	0xbde0e8c0	-0.109818935
229	0x3dc5ec49	0.096642084
230	0xbde7dae4	-0.11321047
231	0xbdbd3056	-0.09237735
232	0x3c82a1d3	0.015946304
233	0xbd053edf	-0.03253066
234	0x3cd10445	0.025514731
235	0x3e13e5e5	0.14443167
236	0xbca1464d	-0.019686842
237	0x3d209432	0.03920383
238	0x3aea5ef9	0.0017881087
239	0x3d4726eb	0.0486211
240	0xbe00decf	-0.12584995
241	0x3d99005e	0.07470773
242	0x3da9381c	0.08262655
243	0xbda49007	-0.080352835
244	0xbd1bd85c	-0.038048133
245	0x3e03627c	0.12830538
246	0x3d58fd8b	0.052976172
247	0x3d8f6d41	0.070032604
248	0x3e1e5cb7	0.15465055
249	0x3d725429	0.059162293
250	0xbe0e8e25	-0.13921411
251	0xbdd904ae	-0.10596596
252	0xbc450ee7	-0.012027479
253	0xbe158965	-0.14603193
254	0xbd9169e5	-0.07100276
255	0xb9cb8acf	-0.00038822598

linear.bias f4 [32]
0	0x3cd0b82c	0.025478445
1	0x3c0f6d99	0.008754157
2	0x3ddab14a	0.106783465
3	0x3db425a7	0.08796244
4	0xbddb63ef	-0.1071242
5	0x3d1aa47a	0.037754513
6	0x3d857dbc	0.065181226
7	0x3dcc8d95	0.09987942
8	0x3d3ef805	0.04662325
9	0x3d54389b	0.051811796
10	0x3d85b90e	0.06529437
11	0xbd150b37	-0.03638765
12	0xbdef14c6	-0.11673884
13	0xbd91a45d	-0.07111428
14	0xbc38b895	-0.011274477
15	0x3d81d0a5	0.06338624
16	0x3de4bd1d	0.11168883
17	0x3cc5c2e3	0.02414078
18	0xbdfc002f	-0.123047225
19	0xba84366f	-0.0010087023
20	0xbc40ed37	-0.011775306
21	0x3dd60c2c	0.1045154
22	0xbc8c39d3	-0.017117416
23	0xbd682c46	-0.056682847
24	0xbc846611	-0.01616195
25	0xbd238a8e	-0.039927058
26	0x3d159176	0.036515675
27	0xbcf77376	-0.030206423
28	0x3de0d5a9	0.109782524
29	0xbda67a48	-0.08128792
30	0xbd8524f6	-0.0650119
31	0xbd4e3447	-0.050342824

linear1.weight f4 [1, 32]
0	0xbe0d8b64	-0.13822705
1	0x3e4b1533	0.19832306
2	0x3d9803fa	0.074226335
3	0xbdd6de6d	-0.10491643
4	0xbe087595	-0.13326104
5	0xbe52093b	-0.20511334
6	0xbdeb24ec	-0.11481652
7	0xbd63d19d	-0.055619825
8	0xbe2429fe	-0.16031644
9	0xbe4b6bc7	-0.19865333
10	0x3d7fd19e	0.062455766
11	0x3d81c302	0.06336023
12	0x3dd8f8fa	0.105943635
13	0xbe42445c	-0.1897139
14	0x3d97ca41	0.07411624
15	0xbdb87efa	-0.09008594
16	0x3e666be9	0.22502102
17	0xbe622b0c	-0.22086734
18	0x3e5da2ba	0.21644107
19	0x3e5d73c1	0.21626188
20	0x3da4d7c8	0.080489695
21	0xbe5e9be2	-0.21739152
22	0xbdc1226f	-0.09430396
23	0xbe671829	-0.2256781
24	0x3e032d44	0.12810236
25	0xbe5dd662	-0.21663812
26	0x3e0213df	0.12702893
27	0x3d71f56f	0.059071954
28	0x3db14b65	0.086569585
29	0xbdfab269	-0.1224106
30	0xbe173ada	-0.14768544
31	0xbe1099e5	-0.14121206

exp_avg f4 [256, 25]
0	0x3a8a145a	0.001053463
1	0x3a17e682	0.0005794541
2	0x392af607	0.00016304116
3	0xb952b889	-0.00020095905
4	0x3953660e	0.00020160546
5	0x3965f380	0.00021929853
6	0xb930fb1a	-0.0001687821
7	0x393e29de	0.00018135409
8	0x38a96a00	8.078292e-05
9	0x3991cf89	0.0002781118
10	0x393bb58a	0.00017901338
11	0x3884ccb8	6.332382e-05
12	0xb95b2843	-0.00020900466
13	0x39c8a5f1	0.0003827061
14	0xb9706dd3	-0.00022929096
15	0xb9d8207c	-0.00041222933
16	0x393255a9	0.00017007314
17	0xb991beea	-0.00027798797
18	0xb9b182a5	-0.0003385741
19	0x392ce36b	0.00016487918
20	0xb96b9ab5	-0.0002246898
21	0xb9e07905	-0.00042814776
22	0x3944aeff	0.00018757208
23	0x3a741ab2	0.0009311839
24	0x3a186e26	0.0005814753
25	0x3a8edec7	0.0010900133
26	0x39d7fede	0.00041197886
27	0xb8d46bde	-0.000101290396
28	0x388a2859	6.587868e-05
29	0xb8980fc4	-7.2508614e-05
30	0x391584c8	0.00014259212
31	0xb8c3d0e2	-9.337232e-05
32	0x38cd0a6f	9.777105e-05
33	0xb92b1b32	-0.00016317962
34	0x3a42dbf5	0.0007433289
35	0x39e99e41	0.00044559131
36	0x395fcd3f	0.00021343397
37	0xb8f585e1	-0.00011707447
38	0x39ca676a	0.00038605492
39	0x362904b0	2.518569e-06
40	0xb8f53446	-0.00011692247
41	0x39a45ba0	0.00031348784
42	0xb85e322a	-5.2975643e-05
43	0xb8952ae4	-7.112863e-05
44	0x39b68c08	0.00034818077
45	0x381d345c	3.748048e-05
46	0xb8f32768	-0.00011594483
47	0xb870de6a	-5.74276e-05
48	0x3a68ba22	0.00088778336
49	0x39ccd180	0.00039066002
50	0x3a148911	0.00056661764
51	0x39ae0ce4	0.0003319747
52	0x3919a82b	0.00014653864
53	0xb6a029a8	-4.773221e-06
54	0x395de13e	0.00021160112
55	0x39193c48	0.00014613674
56	0x380a6ae2	3.3001306e-05
57	0xb6f77b74	-7.3755455e-06
58	0x390e5cae	0.00013576701
59	0xb821a682	-3.8540464e-05
60	0x393eabd8	0.00018183829
61	0x377cd6d1	1.5070386e-05
62	0xb9ff1b24	-0.00048657611
63	0x39b1beb0	0.00033902144
64	0xb9d31191	-0.00040258144
65	0xba2ecef6	-0.0006668413
66	0xb95b891e	-0.00020936548
67	0xba216cc3	-0.00061578694
68	0xba1ed56f	-0.0006059026
69	0xb9a54f62	-0.00031530397
70	0xba0a798a	-0.0005282393
71	0xba1f5fcd	-0.0006079644
72	0x3a030382	0.0004997776
73	0x3a055d89	0.0005087485
74	0x39beb1b0	0.00036372012
75	0x3972f656	0.00023170686
76	0x38caeff8	9.676808e-05
77	0x38af8646	8.369661e-05
78	0xb906bd80	-0.0001284983
79	0x38b28712	8.51286e-05
80	0x389a47fa	7.356699e-05
81	0xb89a8b53	-7.3692434e-05
82	0x38bb47fc	8.930263e-05
83	0x38a2ad18	7.757003e-05
84	0x38aa4557	8.119147e-05
85	0x37d01e68	2.4809691e-05
86	0x37052324	7.9356e-06
87	0xb8b41de9	-8.58864e-05
88	0x388f82fe	6.8431706e-05
89	0x3914a713	0.0001417662
90	0x370b803b	8.314902e-06
91	0x39893df7	0.00026176844
92	0xb6780c94	-3.6962201e-06
93	0x387fba9c	6.097053e-05
94	0x395f9ef6	0.00021326155
95	0x38f14494	0.00011504549
96	0x384c0d42	4.8649737e-05
97	0xb90b4103	-0.00013280292
98	0x39aab370	0.00032558618
99	0x39e17702	0.00043004012
100	0x390bd9c4	0.00013337197
101	0x38785e92	5.9215883e-05
102	0x36d37e20	6.302973e-06
103	0xb8b407f0	-8.584547e-05
104	0x381942a3	3.6540103e-05
105	0x38b71e86	8.7318054e-05
106	0xb7c547b2	-2.3517616e-05
107	0x380438c5	3.1524123e-05
108	0xb75f7a68	-1.3320336e-05
109	0xb8733665	-5.7986374e-05
110	0xb8584d09	-5.1570158e-05
111	0xb7bda63e	-2.2607968e-05
112	0xb6c0a5ee	-5.7413627e-06
113	0x38bdfbaa	9.0590984e-05
114	0xb85c006f	-5.245249e-05
115	0xb8f29eea	-0.00011569059
116	0xb68a0d94	-4.114301e-06
117	0xb8e6e61e	-0.00011010117
118	0xb8cf5fe0	-9.888387e-05
119	0xb7f10846	-2.8733291e-05
120	0xb8a4af79	-7.852814e-05
121	0xb8d11f33	-9.971708e-05
122	0x3895df22	7.1464354e-05
123	0x38d2b4fa	0.0001004729
124	0x380b67d8	3.3236895e-05
125	0x3a38ac96	0.000704476
126	0x395dbd43	0.00021146708
127	0x38a0e2d3	7.671644e-05
128	0xb9400f58	-0.00018316263
129	0x38cd24c0	9.782007e-05
130	0x37c823e4	2.385857e-05
131	0xb843b210	-4.6657457e-05
132	0x387fba08	6.0969993e-05
133	0xb89ede40	-7.5754244e-05
134	0x3a4375aa	0.0007456193
135	0x3992338c	0.00027885695
136	0x38018706	3.0881747e-05
137	0xb984a860	-0.0002530245
138	0x39ba7de6	0.00035570486
139	0xb8f657e9	-0.000117465686
140	0xb8b87679	-8.795871e-05
141	0x39526ef3	0.00020068492
142	0x388a8700	6.6054985e-05
143	0xb88944ba	-6.5454704e-05
144	0x399a5ce4	0.00029442378
145	0xb71829f4	-9.069674e-06
146	0xb94037a3	-0.00018331273
147	0xb7344eb8	-1.0747164e-05
148	0x39d1cf9f	0.00040018276
149	0xb94416e0	-0.00018700538
150	0x3a2f7172	0.0006692625
151	0x398f4f60	0.00027334224
152	0x38cbe0e1	9.721681e-05
153	0xb6152650	-2.222503e-06
154	0x3939c87a	0.00017717658
155	0x394410b7	0.00018698243
156	0xb74c2f38	-1.21703415e-05
157	0x3823d578	3.9061037e-05
158	0xb88ed7bc	-6.811271e-05
159	0x394dcdfc	0.00019627059
160	0x38726acb	5.7796755e-05
161	0xb7eb4401	-2.804585e-05
162	0xb9e1ca88	-0.00043066242
163	0x39db6734	0.00041847827
164	0xb9af1184	-0.0003339165
165	0xba135bb8	-0.0005621272
166	0xb4d2e080	-3.9278893e-07
167	0xb9e1e73a	-0.0004308762
168	0xb9f81fce	-0.00047325942
169	0xb8a375b2	-7.794368e-05
170	0xb9cce073	-0.0003907714
171	0xba142ea0	-0.00056526996
172	0x39b55fd8	0.0003459442
173	0x39f93ab4	0.00047536718
174	0x38c41c10	9.351235e-05
175	0x3968d744	0.00022205437
176	0x394e6dd2	0.00019686602
177	0xb90db53a	-0.0001351432
178	0xb8bb33c4	-8.926497e-05
179	0xb892c050	-6.9976435e-05
180	0x392c28d8	0.00016418414
181	0xb67879c5	-3.702576e-06
182	0x3792542b	1.744375e-05
183	0xb8e8d767	-0.00011102744
184	0xb8bc22b8	-8.9710054e-05
185	0x380484fe	3.159511e-05
186	0xb782b970	-1.5583559e-05
187	0x38dc85ca	0.000105153376
188	0x399531f7	0.0002845672
189	0xb98d162a	-0.0002691013
190	0xb9d2f999	-0.00040240286
191	0xb906f20c	-0.00012869405
192	0xb9bfbb75	-0.00036570025
193	0xb9c7513e	-0.00038016768
194	0xb9268e0a	-0.00015883907
195	0xb9aaa316	-0.00032546435
196	0xb9c699aa	-0.00037879992
197	0x39a3f277	0.00031270433
198	0x388cef6b	6.720315e-05
199	0xb9436e93	-0.00018637841
200	0x3958b0d8	0.00020665245
201	0x3834a951	4.3073032e-05
202	0x39076053	0.00012910487
203	0x38339872	4.28189e-05
204	0x38f2d3ea	0.00011578931
205	0xb83d5c44	-4.514704e-05
206	0xb6d2d74a	-6.2835506e-06
207	0x3501e1a4	4.8384595e-07
208	0x38b76b4e	8.746107e-05
209	0x3963c77a	0.00021722718
210	0x38c759fe	9.505822e-05
211	0x37966357	1.7927652e-05
212	0xb9778724	-0.000236061
213	0x3663d0c0	3.3947144e-06
214	0xb770efaa	-1.4360916e-05
215	0xb4815f80	-2.4097608e-07
216	0x380daea8	3.377968e-05
217	0x37c36dea	2.3296994e-05
218	0x35b1f65c	1.3259228e-06
219	0x3852ed8f	5.0289145e-05
220	0x369c39d1	4.655893e-06
221	0xb7b5e280	-2.1682354e-05
222	0xb7073dfe	-8.061061e-06
223	0x3927fed8	0.00016021298
224	0x383f81c0	4.5658788e-05
225	0x37e709a4	2.7541835e-05
226	0xb5733c80	-9.0612593e-07
227	0x36cf319a	6.174855e-06
228	0x37c0ea86	2.2997392e-05
229	0x3727ab31	9.993834e-06
230	0x370f68c4	8.547857e-06
231	0x3698c626	4.5530205e-06
232	0xb61bb240	-2.3200555e-06
233	0xb672cc98	-3.61799e-06
234	0xb686e643	-4.020317e-06
235	0x376c27a6	1.40759275e-05
236	0x363ae3dc	2.7848791e-06
237	0xb816a895	-3.591979e-05
238	0x374513f6	1.17467625e-05
239	0xb7ce2837	-2.457584e-05
240	0xb823ce4c	-3.9054357e-05
241	0xb6eda331	-7.0821484e-06
242	0xb80964e7	-3.2757318e-05
243	0xb8109383	-3.4469656e-05
244	0xb750ef32	-1.2453458e-05
245	0xb7faa37b	-2.9878449e-05
246	0xb8206ff8	-3.825125e-05
247	0x37e65eca	2.7462276e-05
248	0x3792229d	1.7420674e-05
249	0xb6081090	-2.027522e-06
250	0x38de622d	0.000106040716
251	0x37d6e777	2.5618572e-05
252	0x381c2cd1	3.7235037e-05
253	0xb730e2a6	-1.0543188e-05
254	0x3826bea9	3.975505e-05
255	0x3804ac04	3.1631454e-05
