COVID-19 Modeling_Umich+ZJU/Python_LSTM/checkpoint_daily.tar (torch_old, 332778 bytes, 21 tensors)

lstm.weight_ih_l0 f4 [256, 33]
000000 36 af c8 3d 12 d0 ce bc 26 de 11 be e7 0d 8f bd
       0.09799044 -0.0252457 -0.14244899 -0.069850735
000010 7e 10 76 bd 77 d9 3f 3d f7 76 ad bb 32 76 e0 bd
       -0.060074322 0.04683825 -0.0052937227 -0.10960044
000020 e8 ce f0 3c 59 8c 19 be 52 64 1e 3d 99 bd 3c 3e
       0.029395536 -0.14994945 0.03866989 0.18431701
000030 57 37 16 be 3a 09 0f be 2f 8f 40 bd 65 86 ce 3d
       -0.14669548 -0.13968363 -0.04701155 0.100842275
000040 b8 84 20 3e 55 ec 9d be cb 53 ea 3d 20 7d 2d be
       0.15675628 -0.3084437 0.114417635 -0.16942263
000050 30 82 d4 bd ac b2 ad bd a0 ed b3 3d b7 a7 41 bd
       -0.10376394 -0.084813446 0.08785558 -0.047279086
000060 e5 47 d5 3d 5f 4e b4 bc 75 ae e5 3c 2a f0 ef 3d
       0.104141034 -0.022010026 0.02803729 0.117157295
000070 98 42 44 3d b8 d6 af 3d bf 1e 3a 3d 09 38 07 3d
       0.04791507 0.08585876 0.045439478 0.033012424
000080 6a 76 6d bb 58 19 81 bd 96 ff d1 bd 20 d2 a7 bd
       -0.003623391 -0.06303662 -0.10253827 -0.08194375
000090 52 e2 80 3d d2 fa 26 3e 4f a4 24 3d 1e d6 ae bd
       0.06293167 0.16306618 0.04019576 -0.08536933
0000a0 17 37 36 3d f3 89 f3 3d 7f 5b 9f 3e fd ee e3 3d
       0.04448613 0.11891546 0.31124493 0.11129568
0000b0 c4 dc 68 bd 30 a2 4c be 39 5c 26 bc d2 20 11 bd
       -0.056851164 -0.19983745 -0.0101538235 -0.03543169
0000c0 fc 3a 0b be 80 35 fb bd cc 16 b2 bd 85 49 b6 bd
       -0.1359672 -0.12266064 -0.086957544 -0.089007415
0000d0 fb a7 af bd 17 b7 21 3d 5c 60 4a bd 9d da 63 bd
       -0.085769616 0.03948125 -0.0494083 -0.055628408
0000e0 75 36 9a 3d d6 a5 30 bd 9b 91 92 3a 45 79 c2 bd
       0.07529918 -0.043126903 0.001118231 -0.094957866
0000f0 94 20 38 3e 72 97 76 3e 5c 23 0f bd 25 76 b2 bc
       0.17981178 0.2408121 -0.03494583 -0.021784851
000100 39 73 b8 3d c2 a2 f5 3d 89 0d 76 3d 46 b0 d8 3c
       0.09006352 0.11993934 0.060071502 0.026451241
000110 bf db 2a 3e 79 36 f1 bb 61 10 c3 3d 34 6a 12 3e
       0.16685389 -0.00736123 0.095246084 0.14298326
000120 8f 11 08 3c c6 f2 aa bc c0 52 01 3e ad b2 c1 bd
       0.008304968 -0.020867717 0.12629223 -0.09457908
000130 d6 f0 22 3d c3 5f ee 3d fe 3d d6 bd d7 08 aa bc
       0.03978046 0.11639359 -0.10461043 -0.020756168
000140 c4 27 8b be 1c d7 06 b7 42 8d c2 bb 4d 8b 35 bd
       -0.27178776 -8.037106e-06 -0.0059372494 -0.0443223
000150 36 ef b0 bc 3c 85 0a be a5 7b f2 bd b8 93 2b 3d
       -0.02159844 -0.13527387 -0.118399896 0.041888922
000160 9b 40 19 3d 0f 96 4a 3d 2a 27 0a be fd cb 77 3e
       0.03741513 0.049459513 -0.13491502 0.24198909
000170 d2 1e 37 3b 57 84 a6 3d fc 18 a5 3e 62 39 a7 3d
       0.0027941954 0.081307106 0.32245624 0.08165242
000180 f7 74 b4 3d 71 ea 60 3e 6e 88 98 3d 25 af ba 3c
       0.08811372 0.21964432 0.07447897 0.022788594
000190 17 06 ad bd 58 b1 07 be d8 c1 be bd 83 d1 e0 bd
       -0.08448427 -0.13251245 -0.093143165 -0.10977461
0001a0 64 ae 8c 3d b3 cf 9f 3d f8 8b 28 be 5f 78 0f be
       0.068692 0.07803287 -0.16459644 -0.14010762
0001b0 a6 2f 89 3c a2 6a 27 3e 07 60 0e bd ff 1f 1c bd
       0.016746353 0.16349271 -0.034759548 -0.03811645
0001c0 f0 37 c5 bc cb ff 47 3d 23 e5 26 bc 60 fd 11 3d
       -0.024074525 0.048827928 -0.010186466 0.035642028
0001d0 fd 1d 33 be 27 1e 4d 3d 70 95 17 bd 7b 69 e5 3d
       -0.17491908 0.050077584 -0.03700775 0.112017594
0001e0 52 49 12 be 6d d3 99 3c 6c 78 a9 3d c0 ac 6f 3d
       -0.14285782 0.018777573 0.08274922 0.058514357
0001f0 89 33 4a bd 94 fe 93 bd 09 9a d8 3d 76 7d 06 be
       -0.049365554 -0.07226291 0.10576255 -0.13133797
000200 9c d7 ca bd 79 fe a1 bd d3 7f 01 3e 48 65 c6 bd
       -0.099044055 -0.07909865 0.12646417 -0.096872866
000210 19 95 18 3e 94 42 d2 3d 8c af 7f 3d 6e 8e ce 3d
       0.14900626 0.10266605 0.062423274 0.1008576
000220 8e 90 0b 3e 0f 10 12 bd ac a0 47 be 6a dd 24 3d
       0.13629362 -0.035659846 -0.19494885 0.04025022
000230 f3 8e 26 3e cc c2 42 bd 58 69 6a bd fb e1 71 3d
       0.16265468 -0.047549054 -0.05722937 0.059053402
000240 45 59 e7 3d 19 da 71 be a2 b7 03 be d3 7d 99 bc
       0.11296324 -0.23618354 -0.12863019 -0.018736755
000250 f2 83 38 be 99 71 43 be c3 a5 27 bd e7 21 80 3c
       -0.18019083 -0.19086303 -0.040929567 0.015641166
000260 bc 71 6a 3e d8 d2 29 3e d1 06 86 3d 63 ef 2a 3c
       0.22894949 0.16584337 0.06544269 0.010433051
000270 0c 92 27 3e d8 5a ee 3d 54 55 27 3e cf 6d ca 3b
       0.16364306 0.11638421 0.16341144 0.006177641
000280 0c aa a9 3c 8d 4e c8 3d 0d 14 4a 3e 66 77 32 3e
       0.020710967 0.09780607 0.19734211 0.1742836
000290 62 0b a2 3d 28 fa c6 3c a9 10 e5 3d 89 88 89 be
       0.07912327 0.024289206 0.11184818 -0.2686198
0002a0 e1 4b 17 be 72 3a c9 be 30 2d 04 be b0 9f 62 3d
       -0.1477504 -0.39302403 -0.12907863 0.05532807
0002b0 7c da 38 bc 4f c5 85 3c d4 bb 15 bd 7f 53 aa bc
       -0.0112825595 0.016329436 -0.03655608 -0.020791767
0002c0 d4 b7 44 3d 0b 1e 74 3e ed e7 8b bd a0 36 b1 3d
       0.048026875 0.23839585 -0.06831346 0.08652997
0002d0 20 b0 98 3d 9e 14 65 bd e3 71 9a bd 1c d0 36 3e
       0.07455468 -0.055927865 -0.075412534 0.17852825
0002e0 b4 f2 8a 3e 22 e3 40 3d 24 df 1d bd 94 7f 64 3e
       0.27138293 0.04709161 -0.03854288 0.22314292
0002f0 6e 85 d7 3d 46 db ea 3d fe d1 e3 3d 30 ed 32 3d
       0.105234966 0.11467604 0.11124037 0.04368323
000300 96 69 b9 bc 46 20 8d 3d 6b dc 7b 3d ba c7 dc bd
       -0.022633355 0.06890921 0.061489504 -0.10780282
000310 8d b2 07 3e 0c 8c 25 3e d0 cb 67 bd 81 01 80 bd
       0.13251705 0.16166705 -0.056590855 -0.06250287
000320 51 59 1d bd ff 36 54 bd 45 9e 02 be 7e bc 3b be
       -0.038415257 -0.05181026 -0.12755688 -0.18333623
000330 09 bb 2e be 96 ce 10 3e a9 7c e8 3d f8 86 9d 3d
       -0.17063536 0.14141306 0.11351902 0.07691759
000340 5c 72 77 bd 35 12 88 bd 66 ca ca bc 9a aa ed bd
       -0.060411796 -0.06644098 -0.024754714 -0.11604805
000350 07 8b ac 3d a6 03 15 bd ec a1 97 3d a3 6e 59 3d
       0.08424955 -0.036380433 0.07403931 0.053084027
000360 6d 64 4b 3e 1d fd a3 3c 92 cb c3 bd 8a 81 93 3c
       0.19862528 0.020018155 -0.09560312 0.018006105
000370 40 8f 20 3e 64 d7 9d 3d 1b 09 81 bd 3a 0d 87 bd
       0.15679646 0.07707098 -0.06300565 -0.0659432
000380 dd d9 31 3d 13 42 52 3d 9c d4 c3 3d ea d9 3b bd
       0.04342066 0.051332545 0.095620364 -0.045862116
000390 89 38 f8 bd 16 8b dd 3d c6 90 f9 bd 05 98 86 3e
       -0.12120158 0.10817544 -0.121858165 0.26287857
0003a0 9a c9 17 3c 04 d3 7f 3b e0 86 c5 3b 5a 52 ce bd
       0.009264374 0.0039035687 0.0060280412 -0.10074301
0003b0 98 f5 0c bc 86 45 3a bd 74 e4 d5 bb 33 5c 17 3e
       -0.008603476 -0.04547646 -0.006527478 0.14781265
0003c0 0b 7b cd bd 18 f9 80 3d e2 a2 8a 3d 4e 23 23 be
       -0.10033234 0.06297511 0.06769349 -0.15931436
0003d0 46 a3 d2 3b 2b c7 14 be c2 07 c0 3c 1b 9f 2d 3d
       0.006428155 -0.14529102 0.0234412 0.042388063
0003e0 2e 8d 88 be e8 25 3b bd b6 51 fc 3d 83 64 ba 3d
       -0.26670212 -0.045690447 0.123202726 0.09101202
0003f0 1c b2 83 bd fc a2 22 bc 91 16 46 3e 5f 7d 21 3e
       -0.06430456 -0.009926554 0.19344546 0.15770482

lstm.weight_hh_l0 f4 [256, 64]
000000 e8 7e 42 bd c4 58 ed bd f4 5f 5c bd ca 97 c9 bd
       -0.04748431 -0.11589196 -0.053802446 -0.098434046
000010 80 e4 8b bb 70 16 80 3d 78 a7 f1 3d 48 80 90 3d
       -0.0042691827 0.062542796 0.1179952 0.07055718
000020 e0 1d 72 bc 80 5b f0 bd 20 e2 1d 3d f6 56 d6 3d
       -0.014777631 -0.11736202 0.038545728 0.10465805
000030 ec 94 48 bd 6c 6a fe 3d 86 50 92 3d 70 23 c9 bd
       -0.048970148 0.12422642 0.07144265 -0.09821212
000040 26 d0 f3 bd 00 19 fa bd 10 21 a2 bc be 55 fb bd
       -0.119049355 -0.122117996 -0.019791156 -0.122722134
000050 f4 9c 6a 3d 92 86 d0 bd 60 7f 73 bd 96 38 9e bd
       0.05727859 -0.10181917 -0.059447646 -0.07725637
000060 d4 da 96 3d 84 07 b1 3d 9e d2 84 bd dc 09 56 3d
       0.07365957 0.086440116 -0.064854845 0.052255496
000070 6c 47 f1 3d b0 5c ab bd 80 ad ba bc 92 af cc 3d
       0.11781201 -0.08367288 -0.02278781 0.09994425
000080 96 d3 d5 bd de 25 ec 3d 96 7c ab 3d 64 3d 54 3d
       -0.104407474 0.1153066 0.08373372 0.05181636
000090 80 2e fd 3c 44 10 4e 3d 04 2a b3 3d d0 e7 a2 3d
       0.030905962 0.05030848 0.08748248 0.07954371
0000a0 2c 66 69 3d c8 cc bf bc e0 b2 0f bc d8 cb c6 bd
       0.056982204 -0.023413077 -0.0087706745 -0.09706849
0000b0 00 68 0e ba 04 1d 26 bd d0 80 b1 bd 4a e3 8b 3d
       -0.00054323673 -0.040555015 -0.08667147 0.06830461
0000c0 18 2c d3 bd 88 2b f7 3c 1c a0 b8 bd dc 1b 3b bd
       -0.103111446 0.030172125 -0.090149134 -0.045680866
0000d0 a0 26 9a bc 54 98 bc bd 80 b3 fc ba 7a e9 d7 bd
       -0.018817246 -0.09208742 -0.0019279569 -0.10542579
0000e0 d6 18 cd 3d 46 61 83 bd 4c 8e 67 3d d8 12 3f 3d
       0.10014503 -0.06415038 0.05653219 0.04664883
0000f0 b8 a6 fd bd b0 d6 30 bc 30 1d 03 bd a0 c5 f0 bd
       -0.12385315 -0.010793373 -0.032010257 -0.11756444
000100 a0 5e 97 3b b0 d4 bf 3d 50 22 c1 bc d0 52 7c bc
       0.0046194345 0.09366739 -0.023575932 -0.015400603
000110 c0 a8 da bc 62 6b b4 bd e0 58 3f 3d f8 6b d5 3d
       -0.026691794 -0.08809544 0.046715617 0.10420984
000120 ca c1 d4 3d 96 b7 c0 3d c8 39 71 3d e6 a2 e5 bd
       0.10388525 0.09410016 0.058892995 -0.11212711
000130 be a9 8c bd 74 f9 47 bd 50 cf 20 bc 66 42 e1 3d
       -0.06868313 -0.04882188 -0.009815052 0.109989926
000140 2a ef f1 3d 10 80 78 bd 60 74 16 3c 18 36 b2 3c
       0.11813195 -0.060669005 0.009183019 0.02175431
000150 fc 50 74 bd e6 5b a3 bd 98 c3 9a bc 74 ed b2 3d
       -0.059647545 -0.079765126 -0.018892094 0.08736697
000160 92 17 d0 3d a0 1f c3 3c 40 7b b0 bc c8 a0 c5 bc
       0.10160746 0.02381879 -0.021543145 -0.024124518
000170 64 5d a5 bd 06 59 a0 3d f0 1a 01 bc 14 a4 62 bd
       -0.080744535 0.0782948 -0.007879958 -0.05533226
000180 f4 dc 85 bd 1e 1d a6 bd d0 8f 07 bc 0c a9 eb bd
       -0.06536284 -0.081110224 -0.008274034 -0.115068525
000190 66 d0 b9 bd e4 62 5b 3d 7c 2c b9 3d f8 df e5 bd
       -0.09072952 0.053561106 0.09041688 -0.11224359
0001a0 16 94 f9 3d 28 ea b6 3c 50 70 b0 3c 68 dc fb bd
       0.12186448 0.022328451 0.02153793 -0.122978985
0001b0 74 3b 67 bd 9c e6 ca bd c2 7f d6 bd 30 f1 1c bd
       -0.056453183 -0.099072665 -0.104735866 -0.03831595
0001c0 0c e7 03 bd 50 7d d8 bd 10 39 c2 bd c0 77 c2 bd
       -0.032202765 -0.105707765 -0.0948354 -0.09495497
0001d0 0c 68 43 3d 00 72 ac ba 10 f3 70 3c 90 8a 05 3c
       0.04770665 -0.0013156533 0.014706388 0.008150712
0001e0 6c 08 7a bd 3a 89 92 3d 9e 5c c2 bd f0 c8 23 bd
       -0.061043188 0.0715508 -0.094903216 -0.03998655
0001f0 00 fb d5 3a 0c a4 c6 bd 78 54 e6 3c 0c 87 2c 3d
       0.0016325414 -0.09699258 0.02811645 0.04212098
000200 90 f6 07 3d 7e 40 d8 bd 34 d5 ab 3d ac aa d8 bd
       0.033194125 -0.10559176 0.08390275 -0.10579428
000210 10 f1 64 bc 60 26 29 3d ea 14 86 3d 0c 85 52 bd
       -0.013973489 0.041296363 0.06546958 -0.051396415
000220 5a 7a d3 3d 78 60 d1 bd 60 f5 fb 3d 48 8f f6 3c
       0.10326071 -0.10223478 0.12302661 0.030097619
000230 c0 e9 de bc a4 c0 75 3d 80 cf 46 bc ec ed bb bd
       -0.02721107 0.05999817 -0.012134433 -0.09176239
000240 ec 64 6a bd 20 48 f3 bc b2 3d f4 3d 30 de cf 3c
       -0.057225153 -0.029697478 0.1192583 0.025374502
000250 66 03 e8 3d ca 7f 8c bd 0c 00 f0 bd ac 7e 89 3d
       0.11328773 -0.06860311 -0.11718759 0.06713614
000260 14 a7 1d 3d 00 d8 d1 bc b6 e3 9b bd 7e 9f 92 bd
       0.038489416 -0.025615692 -0.07611792 -0.07159327
000270 d0 17 95 3c b4 5f 69 3d c0 27 fd bd 5e 7a 85 3d
       0.018199831 0.056976035 -0.12361097 0.0651748
000280 da 06 a1 3d 68 b8 99 3d 60 95 d6 bd e2 b3 a0 bd
       0.07862635 0.07505876 -0.1047771 -0.0784681
000290 54 80 4c 3d 66 fe cf bd 02 16 eb bd 60 12 30 bd
       0.04992707 -0.101559445 -0.11478807 -0.042986274
0002a0 20 6c 0f bd d4 a5 a6 3d a0 8d 08 3d 00 32 42 bd
       -0.035015225 0.08137098 0.03333819 -0.047410965
0002b0 9c 57 5a bd c6 ed d7 bd e4 77 79 3d 10 96 d6 bc
       -0.053306207 -0.105433986 0.060905352 -0.026194602
0002c0 ce d9 fa 3d 60 8c 92 bc 10 0b 8e bc 6a 65 c2 3d
       0.12248574 -0.017889202 -0.01733926 0.094919994
0002d0 38 41 1e 3d 68 83 a6 bc 10 40 60 3c 50 c5 9e bd
       0.038636416 -0.020326331 0.013687149 -0.07752478
0002e0 42 bb ad 3d 2a 6f a5 bd b8 25 91 3d fc 92 bb 3d
       0.08482982 -0.080778435 0.070872724 0.091588944
0002f0 e0 2a 2e 3d 00 fa 13 3b f4 67 39 bd 4c b4 b0 bd
       0.042521358 0.0022579432 -0.045265153 -0.08628139
000300 fe ff f4 3d 24 9f 3f bd 38 5d bd bc fe 35 bd bd
       0.11962889 -0.046782628 -0.02311574 -0.09238814
000310 6a d8 ed 3d f4 dd cc 3d 38 09 4d bd 4a 3a 99 3d
       0.11613543 0.10003272 -0.05005762 0.07481821
000320 14 26 73 bd 28 52 b7 3d 56 0b 91 bd d4 37 68 bd
       -0.059362486 0.08951217 -0.0708224 -0.056693867
000330 ae 0d 8a 3d a8 db f6 bc 70 e4 e9 bd bc 57 0e bd
       0.067408904 -0.030134037 -0.11420524 -0.03475164
000340 d0 28 e0 3d 8c ae 35 3d f4 1f 5d bd a8 69 7f bd
       0.10945284 0.044355914 -0.05398555 -0.06235662
000350 82 ed 8b bd bc de e2 bd 36 fa 80 bd c8 08 12 3d
       -0.068324104 -0.110776395 -0.06297724 0.035652906
000360 c0 7b c5 bc 70 09 1e 3c 10 01 0d 3d fc 4e ce 3d
       -0.02410686 0.009645805 0.03442484 0.10073659
000370 2c 87 93 3d 28 bd b6 bd 62 a3 ad bd bc 68 8a 3d
       0.07203516 -0.089227974 -0.084784284 0.06758258
000380 5c 0c a2 bd e4 9f c4 3d 70 0b 2d bd 1c b4 da bd
       -0.079125136 0.09600809 -0.042247236 -0.106788844
000390 c4 68 7b bd b0 d9 7a 3d 18 63 ca 3c c8 fc 91 bc
       -0.06137921 0.06124276 0.024705455 -0.01782073
0003a0 84 b6 f0 bd 94 a0 22 3d 52 40 e7 bd 50 30 98 bc
       -0.11753562 0.03970392 -0.11291565 -0.018577725
0003b0 e8 6a 68 3d 34 c8 5a bd 58 48 6a 3d 70 da 17 3d
       0.05674258 -0.053413585 0.0571979 0.037073553
0003c0 52 a3 ad 3d 30 e5 2c 3c f0 29 16 bd 68 57 87 bc
       0.084784165 0.010552689 -0.03666109 -0.01652117
0003d0 4a 09 df 3d 12 7c 8b bd aa 6d d3 bd d0 7f 1e 3c
       0.108904436 -0.06810774 -0.10323651 0.009674028
0003e0 c8 d2 f3 3c 34 cf ee bd 00 02 14 3b 08 e8 d3 3d
       0.029763594 -0.116606146 0.00225842 0.10346991
0003f0 58 8f 67 bd 84 6e 7f 3d 60 13 88 bc f0 0b 16 3d
       -0.056533188 0.062361255 -0.016610801 0.03663248

lstm.bias_ih_l0 f4 [256]
000000 cf c4 03 3e 8c 44 7d bd d9 b2 ba bb e2 88 a3 bd
       0.12868045 -0.06183295 -0.00569759 -0.07985093
000010 c0 86 09 3e 69 fc de 3d ef 72 19 3e 3d c0 80 3c
       0.1343031 0.10887987 0.1498525 0.015716666
000020 e0 17 0f bd ff 89 a5 bd a4 77 9e bc dd 39 3e 3d
       -0.03493488 -0.08082961 -0.019344158 0.0464419
000030 5f b5 93 3d 73 34 4e 3d 03 7a ac bd 5a 1c 20 3d
       0.07212328 0.05034299 -0.084217094 0.03908954
000040 36 34 35 3b a8 fe 00 3c 17 36 55 3d 8a 94 ee 3d
       0.0027649528 0.007873215 0.052053537 0.11649425
000050 e4 b8 49 bd ff 9f ca 3d 58 d5 a0 3d 83 c7 87 3c
       -0.04924859 0.09893798 0.07853192 0.016574627
000060 a6 2a 87 bd 50 a5 92 bd 8a d2 11 3e 3d 81 1d 3c
       -0.065999314 -0.07160437 0.1424047 0.009613332
000070 f7 6c 0d be 75 c5 c4 3d e1 1a cb 3b 61 9c ee 3d
       -0.13811098 0.096079744 0.0061982726 0.11650921
000080 d4 9a 10 3e be 04 51 3d c0 9b 2a bd 0c 4b 5d bd
       0.14121562 0.051029913 -0.04165244 -0.05402665
000090 40 9d bc bc a3 7f 52 bd 40 03 c7 bd 6f e6 aa bd
       -0.023024201 -0.051391255 -0.09717417 -0.08344733
0000a0 ac 7d cb 3d 54 1b 93 bc 51 1d 4c bd 5a 7c 03 3e
       0.099360794 -0.017957367 -0.049832646 0.12840405
0000b0 9d 19 76 3c ff 86 82 3d d1 7f 69 bd f5 d1 e1 3d
       0.015020755 0.06373405 -0.05700666 0.11026374
0000c0 b0 9e 99 3c ac 33 1a bd 1d aa fe bc fe 2e ec 3c
       0.018752426 -0.037646934 -0.031086976 0.028831001
0000d0 3f 2b ae bd 01 ff 3c bd 41 40 14 3e d9 83 ef 3b
       -0.08504342 -0.04614163 0.14477636 0.0073094186
0000e0 9f 9c fd 3d eb 4e cc bd 84 83 4b 3d 06 60 7e 39
       0.12383389 -0.0997599 0.04968597 0.00024259099
0000f0 9e c9 e3 3d 5d 88 95 3d b6 d9 18 3e a3 e3 b4 bd
       0.1112244 0.073014 0.149268 -0.08832481
000100 04 ca 7c bd e8 9f 4a bd 04 91 97 3d 4e 73 ed 3d
       -0.061716095 -0.049468905 0.074007064 0.11594258
000110 00 d8 e9 3a ec ec 9e 3d be a5 96 3d c0 56 b0 bb
       0.0017840862 0.07760033 0.073558316 -0.005381435
000120 32 a2 e7 3d 28 94 00 bd e0 84 8c bc e8 b7 95 bc
       0.11310233 -0.031391293 -0.017153203 -0.01827617
000130 d0 0a fb 3c 78 ca 38 bd 18 57 9c 3c 66 9e e7 bd
       0.030644804 -0.045114964 0.019084498 -0.11309509
000140 64 72 94 3d 50 c0 ff 3c 00 15 52 3a c8 95 d3 3d
       0.07248381 0.031219631 0.00080139935 0.10331303
000150 8c bc 90 bd 60 b1 8b 3b d8 72 ff 3d 46 b8 ad bd
       -0.070672125 0.004263088 0.124730766 -0.08482413
000160 a0 26 d8 bb 70 a9 cf 3c 90 da df 3d ce 53 e1 bd
       -0.0065964013 0.025349349 0.10930359 -0.110023126
000170 20 00 9b bd 66 1f b6 bd 9c 48 3e bd a2 4d a5 bd
       -0.07568383 -0.088927075 -0.046455964 -0.08071448
000180 04 8d 83 3d ba c8 ad bd c0 e0 4b 3c ae e5 cb 3d
       0.06423381 -0.08485551 0.012443721 0.09955917
000190 70 fa 9c 3c e8 96 80 3d 1a 03 9d 3d 60 fa b9 bc
       0.019162387 0.06278783 0.07666607 -0.022702396
0001a0 00 54 08 39 e8 ff e2 3d a0 d3 c4 3c 78 a5 31 bd
       0.00013001263 0.110839665 0.024026692 -0.043370694
0001b0 90 f8 2f 3c 74 0c 6f 3d 9a 83 fc 3d e8 c6 34 3d
       0.010740414 0.058361486 0.123297885 0.044135004
0001c0 b0 de 35 3d dc a3 d8 bd 28 e4 3f 3d 00 69 44 3c
       0.044401824 -0.10578129 0.046848446 0.011987925
0001d0 5e b7 cf 3d 28 90 9e bc c4 0c 6c 3d 6c f6 3b 3d
       0.101423964 -0.019355848 0.05762936 0.045889303
0001e0 68 ec 0b 3d 2e ae a8 3d dc 11 81 3d 70 7a 33 bd
       0.034161 0.08236347 0.063022345 -0.043817937
0001f0 48 df e8 3c 96 d0 96 3d ac 4a 05 3d a0 a8 7b bd
       0.028426781 0.07364003 0.032541916 -0.06144011
000200 20 62 e5 bc d0 bd e2 bd bb b2 bd 3c 87 24 d9 bd
       -0.028000891 -0.1107136 0.023156514 -0.1060267
000210 99 16 b0 3c 30 bd 3e be 26 5e d5 bd d6 32 81 bd
       0.02149515 -0.18626857 -0.10418348 -0.06308524
000220 83 b9 b5 bc e6 21 17 bc a3 b7 c1 bd 18 c4 fa 3d
       -0.022183185 -0.009224391 -0.09458854 0.12244433
000230 3d 80 6c 3d ca 17 1b bd 61 d3 c3 3d 73 27 d6 bc
       0.057739485 -0.037864484 0.09561802 -0.026141858
000240 bd 79 a9 bd 6e a5 d8 bd 5c f4 db bc 5e bb 10 bd
       -0.08275173 -0.10578428 -0.026849918 -0.035334937
000250 97 e0 c1 bd 5b 6d a8 3d 8d 97 fd 3d 6c 5d 59 be
       -0.09466665 0.08223983 0.12382422 -0.21227044
000260 8d c3 ed 3d 75 36 01 be 09 06 30 3c 8a 6a 96 bd
       0.11609564 -0.1261843 0.010743626 -0.073445395
000270 0c 8f 00 3e f8 6a e8 3d 31 fe 96 bd b8 27 85 bd
       0.12554568 0.11348528 -0.07372702 -0.065017164
000280 bc b4 92 3d bf 2a f0 bb 1c a6 84 3b 99 36 9e bd
       0.071633786 -0.0073293145 0.004048122 -0.077252574
000290 ef 74 e2 3d c3 a3 a1 bc 1a 90 2e 3b 9d df 09 3d
       0.110574596 -0.019731408 0.0026636184 0.03366052
0002a0 08 b3 8f bc 3e 24 f4 3d 5e ad 89 bd 75 f1 6c 3c
       -0.017541423 0.11920975 -0.0672252 0.014461865
0002b0 72 1b b1 3d 9e 0a a2 bd 6d 8e ab b9 b0 9c bd 3d
       0.08647813 -0.07912181 -0.00032721777 0.092584014
0002c0 a7 4e d7 3c 48 d3 c7 3d b2 4b 19 3e 76 5f 87 bd
       0.026282622 0.097570956 0.14970282 -0.066100046
0002d0 30 7b 5d 3c 6d f9 20 bd 59 6b 53 ba c3 1e a1 3d
       0.01351814 -0.03930037 -0.0008065007 0.078671955
0002e0 68 4e fe bb 92 8c 26 3d e6 12 b2 bd 64 c6 50 bd
       -0.0077608116 0.040661402 -0.08695011 -0.05097045
0002f0 af 28 09 3c c5 b4 1f 3e 3f 33 a0 bd df dc ea 3d
       0.008371516 0.15596302 -0.078222744 0.11467909
000300 cf 95 f5 3d 5a ef ad 3d fa b9 9b bd 17 01 62 3c
       0.11991464 0.08492918 -0.076038316 0.013794205
000310 9d 53 f2 bc 37 01 6c bc 2a 44 df 3d 91 ff c3 3d
       -0.029580886 -0.0144045865 0.10901673 0.0957023
000320 4f be 14 bd 33 f8 a5 3d 51 17 88 3d 45 3b 02 3d
       -0.036314305 0.08103981 0.06645072 0.031794805
000330 86 73 ca 3c 6e a7 b2 bd 77 ae f2 3c fa 0c e7 3d
       0.024713289 -0.08723341 0.029624207 0.11281772
000340 aa 6e 00 3e 2d 9b 40 3d a0 ae 68 bd e7 4c 98 3c
       0.12542215 0.047022987 -0.05680716 0.018591357
000350 ad c7 60 3c c7 ba 81 bd 27 99 da 3d 11 f5 95 3e
       0.013719481 -0.06334453 0.10673743 0.29288533
000360 05 36 e2 3c 15 db 82 3d 8d bc 9e 3c 3a b3 ff 3d
       0.02761365 0.06389443 0.019377017 0.12485357
000370 9c 1e 85 3d 66 fb 75 bd ce b6 84 bd 25 df 36 3d
       0.06499979 -0.060054205 -0.0648018 0.0446464
000380 8e a1 00 be 12 05 8f bc 0f 14 a6 3d 48 4e ce 3d
       -0.12561628 -0.017458472 0.081092946 0.10073525
000390 ba a7 49 bd f4 65 f2 bd c8 b0 39 bd a1 f6 0b be
       -0.049232222 -0.11835852 -0.045334607 -0.136683
0003a0 13 00 99 bd 1e f7 28 bb a3 f4 33 bd 42 33 d3 3d
       -0.07470717 -0.002578206 -0.043934476 0.10312511
0003b0 bc fc d6 bc 21 52 8b 3d 4a 5c 0c 3d 8b 4a e0 3c
       -0.02624356 0.06802774 0.0342677 0.027379295
0003c0 12 5a 88 bd c9 e4 e5 bc a5 7f 20 bd c3 71 6c 3e
       -0.066578045 -0.028063195 -0.03918423 0.23090272
0003d0 9e 6a d0 3d b1 ca 9c 3d 5e b4 e1 3c e6 75 b3 3d
       0.101765856 0.07655848 0.027551826 0.08762722
0003e0 a8 d3 1f bd 66 07 c3 3d c8 94 81 bc af e4 31 3e
       -0.03902021 0.095228955 -0.015818015 0.17372392
0003f0 d8 da 82 3d af 2c 37 3d ac 96 df 3d 42 42 31 3d
       0.063893974 0.044720348 0.1091741 0.04327608

lstm.bias_hh_l0 f4 [256]
000000 a2 5d 64 bd e5 d6 86 bd fb 94 a3 bd 20 01 5e bc
       -0.055753358 -0.06583957 -0.079874 -0.013550073
000010 33 e6 9b bd 9d b2 65 3d 89 bb ae 3d c0 c0 75 3d
       -0.076122664 0.056078542 0.08531863 0.059998274
000020 78 0e cf 3d f6 1a 00 be 90 a0 ec 3d 05 a5 55 bd
       0.101101816 -0.12510285 0.11554062 -0.052159328
000030 1a f8 a1 bc ab 93 a0 3d 25 51 19 3e fe 3a 21 bd
       -0.019771624 0.078406654 0.1497236 -0.0393629
000040 10 a1 80 bd 54 a7 23 bd 49 11 03 bd 9f c7 22 3e
       -0.0628072 -0.0399545 -0.031998906 0.15896462
000050 d1 3f cb bc 89 e5 b7 3d f5 92 84 3c 3f bb 8e 3d
       -0.024810703 0.08979327 0.016183356 0.06969308
000060 f7 ef 3a 3d 79 38 fd bd 88 9f 3a bd 65 1d c5 3d
       0.045639005 -0.12364287 -0.045562297 0.09624747
000070 02 7e 85 3d c9 89 d1 3d f4 ff 8f 3d e5 6b e5 bc
       0.06518175 0.102313586 0.07031241 -0.02800555
000080 74 8f 2e bd bb 2b 4e bc 15 82 c6 bd 14 8a 99 bd
       -0.042617276 -0.012583668 -0.0969278 -0.074970394
000090 56 e6 1e 3c db ad 1e 3d 10 83 a8 bd 2a 87 f9 3d
       0.009698471 0.03874002 -0.08228123 0.121839836
0000a0 d0 02 70 bd 52 78 3f 3e e1 8f 83 bd 9c 3b 25 3e
       -0.058596432 0.18698242 -0.06423927 0.1613602
0000b0 00 04 ea bc 2f 77 25 3d 1a 85 e4 bd f3 71 38 3e
       -0.02856636 0.040396865 -0.111581996 0.18012218
0000c0 34 31 cf 3c ef a8 76 3c ec 65 63 3c 81 33 d1 3c
       0.025292017 0.015054925 0.013879281 0.025537254
0000d0 62 b1 cd bc 0d 96 a7 3d 37 47 25 3e 0b 3e 97 bd
       -0.025108997 0.08182917 0.16140448 -0.07384881
0000e0 bd 82 d3 3d 7d 48 06 be 52 a5 cf 3c 49 98 53 3e
       0.10327671 -0.1311359 0.025347386 0.20663561
0000f0 9e 55 5d 3d 73 19 bd 3d 6a 2d 80 3c 04 14 51 3d
       0.05403673 0.0923337 0.015646655 0.05104448
000100 0a c8 b7 3d e2 0e 9c bd 9e 56 81 bd fe 31 fe 3d
       0.08973701 -0.07620026 -0.06315349 0.12411879
000110 a8 fe 9f 3c a0 b3 86 3c ac 1c 2d 3d 7c ce 35 3d
       0.01953061 0.016443074 0.04226367 0.044386372
000120 7a 0f fd 3d c8 18 10 3d fe a8 d2 bd b0 cc de bd
       0.123564675 0.035179883 -0.10286139 -0.10878885
000130 80 bc ec ba 46 16 a2 3d 84 8e 5f bd 28 da b2 3d
       -0.0018061548 0.079144046 -0.054579273 0.08733016
000140 40 c1 51 3c 3e 7e f5 3d b0 e5 9f 3c 5e 97 e9 3d
       0.012802422 0.119869694 0.019518703 0.11405824
000150 30 27 09 bd bc 73 05 3d 4a 47 b5 3d dc 01 83 3d
       -0.033484638 0.032581076 0.08851488 0.06396839
000160 d4 e5 79 3d 18 29 0c bd 5a 13 c4 3d f8 30 39 3d
       0.061010197 -0.034218878 0.095740035 0.045212716
000170 40 58 d3 bd 64 68 2b 3d 8e 87 cf bd 2e 42 c9 3d
       -0.10319567 0.0418476 -0.10133277 0.09827076
000180 40 7a e7 3d d0 4c da 3c f0 df 10 3c e0 98 a1 3c
       0.11302614 0.026647955 0.008842453 0.019726217
000190 38 09 c6 3d a8 ec 8d 3c 60 59 7f bd 00 54 f2 3c
       0.09669727 0.01732476 -0.062341094 0.02958107
0001a0 6c b3 d7 bd e4 ed 9f bd 3c f6 74 bd 9e 1f a2 bd
       -0.10532269 -0.07809046 -0.05980514 -0.07916187
0001b0 d8 df a1 3d 4e 98 f2 bd cc cf a0 bd 64 89 23 3d
       0.07904023 -0.11845456 -0.07852134 0.039925948
0001c0 a6 16 a0 3d 6c 2b d6 3d a8 a6 e9 bd a8 cd 16 bd
       0.0781682 0.10457501 -0.1140874 -0.036817223
0001d0 00 f4 bc bc b2 a1 a1 3d 20 ce c5 bd e4 13 ae bd
       -0.023065567 0.07892169 -0.09658456 -0.084998876
0001e0 58 d8 a4 3d 20 49 b3 3d c0 3d 03 3b 48 f0 b4 3c
       0.08049077 0.08754182 0.002002582 0.022087231
0001f0 28 fd ea bd 8c 24 01 3d ae d4 ec 3d 10 9a 7b 3d
       -0.11474067 0.031528994 0.11564003 0.061426222
000200 c5 17 fb 3d 0c d1 b3 bd 80 ec 33 bd 77 40 30 3c
       0.12260393 -0.08780107 -0.043926716 0.010757557
000210 fa 6f 0e bd f0 3b 3a be e9 cd 5f 3d 75 43 5d bb
       -0.034774758 -0.18186927 0.05463973 -0.0033762131
000220 0b a1 ab 3c 97 50 8a 3d 01 6d 93 3d 21 db 07 bd
       0.020950815 0.067536525 0.07198525 -0.033167962
000230 f5 e1 ca 3c 6a fa b5 bd 68 f1 56 3d 33 51 99 3c
       0.024765948 -0.08885653 0.052476317 0.018715477
000240 1e ba f5 39 2c d2 f5 3d f9 cc 51 bc 1c af e5 bb
       0.0004686871 0.12002978 -0.012805217 -0.0070094
000250 75 64 b6 3d 5f ca f9 bd bb 70 15 3e e9 93 b4 bd
       0.089058794 -0.12196802 0.14593785 -0.08817274
000260 83 81 fe 3d 2b 5a f2 3c c1 02 cd bc 56 06 56 bd
       0.12427046 0.029584011 -0.025025727 -0.052252136
000270 a3 50 fb 3d c2 55 c8 bd 19 ce 97 3d 36 34 6a 3b
       0.122712396 -0.09781982 0.07412357 0.0035736687
000280 3e 0f 26 3e 80 d0 2c bd 01 7a 38 3d f8 93 25 bd
       0.16216752 -0.04219103 0.045038227 -0.040424317
000290 a0 77 55 bd 00 a0 d6 bd 55 40 b4 bd fb 79 3e bd
       -0.052116036 -0.10479736 -0.08801333 -0.04650305
0002a0 57 3b 38 3d b6 e9 99 3d 2a f3 69 bd 64 86 50 3d
       0.044978466 0.0751528 -0.057116665 0.050909415
0002b0 c9 29 3c 3d 65 71 2f bc 89 91 0a 3d 54 17 74 bd
       0.045938287 -0.010708188 0.0338302 -0.05959256
0002c0 52 86 ea 3b 14 0b cc 3d f6 65 8b bb cc 81 cf 3d
       0.0071571255 0.099630505 -0.004254098 0.10132179
0002d0 e5 89 b7 3c 06 af 19 3e e1 df 46 be cf ee 65 3c
       0.02240462 0.15008172 -0.1942134 0.014033987
0002e0 1d be 03 be ba c4 73 bd 5b 87 56 3d bc 84 65 bd
       -0.12865491 -0.059513785 0.05237518 -0.05603479
0002f0 29 c1 a6 bd cb 59 21 bd cd 45 24 bb 9b 0e 11 3d
       -0.08142311 -0.039392274 -0.0025066019 0.03541432
000300 5d 38 be 3d 16 8e 3e bd bc 06 b9 3b 68 fc 46 3c
       0.09288094 -0.046522222 0.0056465548 0.012145139
000310 33 75 9f bd ca 6c 14 3e 52 d7 c0 3d 92 c1 31 3d
       -0.07786026 0.14494625 0.09416069 0.043397494
000320 df df 86 3b a7 87 b1 bd 53 94 fb bb 3f 53 20 bd
       0.004116043 -0.08668452 -0.0076775937 -0.03914189
000330 f2 3e bc 3d 8b 01 a8 bc 54 d0 98 bd 05 df 8f bc
       0.09191693 -0.020508548 -0.074616104 -0.017562399
000340 b3 cd 8e bd a7 ec 21 bd 7a 01 f7 bd 47 1c ab 3d
       -0.06972828 -0.03953233 -0.120608285 0.08355003
000350 b5 f0 1e 3e 79 7a 0a 3d ff cd cd 3d f8 60 52 3e
       0.1552151 0.033808205 0.10049056 0.20544803
000360 26 81 a1 bd a8 64 c3 bc 68 a4 04 3c 35 ee 02 bd
       -0.07885961 -0.023851708 0.008095838 -0.031965453
000370 1e 89 0b 3d 83 be 04 3e 04 d6 6b bd 05 f1 a6 bd
       0.034066312 0.129633 -0.057577148 -0.081514396
000380 16 0e 57 3a 70 5e f9 bd 50 80 40 bd 30 f1 a0 bd
       0.0008203698 -0.12176216 -0.04699737 -0.07858503
000390 3a 08 4e bd 32 05 49 bd 8e e4 3f 3d 2f f7 89 bd
       -0.050300814 -0.04907722 0.046848826 -0.067366
0003a0 fc c7 7f bd 16 3e 0f 3e 47 c1 aa bd 2b 6f 10 3e
       -0.06244658 0.13988528 -0.08337646 0.14104907
0003b0 80 c7 de 3d 01 6d 90 bc c6 1f 8b bd 37 46 2b 3d
       0.10877895 -0.017630102 -0.0679317 0.04181501
0003c0 c4 58 88 3d 59 bf e8 bc d7 9f 89 bd e7 6a 11 3e
       0.06657556 -0.028411554 -0.0671994 0.14200936
0003d0 a2 5e e9 3c b9 b2 8b bd 4b 37 25 bc f6 c5 8e 3d
       0.028487507 -0.06821198 -0.010083984 0.06971352
0003e0 ca c9 85 3d 7d fc 02 be 50 0b 27 3e c1 70 1c 3e
       0.06532629 -0.12791629 0.16312909 0.15277387
0003f0 a8 52 01 3e 9a e7 10 bd 9f 48 5f 3c 93 24 83 3d
       0.12629187 -0.035377122 0.013628154 0.0640346

linear.weight f4 [32, 64]
000000 80 0a c8 bd 71 bb 93 3d cf 51 08 be da db 3b bd
       -0.09767628 0.07213486 -0.13312458 -0.045863964
000010 4c dd 0f 3e bf f3 06 3e 0d 95 67 3d a0 dd 23 3e
       0.14049262 0.1317892 0.05653863 0.16002512
000020 65 49 c6 bc 96 b2 37 bd af e9 05 3e 89 4e 1c be
       -0.02420492 -0.044848047 0.13077424 -0.15264334
000030 16 d2 01 be 3d 45 7a bd 8f 5e 98 3c ee a5 9c 3c
       -0.12677798 -0.061101187 0.018599777 0.01912209
000040 ae d9 18 be 56 12 f1 bc d9 e5 92 3d 5b 53 3f 3d
       -0.14926788 -0.029427689 0.07172746 0.046710353
000050 a8 4e cf bd 83 06 d6 bd 55 42 ac 3d c1 d6 20 be
       -0.10122424 -0.10450461 0.08411089 -0.15706922
000060 2c a5 07 be b1 93 52 be fc de 1f be 87 75 9b 3d
       -0.13246602 -0.20564152 -0.15612406 0.07590776
000070 fb b8 14 be 74 22 0b be da ac 02 be 3b 7a c9 3c
       -0.1452369 -0.13587362 -0.1276125 0.024594417
000080 d0 02 11 3e 00 45 3a 3e 5b 62 d9 bd 0a ab 2b 3e
       0.14161229 0.18190384 -0.10614463 0.16764465
000090 3b d1 3e be e9 c4 61 bc ca dc 26 3b cc 97 fc bc
       -0.18634503 -0.013779857 0.002546119 -0.030834101
0000a0 60 fd 20 be 38 de 59 3e 36 d5 48 bd 6c a1 7b bd
       -0.15721655 0.21276176 -0.04903146 -0.06143324
0000b0 15 51 8e 3d 02 6d fd 3b d7 60 71 3c 08 33 53 3e
       0.06949059 0.007733942 0.014732561 0.20624936
0000c0 66 db 18 be 3e dd 18 3e c3 d1 d4 bd f4 23 ca bd
       -0.14927444 0.14928147 -0.103915714 -0.09870139
0000d0 0a e7 7c bd f6 35 d4 bc 2d c4 0a 3e 9e d5 53 3d
       -0.061743774 -0.025904637 0.13551398 0.051717393
0000e0 10 b8 88 bd 0b 3d 29 3d f8 a2 dc bd a7 55 47 bc
       -0.06675732 0.04131798 -0.10773271 -0.012166417
0000f0 fb c7 2b bd 54 76 30 3e ba 78 4b 3d 9b 88 83 bd
       -0.041938763 0.17232639 0.04967568 -0.0642254
000100 f5 00 b3 3c 89 5f 49 3e 65 85 62 be a9 94 2c be
       0.021851042 0.1966535 -0.22121198 -0.16853584
000110 2f 21 d7 3d 42 66 02 3e 07 22 21 be 79 5a 50 3e
       0.10504376 0.12734321 -0.15735637 0.20347013
000120 b0 dc 3b 3e 94 2a 38 bd 95 78 06 3e 89 5b 07 be
       0.18345904 -0.04496248 0.13131936 -0.13218512
000130 3e 9f 85 bd f6 e6 86 bb 74 72 2e 3e 3b a5 51 3e
       -0.06524514 -0.004116888 0.17035848 0.20473187
000140 8f 90 45 be db 99 8e be 9d 71 25 3d 06 8a ee 3d
       -0.19293426 -0.27851757 0.040391553 0.1164742
000150 2b 34 2b be 00 3c 80 3d 81 13 b4 3d dc 91 b6 be
       -0.16719119 0.06261444 0.087927826 -0.35658157
000160 a3 c0 f8 bd 80 44 f1 bd 1c b9 cb bc 2a de 83 bd
       -0.121461175 -0.117806435 -0.02486854 -0.06438859
000170 93 63 10 bd 48 e8 b6 bd 8b a1 96 bd 59 47 1e bd
       -0.03525121 -0.08931023 -0.073550306 -0.03864226
000180 88 84 e0 3d d3 55 52 bd 7f 48 dc bc 32 7e c8 bc
       0.10962778 -0.05135138 -0.026890038 -0.024474237
000190 24 41 2f bd 22 e6 00 3d f9 a2 cf bd 8a 42 0c be
       -0.042786732 0.03146947 -0.101385064 -0.13697258
0001a0 ab d4 3c be 51 15 8c 3d 08 b8 f7 bc ff 0d 0f be
       -0.18440501 0.06840003 -0.03023912 -0.13970183
0001b0 a1 5d ee 3d 76 f4 2e 3e 86 bb f9 b9 69 9e e3 3c
       0.11638952 0.17085442 -0.00047632697 0.027785497
0001c0 57 c6 b2 bc 73 1a 26 3e bf 25 ca bd dc 0c 0e be
       -0.021823091 0.16221027 -0.09870481 -0.13872093
0001d0 b1 4a 2e be ff a0 20 3e 51 eb 9d 3d f7 25 09 3e
       -0.1702068 0.15686415 0.07710899 0.13393389
0001e0 3b cc 14 be 87 52 a0 3d 81 ad e1 bd 89 91 61 bd
       -0.14531033 0.07828241 -0.11019421 -0.055070434
0001f0 6d 30 c3 3a 08 eb 88 3e 5b 64 8d ba b0 f2 40 3c
       0.0014891751 0.26741815 -0.0010787355 0.011776611
000200 d8 3c 5b 3c 01 67 93 bd aa cd 89 3e e4 3b 5b bd
       0.0133812055 -0.07197381 0.26914722 -0.053523913
000210 8c e6 33 be 8b 3a 03 be 29 1f e3 3d e0 44 7c bd
       -0.17568415 -0.12815301 0.11089928 -0.06158912
000220 eb 76 c1 bb ad 80 00 3d 9d b5 17 be b2 7d 2c 3e
       -0.0059040687 0.031372715 -0.14815374 0.16844824
000230 35 d7 9d 3d 22 8e 26 3d 63 ee 08 be bf 88 4e be
       0.07707063 0.040662892 -0.13372187 -0.20169352
000240 66 b0 b6 3d f5 5f 9c 3d d1 a2 5f 3b bc 28 16 be
       0.08920364 0.0763549 0.0034124146 -0.14663976
000250 7c 16 42 3e 0c fc bd 3c 1e 77 43 be 3d 93 5c 3e
       0.1895389 0.023191474 -0.19088408 0.21540542
000260 0f 91 6b 3e 0d b1 a1 3d 59 18 21 3d 93 43 c7 bd
       0.23004554 0.07895098 0.03932986 -0.09729686
000270 ef 27 8d 3d 1c c5 62 3d 35 03 62 3b 0a 18 d7 bc
       0.06892382 0.05536376 0.0034486775 -0.02625658
000280 87 2d 4e be 1e 64 7f bc c2 25 91 3d a6 f4 3d bc
       -0.20134555 -0.015587835 0.0708728 -0.011593973
000290 77 de 21 3e 4c 82 c5 bd 64 51 06 3d 2a bb 51 3e
       0.1580752 -0.09643993 0.032792464 0.20481554
0002a0 ec d8 89 3d da dd cb 3c 5e ec 55 3e c9 d1 1b 3e
       0.06730828 0.02488606 0.20890948 0.15216745
0002b0 f6 bc 01 be 5e f4 3e bd a7 ba 21 be 10 62 40 be
       -0.12669739 -0.046619765 -0.15793858 -0.18787408
0002c0 7f 02 b4 3d 5f 39 ae bd d3 71 0c 3e af b3 89 3e
       0.087895386 -0.085070364 0.13715295 0.268949
0002d0 89 02 63 3e 68 6d b7 bd c0 53 20 be 8b 66 1e be
       0.22168936 -0.089564145 -0.15656948 -0.15468805
0002e0 5e d6 9c 3d d7 7a d6 bc 91 66 ea ba c1 9c 6d 3e
       0.07658075 -0.026181621 -0.001788335 0.23204328
0002f0 c6 65 b6 bd 53 15 ea bc 62 37 fb bb 47 7e 85 3d
       -0.089061305 -0.028574621 -0.0076665143 0.06518226
000300 9b 14 c0 3d 44 e0 16 be af 8c b7 3d c7 97 8a 3c
       0.0937893 -0.14733988 0.0896238 0.016918076
000310 54 6d e2 bd c7 01 61 be 83 23 f5 3c 34 e8 5c be
       -0.11056009 -0.21973334 0.02992416 -0.21572953
000320 62 30 23 be c9 2e 03 3d c4 d2 35 bd 03 4a 28 3d
       -0.15936425 0.03202704 -0.044390455 0.041086208
000330 1c 5f 92 3d c7 ef 54 be d2 43 53 be 5c 65 fa bd
       0.07147047 -0.20794593 -0.2063134 -0.12226364
000340 bb 8f a1 3d 95 b9 97 3d 68 7b 32 3c 07 dc ff bd
       0.078887425 0.07408444 0.01089368 -0.12493139
000350 95 91 14 3e 60 41 27 3e 01 d4 a0 3c ec 2a 3a 3e
       0.1450866 0.16333532 0.019632341 0.18180436
000360 6e dd 84 3e 79 d7 e9 3c de 4d ba bd 8a 44 08 bd
       0.25950187 0.028545128 -0.09096883 -0.03326849
000370 b8 e0 4b 3c 89 cd d7 3c 25 60 e8 3b 54 52 38 bd
       0.012443714 0.026343124 0.0070915394 -0.04500039
000380 80 97 f9 bd 8b f5 af bd 7d 90 94 3d 76 f7 f4 bb
       -0.121870995 -0.085917555 0.072541215 -0.0074757887
000390 81 2f 2a 3e 82 5b 16 be c0 3a 03 3d 05 cc 27 3d
       0.16619684 -0.14683345 0.03203845 0.040966053
0003a0 b4 2a 15 3e 19 84 24 be 35 4b 90 3d 57 40 3c 3e
       0.14567071 -0.16066016 0.070455946 0.18383919
0003b0 bf 29 7f bd 64 2e f0 bd c1 b0 fa 3c 7c e4 59 be
       -0.06229567 -0.11727598 0.030601861 -0.21278566
0003c0 1c 47 d6 3d 38 79 d2 3c 13 52 39 3e dc f0 60 3e
       0.10462782 0.025692567 0.18097715 0.2196688
0003d0 8c 26 7a 3d 85 c4 60 be c2 a1 24 be 01 46 41 be
       0.061071917 -0.21949966 -0.1607733 -0.1887436
0003e0 25 14 ec 3d 0a 62 01 bc 57 91 10 3d 96 c2 88 3e
       0.1152728 -0.0078969095 0.035294857 0.26710957
0003f0 e2 c8 26 be 27 22 1e be 24 0f 10 be eb 52 3e bd
       -0.16287568 -0.15442716 -0.14068276 -0.046465795

linear.bias f4 [32]
000000 e6 bd b7 3c 6e bc 58 3d d6 60 14 be 52 4d 0a be
       0.022429418 0.052914076 -0.14490065 -0.13506058
000010 75 ec 5a bd 47 88 aa bd 47 24 0f 3d e1 98 fc 3d
       -0.05344816 -0.08326774 0.034946706 0.12333847
000020 4b 0a 18 be 95 bf f3 3d 4f 76 6b bd 9a fd 08 3e
       -0.14847676 0.11901776 -0.057485875 0.13377991
000030 62 ea 5b 3d a3 c0 7a 3d 04 a8 d9 bb 70 7e 12 3d
       0.05369032 0.06121887 -0.0066423435 0.03576511
000040 8a 28 03 3e 9a 95 b6 bd 1c 0c 19 bd 50 b0 19 3c
       0.12808433 -0.08915253 -0.037365064 0.009380415
000050 dc 4d 24 3d 87 7c 36 3d d9 53 4e 3d 80 5c 54 b9
       0.040113315 0.044552352 0.050372932 -0.00020252354
000060 e3 8d 03 3e 5f 1f 00 3c 98 6f 21 3e a6 32 e2 bd
       0.12847094 0.007819979 0.15765226 -0.11044817
000070 dd 45 b7 3c f7 82 f5 3c 51 74 f9 bc ce 5d 1e 3e
       0.02237218 0.029969675 -0.030450972 0.15465471

linear1.weight f4 [1, 32]
000000 67 a0 73 3e 62 9c 35 3e fb f8 73 be 43 ee e1 bd
       0.23791657 0.17735437 -0.23825447 -0.11031773
000010 f6 1e 44 3e 14 31 96 3e 21 79 7a be 73 b0 19 3e
       0.19152436 0.2933432 -0.2446027 0.15008716
000020 91 af 8d be 75 04 41 3e e7 6a a3 3e 9c 4f 43 3e
       -0.2767301 0.18849356 0.31917498 0.19073337
000030 f7 5d 8e be 4b fe 6e 3e 21 26 4a be 9e 92 98 be
       -0.27806064 0.23339193 -0.19741108 -0.2979936
000040 ca 39 54 3e c1 c5 98 3e e2 59 41 be 1b db 5e 3e
       0.2072517 0.29838374 -0.18881944 0.2176327
000050 57 c3 67 be d2 5c 83 be 8a 3d 98 be e2 d4 2a be
       -0.2263311 -0.25656754 -0.2973445 -0.16682771
000060 a5 42 8b 3e 27 1d 61 3e 28 e3 49 3e a8 a9 45 be
       0.27199283 0.21983777 0.1971556 -0.19303
000070 4d eb 12 3e 72 bc 17 be 0e 81 79 be b1 18 21 3e
       0.14347573 -0.1481798 -0.24365637 0.15732075

exp_avg f4 [256, 33]
000000 b2 ee c2 38 8a 8e c3 39 20 39 21 37 8f a9 70 b7
       9.295101e-05 0.00037299498 9.609648e-06 -1.4344593e-05
000010 40 a8 e2 b6 b8 4b a9 38 e2 17 48 b8 84 5d c3 38
       -6.7549117e-06 8.072652e-05 -4.770596e-05 9.315743e-05
000020 2a 1e 0a 39 28 3d 33 38 7d 1e f1 38 38 a1 9d 37
       0.00013171943 4.2733882e-05 0.000114974544 1.8790932e-05
000030 80 63 9e 39 a0 c7 bc 37 00 c0 69 36 00 16 07 b6
       0.00030210242 2.2504304e-05 3.4831464e-06 -2.0129373e-06
000040 85 8a 06 ba c4 76 dc 38 a8 fe 6d b8 92 0c 78 39
       -0.00051323354 0.00010512539 -5.674237e-05 0.00023655806
000050 c8 15 dc 39 4c 49 41 ba a8 7d 0c b9 26 0b f3 38
       0.00041977898 -0.0007373288 -0.00013398251 0.000115892195
000060 bd 5c ba 39 e9 6a fe 38 7f 04 68 39 f8 d9 de 38
       0.0003554578 0.000121315774 0.00022126919 0.00010626385
000070 8f 94 24 b9 6c fc 2c 39 21 04 76 3a 6d 8c 1b 39
       -0.00015695601 0.00016497233 0.00093847705 0.00014834265
000080 c6 d1 51 b9 78 a2 9b ba c8 e5 90 ba 9b 07 6b ba
       -0.0002000994 -0.0011873981 -0.0011054808 -0.0008965672
000090 b8 08 d0 37 e3 18 84 ba 66 e9 2b ba b1 10 27 3a
       2.4799592e-05 -0.0010078218 -0.00065579114 0.00063730316
0000a0 e4 27 8a ba 41 6c 56 ba 0e 91 68 b9 2a 94 e5 b9
       -0.0010540453 -0.0008179583 -0.00022179281 -0.00043788675
0000b0 48 75 01 ba 82 7d 76 3a 2b 68 ae b9 54 a0 40 39
       -0.0004938436 0.00094028574 -0.00033265477 0.00018370274
0000c0 38 4d f1 b9 fe 0a 14 3a 20 af bc 36 4a 81 b3 39
       -0.00046024635 0.000564739 5.623224e-06 0.00034237868
0000d0 d5 f2 b2 b8 8c ff 7d 38 6f 53 a4 39 1d ed 32 3a
       -8.5329324e-05 6.0557897e-05 0.0003134268 0.0006825494
0000e0 0a e4 a1 ba 25 bd a4 ba 1a 40 9f ba c1 22 cf b9
       -0.0012351286 -0.0012568576 -0.0012149841 -0.0003950801
0000f0 c3 28 a9 ba d2 fa e0 ba e0 bb ad ba 36 74 a1 ba
       -0.0012905825 -0.0017164594 -0.0013254844 -0.0012317959
000100 97 60 a9 ba 5e 30 85 b9 d6 2f 8a b9 45 6e 74 b9
       -0.0012922463 -0.00025403773 -0.00026357052 -0.00023310732
000110 4c 41 ee b9 29 fb 4e 39 ea 44 df b9 96 1f c9 ba
       -0.00045443547 0.00019739255 -0.0004258522 -0.0015344496
000120 32 30 db 3a a1 6b 4e bb 69 7f b2 b9 ce 1a e7 39
       0.0016722737 -0.0031497257 -0.00034045734 0.00044079724
000130 18 04 9c 39 23 c0 76 39 c0 c4 82 b5 c3 78 8a b9
       0.0002975769 0.00023531965 -9.743017e-07 -0.00026411386
000140 a4 41 10 b9 88 af a0 b9 0e 75 11 b9 5e 62 8c b9
       -0.00013757363 -0.0003064836 -0.00013871884 -0.0002677617
000150 41 25 f9 b9 bc 50 86 b8 44 e3 57 39 31 76 62 b9
       -0.00047520737 -6.404656e-05 0.00020588661 -0.0002159707
000160 74 89 f8 3a 7b fd 87 b9 5c 07 ab b8 96 29 7f b9
       0.0018961863 -0.00025938064 -8.155286e-05 -0.00024334187
000170 7e b1 0a 38 fb e1 86 b9 0a 8b a4 b9 41 2c 77 b9
       3.3067066e-05 -0.0002572684 -0.0003138411 -0.00023572241
000180 1e 22 1b 39 ee d9 85 b9 15 32 bb b9 d0 1a 28 b9
       0.00014794662 -0.00025530107 -0.00035704733 -0.00016031717
000190 df 00 cf 39 6e fe 05 3a 37 1a 65 b8 f5 b3 0f 3a
       0.00039482766 0.00051114603 -5.462227e-05 0.0005481833
0001a0 72 f6 42 39 c0 23 23 b9 6e 09 77 39 99 8b d3 39
       0.0001859309 -0.00015558209 0.00023559268 0.00040349065
0001b0 f9 60 35 b9 a7 31 5a b9 fe 64 bb b7 78 af 18 b7
       -0.0001729763 -0.00020808597 -2.2339165e-05 -9.1007605e-06
0001c0 7d 99 0a b9 fc ce 53 b9 ee e0 31 b9 4e 6b ba b9
       -0.00013217884 -0.00020199636 -0.00016963828 -0.00035556633
0001d0 c2 09 2e b9 51 62 73 b9 80 10 7e b9 33 22 47 b9
       -0.00016597568 -0.00023210912 -0.00024229474 -0.00018990859
0001e0 60 89 e6 38 3c f4 44 b9 82 47 05 b9 1e 35 c1 39
       0.00010992843 -0.00018783001 -0.00012710507 0.00036851404
0001f0 d6 56 de b8 47 d2 77 39 21 2a e4 b8 88 45 cd b8
       -0.000106019594 0.0002363409 -0.00010879734 -9.788113e-05
000200 f6 26 c2 b8 a5 67 56 39 58 82 dd b8 e7 33 70 b9
       -9.257898e-05 0.00020447241 -0.000105623796 -0.00022907519
000210 3e 28 17 b8 ff 51 df b8 cc 0e 33 39 7f 75 9f b8
       -3.6038684e-05 -0.000106487416 0.00017076283 -7.603596e-05
000220 50 e5 dc 38 92 8f 20 ba 57 f9 a0 39 9b ac 25 ba
       0.0001053313 -0.0006124909 0.0003070335 -0.00063199707
000230 90 0a 3a 38 0b a1 87 b9 e9 fa 97 38 c2 ba cc 39
       4.4355693e-05 -0.00025869193 7.246977e-05 0.00039049058
000240 40 4d 86 38 1b c7 fb 38 ec 3c 55 39 dc 05 05 38
       6.404007e-05 0.00012005699 0.00020335958 3.1715128e-05
000250 c4 27 89 39 e0 9e 24 b8 30 43 b2 39 8e fd 85 b8
       0.00026160304 -3.924861e-05 0.00034000864 -6.3891624e-05
000260 f9 29 f3 b9 ee 2f 32 3a 42 1e 1d 3a ca aa b1 b8
       -0.00046379844 0.0006797303 0.00059935835 -8.47183e-05
000270 b6 60 30 ba 48 26 86 b8 27 63 1a 39 0c 2a c0 b8
       -0.0006728278 -6.396748e-05 0.00014723522 -9.163105e-05
000280 48 8e cf b9 b3 40 e5 b8 e0 cd b7 b9 b4 57 dc b8
       -0.00039588124 -0.00010931622 -0.0003505787 -0.000105067535
000290 ba 3a c3 38 52 ef b0 38 a2 b2 d4 38 30 d4 2d 3a
       9.309263e-05 8.436911e-05 0.00010142221 0.00066310447
0002a0 80 f1 b9 38 2a 2d 2e 3a 4d 22 16 b9 65 64 6c 39
       8.86647e-05 0.0006644303 -0.00014317893 0.00022544114
0002b0 51 75 cf b9 db db 8f 39 af 9e b4 b9 80 be 10 38
       -0.00039569524 0.0002743889 -0.00034450504 3.4509692e-05
0002c0 c3 ba f3 b7 c4 06 d3 38 ce e1 e8 b9 b8 a7 9f 39
       -2.9054825e-05 0.00010062524 -0.00044418726 0.00030451803
0002d0 ff 4d 1c ba d9 fb 25 3a 3a 8e d4 b9 6d 0f 07 3a
       -0.000596255 0.0006331779 -0.00040541758 0.000515214
0002e0 5b af ac b9 f4 98 99 ba d0 4e 53 3a 1b 6f 40 39
       -0.00032937046 -0.0011718557 0.0008060755 0.00018351937
0002f0 71 cb cb 38 8b a2 52 39 37 9a 14 39 52 d0 38 3a
       9.717688e-05 0.00020087713 0.0001417183 0.0007050085
000300 67 f4 15 39 47 af 81 38 e0 16 0e 39 00 db fe 37
       0.00014300794 6.183847e-05 0.00013550697 3.038114e-05
000310 ed fb 30 39 31 e3 18 3a f5 ac 23 ba 6a 91 01 3a
       0.00016878518 0.0005832194 -0.0006243729 0.0004942628
000320 58 d7 cb 39 48 fb 2f b9 74 c6 e2 39 f2 40 ef 39
       0.0003887962 -0.0001678291 0.00043253938 0.0004563402
000330 13 7f 82 b9 31 1f fd 39 ee 39 00 39 68 7d e9 b9
       -0.0002489021 0.0004827916 0.00012228612 -0.00044534658
000340 0e a6 47 ba 58 be 69 37 22 16 03 39 67 49 13 b9
       -0.00076159916 1.39322e-05 0.00012501379 -0.00014046357
000350 18 32 e0 b8 56 d2 28 b9 13 74 d3 b9 6b ae 50 b9
       -0.00010690483 -0.00016100085 -0.00040331538 -0.00019901402
000360 3e 9e d1 b8 df 07 a9 b8 50 82 bc b8 37 96 c9 b9
       -9.9953715e-05 -8.060014e-05 -8.988811e-05 -0.00038449626
000370 10 1c db b9 fc 59 16 ba 62 11 ad 39 0d 7d 09 ba
       -0.00041791843 -0.00057354546 0.00033010083 -0.0005244769
000380 1e 4a b0 39 5a 80 0e ba a4 fd 13 ba 34 33 07 ba
       0.00033624558 -0.0005435996 -0.00056454004 -0.0005157471
000390 80 21 0a 39 e8 27 0c ba e7 a4 16 ba 80 70 f0 38
       0.00013173185 -0.00053465227 -0.0005746618 0.000114650466
0003a0 00 08 97 35 41 2f ac 38 b8 3f 24 39 d2 27 22 b8
       1.1252705e-06 8.210401e-05 0.00015663996 -3.8660895e-05
0003b0 18 88 ba b9 db 7e 28 39 c6 d1 88 b9 68 b8 3c 38
       -0.00035578082 0.00016068986 -0.00026096235 4.4994435e-05
0003c0 44 13 ce 38 68 51 0e 37 ac 7a 6a b8 80 38 1b b7
       9.826434e-05 8.482813e-06 -5.5904195e-05 -9.251875e-06
0003d0 84 a7 8e 37 92 69 8d 38 50 25 2a b9 e0 d9 4f 37
       1.7005725e-05 6.743068e-05 -0.00016226363 1.2388889e-05
0003e0 82 51 17 b9 44 df 9b 39 03 42 54 b9 3a 7e 06 ba
       -0.00014430846 0.0002973025 -0.00020242487 -0.00051305036
0003f0 7a f8 e8 39 c0 21 8d 39 3d 36 01 39 0e 66 4c 39
       0.00044435618 0.0002691876 0.00012322604 0.00019492974
